app/src/main/assets/execution_int8.onnx (onnx, 115556 bytes, 38 tensors)

features.0.bias f4 [32]
0	0xbdb4c638	-0.0882687
1	0xbdb33342	-0.08750011
2	0xbd4af691	-0.04955155
3	0x3dc29df8	0.095027864
4	0xbdf4b53a	-0.11948629
5	0xbc9a328b	-0.018822929
6	0x3daa2105	0.08307079
7	0xbdee64e3	-0.11640336
8	0x3e3275e3	0.17427783
9	0x3e12ccd6	0.14335951
10	0xbe46127a	-0.19342986
11	0x3ddfa9cb	0.10921057
12	0xbde118cc	-0.10991058
13	0xbe09c1f0	-0.13452888
14	0xbdbe9d3e	-0.09307335
15	0xbd12273d	-0.03568195
16	0xbd7f8d5d	-0.062390674
17	0x3e3a390d	0.18185826
18	0x3ce36fa2	0.027763192
19	0x3e1b152e	0.15144798
20	0x3e2a7380	0.16645622
21	0xbd1c8542	-0.038213022
22	0x3d3eda4b	0.0465949
23	0xbe2edbe9	-0.17076077
24	0x3d7fc0b1	0.062439624
25	0xbdc57257	-0.09640949
26	0xbe2eda52	-0.1707547
27	0xbe40c9c8	-0.18826973
28	0x3e38f38a	0.18061653
29	0x3bcb2aea	0.006200184
30	0xbc7464df	-0.014916628
31	0x3cf76964	0.030201621

features.1.weight f4 [32]
0	0x3f81d44e	1.0142915
1	0x3f7feb98	0.9996886
2	0x3f81176e	1.0085275
3	0x3f802d93	1.0013908
4	0x3f8165a3	1.0109142
5	0x3f7fff5f	0.9999904
6	0x3f8049a9	1.0022479
7	0x3f7ccaab	0.98746747
8	0x3f7eade5	0.9948409
9	0x3f8001fb	1.0000604
10	0x3f7cc739	0.9874149
11	0x3f7f0349	0.9961439
12	0x3f7f4fce	0.9973115
13	0x3f7dbc31	0.9911528
14	0x3f807739	1.0036384
15	0x3f7ebf6b	0.9951083
16	0x3f813064	1.0092893
17	0x3f803d67	1.0018739
18	0x3f7e657a	0.9937359
19	0x3f7fd219	0.9992996
20	0x3f7e8e02	0.99435437
21	0x3f7db467	0.991034
22	0x3f80081d	1.0002476
23	0x3f7f985b	0.9984185
24	0x3f80d443	1.0064777
25	0x3f7cd61f	0.9876422
26	0x3f811326	1.0083969
27	0x3f806488	1.003068
28	0x3f7f1de3	0.9965498
29	0x3f7f0c5d	0.9962824
30	0x3f816508	1.0108957
31	0x3f7f4a46	0.9972271

features.1.bias f4 [32]
0	0x3c68d724	0.01421145
1	0x3be2bf6f	0.0069197933
2	0xba3c038c	-0.00071721594
3	0x3c401fc5	0.011726324
4	0x3c916c03	0.0177517
5	0x3b97ebdc	0.004636271
6	0x3af66365	0.0018797932
7	0xbc16e026	-0.009208715
8	0xbbd1756e	-0.0063921725
9	0x39a035c9	0.0003055765
10	0xbbe27971	-0.0069114496
11	0xbc001845	-0.007818286
12	0xbb924386	-0.004463616
13	0x3a9b9185	0.001186893
14	0x3a821718	0.0009925095
15	0xba5fb032	-0.000853303
16	0x3b86b3e9	0.0041108024
17	0xbab8042e	-0.0014039332
18	0xbc3145a7	-0.010819829
19	0x3c0dcd3d	0.00865489
20	0xbb2a9736	-0.002603007
21	0x3a9c37b7	0.001191846
22	0x3be4ac5c	0.0069785547
23	0xbc3c22ac	-0.011482876
24	0x3bf2e173	0.0074121295
25	0xbc31ff72	-0.010864126
26	0x3c19335c	0.009350624
27	0x3a067204	0.0005128684
28	0xbaa9275c	-0.0012905407
29	0xbc165368	-0.009175159
30	0x3c198eda	0.009372437
31	0x3a45b638	0.00075421063

features.1.running_mean f4 [32]
0	0x3e5c7ef4	0.21532804
1	0x3ecb6388	0.39724374
2	0x3e466462	0.1937423
3	0xbec71161	-0.38880447
4	0xbe3b4858	-0.18289316
5	0xba247765	-0.00062738947
6	0x3f6ef18d	0.9333733
7	0x3ddc56ce	0.10758744
8	0x3e888eda	0.26671487
9	0x3f82e732	1.0226805
10	0x3f091a21	0.53555495
11	0xbe1cfc9b	-0.15330736
12	0x3d41fa52	0.047357865
13	0x3dfab438	0.12241405
14	0x3e9ee53c	0.31034267
15	0xbf43fd98	-0.7655883
16	0x3d5ddcf6	0.054165803
17	0x3f6193ad	0.8811596
18	0xbf70d052	-0.9406787
19	0x3e537a6b	0.20652167
20	0x3f4cf234	0.8005707
21	0xbee2d388	-0.4430201
22	0x3df6f5d0	0.12058604
23	0xbdcbc35e	-0.09949373
24	0x3f5e2ba8	0.86785364
25	0xbca86b4a	-0.020558972
26	0x3e9a0a7a	0.30086118
27	0xbf09ffcc	-0.5390594
28	0xbf63d115	-0.8899091
29	0x3e407a82	0.18796733
30	0xbf920fbb	-1.141105
31	0x3cb98852	0.02264801

features.1.running_var f4 [32]
0	0x3d101770	0.0351786
1	0x3c47b874	0.012189973
2	0x3bd0d75c	0.006373329
3	0x3ba3abf6	0.0049948646
4	0x3cbd0f96	0.023078721
5	0x3c43be6e	0.011947257
6	0x3be3bdc0	0.00695011
7	0x3b341273	0.0027476817
8	0x3c0a7e33	0.00845294
9	0x3c3c9ed2	0.011512475
10	0x3b62b456	0.0034592352
11	0x3c37bda6	0.011214649
12	0x3c1adda1	0.0094522545
13	0x3c79ca54	0.015245993
14	0x3c8bd7b5	0.01707063
15	0x3b2110a0	0.002457656
16	0x3c96f6a3	0.018428152
17	0x3c8d7544	0.01726783
18	0x3c14a139	0.009071642
19	0x3c24a00c	0.010047924
20	0x3cd19349	0.025582926
21	0x3c016b2b	0.007899086
22	0x3c15530b	0.009114037
23	0x3b319f12	0.002710287
24	0x3c8f4f48	0.017493859
25	0x3b3019a9	0.0026870763
26	0x3ce034be	0.0273689
27	0x3bc4d373	0.006006652
28	0x3c391f65	0.011298989
29	0x3c904de1	0.01761526
30	0x3bc71245	0.006075176
31	0x3c8e7b98	0.017392918

features.3.bias f4 [64]
0	0xbd2bc869	-0.041939173
1	0xbcde4467	-0.027132226
2	0xbe0700a9	-0.13183846
3	0x3ddbe8d6	0.10737769
4	0xbe0e9618	-0.13924444
5	0xbd584899	-0.05280361
6	0xbda871f8	-0.08224863
7	0x3d55b5c9	0.052175317
8	0x3de40401	0.11133576
9	0x3e31dcfc	0.17369455
10	0xbdf49976	-0.11943333
11	0x3da353a6	0.07974939
12	0x3cfceb55	0.030873934
13	0xbddebf31	-0.108763106
14	0xbe2c6bf4	-0.16838056
15	0x3de04b39	0.109518476
16	0x3c01c497	0.007920406
17	0xbc63565b	-0.013875569
18	0xbe2b1017	-0.16705357
19	0x3e0bb907	0.13644801
20	0xbcad65dc	-0.021166734
21	0xbc426ea7	-0.011867202
22	0x3d2fa688	0.042883426
23	0x3c4ce819	0.012506508
24	0x3e3258e2	0.17416719
25	0xbdf6fce4	-0.12059954
26	0x3dbfa3ec	0.093574375
27	0xbc5c872d	-0.013459963
28	0xbdfc5f5c	-0.12322876
29	0x3dbc2a45	0.0918775
30	0xbbc7d28f	-0.0060980986
31	0xbdcca266	-0.099919125
32	0xbe03529b	-0.1282448
33	0xbe36cdf3	-0.17852001
34	0x3da47a1e	0.080311045
35	0xbe2eef3d	-0.1708345
36	0xbe16b711	-0.14718272
37	0xbd4ba461	-0.04971731
38	0xbcd05de5	-0.025435397
39	0x3d77adb7	0.0604684
40	0x3e2cf2a9	0.16889443
41	0x3ca0c1b8	0.019623622
42	0x3d3ed893	0.04659326
43	0xbe1c3ab8	-0.15256774
44	0xbddaf6be	-0.106915936
45	0x3c8d47eb	0.017246207
46	0x3d937ca2	0.07201506
47	0xbde472c5	-0.11154703
48	0xbcabf401	-0.020990374
49	0xbdcd4a49	-0.100239344
50	0xbd9403f0	-0.072273135
51	0xbe2b2dd2	-0.16716698
52	0x3d83e46d	0.06440053
53	0xbe2a24b4	-0.16615564
54	0x3d5f561b	0.054525476
55	0x3ddf6746	0.1090837
56	0x3dea034a	0.114264086
57	0xbccfd76e	-0.02537128
58	0x3e274d1b	0.16338007
59	0xbd91996d	-0.07109342
60	0x3d433c43	0.047664892
61	0xbe0fcbf8	-0.14042652
62	0xbd9765cd	-0.07392464
63	0xbe0f4127	-0.13989697

features.4.weight f4 [64]
0	0x3f7f51bf	0.9973411
1	0x3f7ee734	0.9957154
2	0x3f7e84c0	0.9942131
3	0x3f819316	1.0123012
4	0x3f813416	1.009402
5	0x3f7d9080	0.99048615
6	0x3f7e2df9	0.992889
7	0x3f809a77	1.0047139
8	0x3f7fbe26	0.9989952
9	0x3f8172fa	1.0113213
10	0x3f801f4f	1.0009555
11	0x3f7db8ff	0.99110407
12	0x3f7fd31e	0.99931514
13	0x3f8173ff	1.0113524
14	0x3f7f34f9	0.99690205
15	0x3f7f2f0c	0.9968116
16	0x3f800407	1.0001229
17	0x3f7eee0b	0.99581975
18	0x3f80d7da	1.0065873
19	0x3f8256fa	1.0182793
20	0x3f7f55cf	0.9974031
21	0x3f7f57a7	0.9974312
22	0x3f7f6046	0.99756277
23	0x3f7fac81	0.99872595
24	0x3f812608	1.0089731
25	0x3f7ef61f	0.995943
26	0x3f802b25	1.0013167
27	0x3f7ecc41	0.99530417
28	0x3f80a9c1	1.0051805
29	0x3f812e39	1.0092231
30	0x3f801360	1.0005913
31	0x3f811715	1.0085169
32	0x3f7df012	0.99194443
33	0x3f7ff82b	0.9998805
34	0x3f7f2562	0.99666417
35	0x3f7dcb99	0.9913879
36	0x3f7f497b	0.997215
37	0x3f805827	1.0026902
38	0x3f807164	1.0034604
39	0x3f7cdda5	0.987757
40	0x3f7ed200	0.99539185
41	0x3f7f0070	0.9961004
42	0x3f7d1359	0.9885765
43	0x3f7d6bae	0.9899243
44	0x3f7fac3f	0.998722
45	0x3f800093	1.0000175
46	0x3f8010a1	1.0005075
47	0x3f7d8659	0.99033123
48	0x3f810259	1.0078841
49	0x3f827e7e	1.0194852
50	0x3f80730d	1.0035111
51	0x3f810df8	1.0082388
52	0x3f7ce963	0.9879362
53	0x3f7c87cb	0.98644704
54	0x3f80a456	1.0050151
55	0x3f7b631d	0.9819811
56	0x3f8047a3	1.0021862
57	0x3f803f9a	1.001941
58	0x3f819cf8	1.0126028
59	0x3f8022d2	1.0010626
60	0x3f80e3ef	1.006956
61	0x3f81556a	1.0104191
62	0x3f808071	1.0039197
63	0x3f7e88f8	0.9942775

features.4.bias f4 [64]
0	0xba75ea28	-0.00093809003
1	0xbb401e04	-0.0029314766
2	0xbb4e365c	-0.0031465506
3	0x3be597a6	0.0070066033
4	0x3c2298b2	0.009924101
5	0xbbb0d69b	-0.0053966767
6	0xbbd6236b	-0.006534984
7	0x3bb632f1	0.005560272
8	0xba8d8169	-0.0010796014
9	0x3c260f76	0.010135522
10	0x3bc3ab92	0.0059713805
11	0xbc40b6bb	-0.011762316
12	0x3b018c6d	0.0019767538
13	0x3c313871	0.010816679
14	0xbb0e6187	-0.0021725611
15	0xbb679aa5	-0.0035339978
16	0x398ae771	0.00026493848
17	0xb9dd15db	-0.00042168688
18	0x3bfd0e6c	0.0077226665
19	0x3c4b55c0	0.012410581
20	0xb9a9822c	-0.00032331177
21	0x3b31254a	0.0027030283
22	0xb9a48060	-0.00031376164
23	0x3aab47f2	0.0013067706
24	0x3c1f38d4	0.009718139
25	0xbb32de18	-0.0027293023
26	0x3aa3490f	0.0012457686
27	0xbb36336b	-0.0027801644
28	0xbb518dd0	-0.0031975396
29	0x3b6c5354	0.003606041
30	0x3af048e9	0.0018332276
31	0x3c172b07	0.009226567
32	0xbbce441e	-0.0062947413
33	0x3a3734c3	0.0006988758
34	0x3aadf76d	0.0013272591
35	0xbb88b290	-0.004171677
36	0xbb76ed0b	-0.003767791
37	0xba8e9afc	-0.0010879929
38	0x3b7b6eff	0.003836572
39	0xbbfff15b	-0.0078107542
40	0xbbbb23e7	-0.005711067
41	0xbb874182	-0.004127682
42	0xbc334991	-0.010942833
43	0xb998b70a	-0.00029128074
44	0x3ab112bf	0.0013509615
45	0x3b0f048a	0.0021822774
46	0xb890feb0	-6.913894e-05
47	0xbb346f4e	-0.0027532163
48	0x3c3122b2	0.010811495
49	0x3c8390aa	0.016060192
50	0x3b9e3604	0.0048282165
51	0x3c229910	0.009924188
52	0xbc372de9	-0.011180379
53	0xbc689e99	-0.014197969
54	0x3b490fe7	0.0030679645
55	0xbc817b9c	-0.015806012
56	0xbb9c96d8	-0.004778724
57	0x3b6076d3	0.0034250512
58	0x3c32c0a4	0.010910187
59	0xbbbe76ea	-0.0058125155
60	0x3c37b6d7	0.011213026
61	0x3c196e73	0.009364712
62	0x3a0cb238	0.0005367133
63	0xbb674941	-0.0035291465

features.4.running_mean f4 [64]
0	0xbe063bc8	-0.13108742
1	0x3f0f1ba5	0.5590156
2	0xbebfdb56	-0.37472028
3	0xbcf0b7e7	-0.029384566
4	0xbd8ecb12	-0.06972326
5	0xbeb84c2f	-0.35995623
6	0x3ea0c9f0	0.31404066
7	0xbe08e40e	-0.13368246
8	0xbc99623e	-0.018723603
9	0x3d9bdfde	0.07611059
10	0xbe8cb72e	-0.27483505
11	0xbe9bb766	-0.3041336
12	0xbcded494	-0.027200975
13	0xbdc83592	-0.09775843
14	0xbdb0f625	-0.08640698
15	0x3eaa0fa1	0.3321505
16	0xbcc10f6e	-0.023566928
17	0xbe3e6019	-0.18591346
18	0xbe836528	-0.25663114
19	0x3eb167e3	0.34649572
20	0x3e3f1435	0.18660052
21	0xbdbe1532	-0.092813864
22	0xbdd363ce	-0.103217706
23	0xbe6bc455	-0.23024113
24	0x3ef86cad	0.48520413
25	0xbe58f836	-0.21188435
26	0x3ea1c283	0.31593713
27	0x3dcfc49d	0.10144923
28	0xbe780625	-0.24221094
29	0x3c96e47c	0.018419497
30	0xbedb1816	-0.42791814
31	0x3dc75718	0.09733409
32	0xbe7eabc9	-0.24870218
33	0xbee466c9	-0.4460967
34	0x3d1a77e2	0.037711985
35	0xbd043b52	-0.032283135
36	0x3e46b20d	0.19403858
37	0x3e30e636	0.17275319
38	0x3ecb2b1e	0.39681333
39	0xbea27934	-0.31733096
40	0x3cdeb3e8	0.027185395
41	0x3eb5e34c	0.35524976
42	0x3e5c480f	0.21511863
43	0xbecf8444	-0.40530598
44	0x3e0c3182	0.1369076
45	0x3da9ec8a	0.08297069
46	0x3ed2cd0a	0.41172057
47	0x3e0ca7a4	0.13735825
48	0xbb49be76	-0.003078369
49	0xbe96b794	-0.29436934
50	0x3e1652bd	0.1468
51	0xbe4880f6	-0.19580445
52	0xbdb53373	-0.08847704
53	0xbd05380a	-0.032524146
54	0x3eafab68	0.3431046
55	0x3e682260	0.22669363
56	0xbe69dca0	-0.22838068
57	0x3e87fe02	0.2656098
58	0xbd826a52	-0.06367935
59	0xbe3775fe	-0.17916104
60	0xbec3fc7e	-0.38278574
61	0xbe02f450	-0.1278851
62	0x3d0f58b3	0.0349967
63	0x3e82aee8	0.25524068

features.4.running_var f4 [64]
0	0x3dd0e0f8	0.101991594
1	0x3d7d78fd	0.06188296
2	0x3dcb7147	0.09933715
3	0x3df1106d	0.11770711
4	0x3d8478fd	0.06468389
5	0x3e3507f1	0.1767881
6	0x3e6f5883	0.23373608
7	0x3df86379	0.12128348
8	0x3e2e3348	0.1701175
9	0x3dc6b203	0.09701922
10	0x3d45bca8	0.04827562
11	0x3da84ef2	0.082181826
12	0x3d9d4353	0.07678857
13	0x3e02e41f	0.12782334
14	0x3ea0d984	0.3141595
15	0x3dff707f	0.12472629
16	0x3e3533ff	0.17695616
17	0x3dd30847	0.10304313
18	0x3d9e98a9	0.07743961
19	0x3e1223eb	0.14271514
20	0x3da0bc25	0.07848386
21	0x3d8f878f	0.070082776
22	0x3e5ba08d	0.21447964
23	0x3e651062	0.22369531
24	0x3dfbb157	0.12289684
25	0x3dd2304d	0.10263119
26	0x3e225b82	0.1585522
27	0x3e147de1	0.14501144
28	0x3e45532e	0.19270012
29	0x3e50e2dd	0.20399041
30	0x3dd32d70	0.10311401
31	0x3e99b0e0	0.30017757
32	0x3d2026fd	0.039099682
33	0x3d838fea	0.06423934
34	0x3d7594f4	0.059956506
35	0x3e0a8749	0.1352817
36	0x3e845f9f	0.25854203
37	0x3dba082b	0.09083589
38	0x3d35fd62	0.044431098
39	0x3db343c1	0.087531574
40	0x3e5bc5e8	0.21462214
41	0x3d795f72	0.06088204
42	0x3d54302b	0.05180375
43	0x3e5b305b	0.21405165
44	0x3e2eca0c	0.17069262
45	0x3e2f082f	0.17092966
46	0x3e09daae	0.13462326
47	0x3d9523ab	0.07282194
48	0x3e25e778	0.1620158
49	0x3e615d46	0.22008237
50	0x3dfa9706	0.12235837
51	0x3e2727f5	0.16323836
52	0x3e217ec8	0.1577102
53	0x3d208cb0	0.03919667
54	0x3e2ac1d9	0.1667551
55	0x3e779973	0.2417963
56	0x3ddfe9c2	0.10933258
57	0x3d92f561	0.071757086
58	0x3e0864d4	0.13319713
59	0x3da7ab90	0.0818702
60	0x3db18d97	0.08669584
61	0x3e6b4df2	0.22978953
62	0x3dcce9c9	0.100055285
63	0x3d8e63c5	0.06952623

features.7.bias f4 [128]
0	0x3cfce674	0.030871607
1	0xbd63b410	-0.055591643
2	0x3dde56f7	0.10856431
3	0x3ca5e1a7	0.020249201
4	0x3de0585a	0.10954352
5	0xbdefdf83	-0.11712553
6	0xbd9ac84f	-0.07557737
7	0xbd0c8301	-0.034304623
8	0xbcf56592	-0.029955659
9	0xbd698b3d	-0.057017554
10	0x3d5cb129	0.05387989
11	0x3d183e5f	0.037168857
12	0xbe002c23	-0.12516837
13	0x3da0726f	0.078343265
14	0xbde91b4c	-0.113821596
15	0x3d8b27cc	0.067947
16	0x3d24ae62	0.040205367
17	0xbd17916f	-0.03700393
18	0x3dd25a7c	0.10271165
19	0x3cde0d4d	0.027105952
20	0x3d9ad9cb	0.07561072
21	0xbdf61490	-0.12015641
22	0x3dc37150	0.09543097
23	0x3dc48891	0.095963605
24	0xbcfb9794	-0.030711927
25	0xbdb46073	-0.08807459
26	0x3d8b59e2	0.06804253
27	0x3defcc77	0.117089204
28	0xbdda5d5b	-0.106623374
29	0xbd90d3a7	-0.070716195
30	0xbd6085c3	-0.054815065
31	0xbb404e0e	-0.00293434
32	0x3d8f95f5	0.07011024
33	0xbc70c0ee	-0.0146944355
34	0xbd4218dd	-0.047386993
35	0x3db55317	0.08853739
36	0x3d135a23	0.035974633
37	0x3cd02116	0.025406402
38	0x3d79a0ee	0.06094449
39	0x3ddb67a7	0.107131295
40	0xbc4a416d	-0.0123447
41	0x3dd5945c	0.10428688
42	0xbbf2b33b	-0.00740662
43	0x3c33074b	0.010927032
44	0xbdceb188	-0.10092455
45	0xbdf86135	-0.12127916
46	0xbd60c5dd	-0.054876197
47	0xbc7f3145	-0.015575712
48	0xbdb76fd4	-0.089568764
49	0xbdafbc41	-0.085808285
50	0x3b87f607	0.004149202
51	0xbd6f6be9	-0.05845252
52	0x3d14a861	0.03629339
53	0xbd931a8f	-0.071828
54	0x3de7c467	0.11316758
55	0x3c7050bb	0.014667685
56	0x3dff9736	0.12480013
57	0xbd8ecc11	-0.06972516
58	0xbda4f31e	-0.080541834
59	0x3d9b66fa	0.075880006
60	0x3d917c5d	0.071037985
61	0xbca2ddeb	-0.01988121
62	0x3dc07a99	0.09398384
63	0x3d553e0a	0.05206112
64	0x3d6fb819	0.05852518
65	0x3c34f102	0.011043789
66	0xbd17e8f3	-0.037087392
67	0xbd270b45	-0.04078223
68	0x3d80ad74	0.062830836
69	0xbd1940e7	-0.03741541
70	0x3cb1daf4	0.02171085
71	0x3dc3cad0	0.09560168
72	0xbda9b6bc	-0.08286807
73	0xbdcd357a	-0.100199655
74	0x3d1708e6	0.03687372
75	0x3d893002	0.0669861
76	0xbd514043	-0.051086675
77	0xbd8d4644	-0.06898168
78	0xbdee1d1c	-0.11626646
79	0x3dc70e0f	0.09719478
80	0x3db17633	0.08665123
81	0xbdd87738	-0.10569614
82	0xbd9ba3b5	-0.07599584
83	0xbd08c434	-0.03339024
84	0xbdf3fc73	-0.11913385
85	0xbc8d542b	-0.017252048
86	0x3cae075d	0.021243745
87	0x3de5e3a4	0.1122506
88	0x3dd57846	0.10423331
89	0xbdac2f37	-0.08407443
90	0x3c8272b1	0.01592383
91	0x3dee0c44	0.11623433
92	0xbd11e9de	-0.035623424
93	0xbd95822f	-0.07300221
94	0xbda6cf42	-0.08145
95	0xbdacf502	-0.08445169
96	0xbd9ea242	-0.07745792
97	0xbcc32e36	-0.023825746
98	0xbddf4674	-0.1090211
99	0xbd9501f4	-0.07275763
100	0x3dcdc5e8	0.10047513
101	0x3d0e0bd2	0.03467924
102	0xbb615dd9	-0.0034388213
103	0x3d7b4636	0.061346255
104	0x3d36ca9f	0.04462683
105	0xbd992a1a	-0.07478733
106	0x3d35994d	0.044335652
107	0xbce65270	-0.028115481
108	0xbd313344	-0.04326178
109	0x3d532a0c	0.05155377
110	0xbdb7fd4e	-0.08983861
111	0xbdccac89	-0.09993846
112	0x3d9017a2	0.070357576
113	0x3dd438c1	0.103623874
114	0xbddd4dc1	-0.10805846
115	0x3dc5fa9f	0.09666943
116	0xbcc57dcf	-0.024107842
117	0x3d497109	0.049180064
118	0x3d8ba3e6	0.068183705
119	0xbb202bec	-0.0024440242
120	0x3c9331db	0.017968109
121	0xbde70bae	-0.112815246
122	0x3d5647a1	0.052314404
123	0xbd99b645	-0.07505468
124	0xbdb0d742	-0.08634807
125	0xbdf28219	-0.118412204
126	0xbdda1d3f	-0.106501095
127	0x3da6e44b	0.08149012

features.8.weight f4 [128]
0	0x3f7f8f19	0.99827725
1	0x3f80679f	1.0031623
2	0x3f7fc52b	0.9991023
3	0x3f7eddf2	0.9955741
4	0x3f7e082d	0.99231225
5	0x3f805ebe	1.0028913
6	0x3f805f86	1.0029151
7	0x3f7f4a40	0.9972267
8	0x3f80a5c4	1.0050588
9	0x3f7e50f6	0.99342287
10	0x3f7f8005	0.9980472
11	0x3f803267	1.0015382
12	0x3f805042	1.0024493
13	0x3f809aa3	1.0047191
14	0x3f80194a	1.0007718
15	0x3f7e4b57	0.9933371
16	0x3f80047e	1.0001371
17	0x3f7d86a5	0.99033576
18	0x3f7cf144	0.9880564
19	0x3f8161f4	1.0108018
20	0x3f7dc775	0.9913247
21	0x3f7f031b	0.99614114
22	0x3f7e96b3	0.994487
23	0x3f7f85a8	0.9981332
24	0x3f7ec22a	0.9951502
25	0x3f7c2976	0.98500764
26	0x3f7eed78	0.995811
27	0x3f805553	1.0026039
28	0x3f80addd	1.0053059
29	0x3f80554c	1.002603
30	0x3f803598	1.0016356
31	0x3f7c59bb	0.9857442
32	0x3f7d62e5	0.98979026
33	0x3f81cb24	1.0140119
34	0x3f7fdb05	0.9994357
35	0x3f7f5808	0.997437
36	0x3f7cf9d5	0.98818713
37	0x3f7ce6fd	0.9878996
38	0x3f7e7bd0	0.9940767
39	0x3f8039b7	1.0017613
40	0x3f7edfeb	0.9956042
41	0x3f80304a	1.0014737
42	0x3f8241f2	1.0176375
43	0x3f7e6276	0.9936899
44	0x3f7f83d8	0.9981055
45	0x3f7ec418	0.99517965
46	0x3f807cd2	1.0038092
47	0x3f808300	1.0039978
48	0x3f806cb5	1.0033175
49	0x3f7df3fa	0.99200404
50	0x3f8075f3	1.0035995
51	0x3f7e8ee1	0.99436766
52	0x3f7e9409	0.99444634
53	0x3f800d3b	1.0004038
54	0x3f800487	1.0001382
55	0x3f7ebea5	0.9950965
56	0x3f809ba1	1.0047494
57	0x3f807c1b	1.0037874
58	0x3f80d986	1.0066383
59	0x3f7ec057	0.9951224
60	0x3f810770	1.0080395
61	0x3f7f31f8	0.9968562
62	0x3f805e0e	1.0028703
63	0x3f8015de	1.0006673
64	0x3f818316	1.0118129
65	0x3f805de4	1.0028653
66	0x3f8025e0	1.0011559
67	0x3f7f8d7e	0.99825275
68	0x3f81f2e4	1.0152249
69	0x3f7d888e	0.9903649
70	0x3f7f7f7a	0.9980389
71	0x3f7f92f0	0.99833584
72	0x3f7ef98c	0.9959953
73	0x3f7d7c6e	0.9901799
74	0x3f8098fc	1.0046687
75	0x3f8041d0	1.0020084
76	0x3f80bfab	1.0058492
77	0x3f80715d	1.0034596
78	0x3f7f983e	0.9984168
79	0x3f823700	1.0173035
80	0x3f7fe616	0.9996046
81	0x3f80a16b	1.0049261
82	0x3f7ea761	0.9947415
83	0x3f7f5880	0.99744415
84	0x3f7fbf0d	0.99900895
85	0x3f7e5edc	0.99363494
86	0x3f7f55f3	0.99740523
87	0x3f81fc90	1.0155201
88	0x3f7fb30e	0.9988259
89	0x3f7f0b02	0.9962617
90	0x3f82025f	1.0156974
91	0x3f7e2b91	0.9928523
92	0x3f81fa4f	1.0154513
93	0x3f80b0dd	1.0053974
94	0x3f813f71	1.0097486
95	0x3f80744d	1.0035492
96	0x3f7f68d5	0.99769336
97	0x3f7dc191	0.99123484
98	0x3f7fa3c5	0.9985927
99	0x3f8135ee	1.0094583
100	0x3f8128c0	1.0090561
101	0x3f7ea54c	0.99470973
102	0x3f7e6901	0.99378973
103	0x3f82c591	1.0216542
104	0x3f7d6c36	0.9899324
105	0x3f7ee93e	0.9957465
106	0x3f7fcbe6	0.999205
107	0x3f814720	1.0099831
108	0x3f7cc13e	0.98732364
109	0x3f816b87	1.011094
110	0x3f804645	1.0021445
111	0x3f80613b	1.0029672
112	0x3f808198	1.0039549
113	0x3f80bf13	1.0058311
114	0x3f7fc4c7	0.99909633
115	0x3f808fef	1.0043925
116	0x3f809e08	1.0048227
117	0x3f7d75fb	0.9900815
118	0x3f804c26	1.0023239
119	0x3f811880	1.0085602
120	0x3f808799	1.0041381
121	0x3f7fa843	0.9986612
122	0x3f7ce3fa	0.98785365
123	0x3f800384	1.0001073
124	0x3f7f89b5	0.998195
125	0x3f80919a	1.0044434
126	0x3f80c8a2	1.0061228
127	0x3f7fbd76	0.9989847

features.8.bias f4 [128]
0	0x3b06e38d	0.0020582408
1	0xbaff3f7f	-0.0019473879
2	0x3930e523	0.00016870028
3	0xbb9660a9	-0.0045891595
4	0xbb8f7ce5	-0.0043789023
5	0x3bbca75f	0.005757257
6	0x3ac9bcae	0.0015391314
7	0xbb212403	-0.0024588115
8	0x3b5f9a62	0.003411912
9	0xbbe49cfe	-0.0069767227
10	0xbb1399a6	-0.0022522002
11	0x3c0cf8e4	0.008604262
12	0x381f7000	3.8012862e-05
13	0x3bc8ae26	0.0061242757
14	0x3b82766f	0.0039814035
15	0xbc001b16	-0.007818958
16	0x3b286514	0.0025695013
17	0xbb86361a	-0.004095805
18	0xbbede8cb	-0.007260417
19	0x3c2a2074	0.010383714
20	0x3b87c278	0.0041430555
21	0x3a8bfb69	0.0010679784
22	0xba9ca7de	-0.0011951884
23	0x390c28a6	0.00013366583
24	0xbb9ec109	-0.004844789
25	0xbb00b82b	-0.0019641023
26	0x3b60d19d	0.0034304627
27	0x3c1423c0	0.009041727
28	0x3babf2e6	0.0052474616
29	0xbb18ae36	-0.0023297197
30	0x3c0f4daa	0.008746544
31	0xbc47215f	-0.012153952
32	0xbc22b254	-0.009930212
33	0x3c63cbb9	0.013903552
34	0xba4b792d	-0.0007761892
35	0xbb926f90	-0.0044688657
36	0xbbe351c3	-0.006937237
37	0xbc604341	-0.01368791
38	0xbbb273ea	-0.005445947
39	0x3bb54d81	0.005532921
40	0xba7c97fe	-0.0009635686
41	0x3b688396	0.0035478822
42	0x3c37b5bf	0.011212765
43	0xbb247b75	-0.0025098
44	0xbb1907ac	-0.002335052
45	0xbbb213c1	-0.0054344838
46	0xbb7d45b3	-0.003864628
47	0x3c306ac5	0.010767643
48	0x3bd29db8	0.006427493
49	0xbc488da9	-0.012240806
50	0x3b111a27	0.0022140832
51	0xbbc2b6a2	-0.0059421817
52	0xbc2886c7	-0.01028604
53	0xb93ffffe	-0.00018310544
54	0xbb48dbe2	-0.0030648638
55	0xbbcd926c	-0.0062735584
56	0x3b4a4e87	0.003086956
57	0x395be47b	0.00020970583
58	0x3bec7400	0.0072159767
59	0xba00480f	-0.000489355
60	0x3bd587fc	0.0065164547
61	0x3c0796fb	0.008275743
62	0xbaace0c9	-0.001318955
63	0xbad03b3f	-0.0015886797
64	0x3c416b65	0.01180539
65	0x3a3d8968	0.0007230253
66	0xbbab73d5	-0.005232314
67	0xbb44c04e	-0.003002185
68	0x3c69afd9	0.014263117
69	0xbc2914a2	-0.010319861
70	0xbbf66d91	-0.0075203856
71	0x39f8a308	0.00047423714
72	0xbbb6ef63	-0.0055827363
73	0xbc15965d	-0.009130088
74	0x3abfa136	0.0014620188
75	0x3b894b06	0.0041898517
76	0x3c2bef52	0.01049407
77	0x3b6de9f0	0.0036302768
78	0x3a874da3	0.001032282
79	0x3c7f2468	0.015572645
80	0xba42df32	-0.00074337714
81	0x3bbbb888	0.005728785
82	0xbb356ed8	-0.0027684476
83	0x3ad19002	0.0015988352
84	0x389187d6	6.93944e-05
85	0xbbdf1173	-0.0068075
86	0xb9b8f849	-0.00035280202
87	0x3c854c87	0.016271843
88	0x3b9175f1	0.0044391085
89	0xbbab7fcb	-0.00523374
90	0x3c5eb58e	0.013593091
91	0xbc5e0cfb	-0.0135528995
92	0x3c901c54	0.017591633
93	0x3bd92c7b	0.006627617
94	0x3bf49c91	0.007464953
95	0x3bd9d5a8	0.0066477843
96	0xbaf95356	-0.0019022028
97	0xbba46179	-0.0050165025
98	0xba5db33d	-0.00084571895
99	0x3c4049f2	0.01173638
100	0x3c5b2904	0.013376478
101	0xbbb904eb	-0.005646338
102	0xbb3c2b87	-0.0028712468
103	0x3c8cb159	0.01717441
104	0xbc1a7ac2	-0.009428682
105	0xbc03fd73	-0.0080560325
106	0x3afab0a6	0.0019126132
107	0x3c38e85d	0.0112858685
108	0xbc3f3851	-0.011671142
109	0x3bd92835	0.0066271075
110	0x3b6541b0	0.003498178
111	0x3be10bc2	0.0068678567
112	0x3ba17d7f	0.0049282904
113	0x3c1f142c	0.009709399
114	0x3b686493	0.0035460338
115	0xbbe9cdf6	-0.007135148
116	0x3b8d7e51	0.0043180366
117	0xbbc087b6	-0.005875553
118	0x3a6b10c2	0.00089670357
119	0x3c315ab8	0.010824852
120	0x3b62783c	0.0034556529
121	0xbb845127	-0.0040379944
122	0xbb842256	-0.0040324135
123	0x3aee8249	0.0018196787
124	0xbbdb51d2	-0.0066931034
125	0x3bbe759e	0.005812361
126	0x3bdf4c54	0.006814519
127	0x3a42236d	0.00074057915

features.8.running_mean f4 [128]
0	0xbd8f9080	-0.07009983
1	0xbf1e3307	-0.6179661
2	0x3e6122b7	0.21985899
3	0xbc91d727	-0.017802788
4	0x3ed1d9b7	0.40986416
5	0x3e7a6f56	0.24456534
6	0xbe4b599b	-0.198584
7	0xbe8da34d	-0.2766365
8	0x3cdfc924	0.027317591
9	0x3de02d31	0.109461196
10	0xbb82899a	-0.0039836885
11	0xbdafd6ac	-0.08585867
12	0xbe84712c	-0.25867593
13	0x3ea36a0c	0.31916845
14	0xbe34e4a5	-0.17665346
15	0xbe8670b3	-0.26257858
16	0x3defa699	0.11701698
17	0x3df660cc	0.12030181
18	0x3dd8f001	0.10592652
19	0xbeaac66a	-0.33354503
20	0xbd3789dc	-0.044809207
21	0xbcc966ce	-0.024585154
22	0xbe45eb15	-0.19327958
23	0x3ed2e1a8	0.41187787
24	0xbed2e95c	-0.41193664
25	0x3eb0611c	0.3444909
26	0x3e630ff4	0.22174054
27	0x3e0e7ec8	0.1391555
28	0xbdb398ca	-0.087693766
29	0xbb9576a4	-0.004561262
30	0xbd2bb72a	-0.041922726
31	0x3dfd4b66	0.12367897
32	0xbc889851	-0.016674193
33	0x3de8854a	0.11353548
34	0xbecdc2a5	-0.40187564
35	0x3ef1df2c	0.4724058
36	0xbdc0622d	-0.093937255
37	0xbe6ff25b	-0.23432295
38	0xbe39d2d4	-0.18146831
39	0x3e207b83	0.15672116
40	0x3ed4cf98	0.4156463
41	0x3e227c5a	0.15867749
42	0xbe28c0e0	-0.16479826
43	0xbe6e592a	-0.23276201
44	0xbded48ff	-0.115861885
45	0xbe2f3347	-0.17109405
46	0x3dfbaf15	0.122892536
47	0xbe7ea51f	-0.24867676
48	0xbeb60b73	-0.3555561
49	0x3eaa5912	0.3327108
50	0xbeadc332	-0.33937985
51	0x3cdddf32	0.027083967
52	0x3e01c61e	0.12673232
53	0x3ea41724	0.32048905
54	0x3e9a7eab	0.30174765
55	0xbd85b918	-0.065294445
56	0x3e24da59	0.16098918
57	0xbd8d8d1d	-0.06911681
58	0xbec01c97	-0.37521812
59	0xbe842da4	-0.2581607
60	0xbdde51b7	-0.108554296
61	0x3db90f35	0.09036104
62	0xbdfadc99	-0.12249107
63	0xbd9ef45c	-0.077614516
64	0x3dcb4925	0.099260606
65	0x3cb5bb8f	0.022184161
66	0xbcf79150	-0.030220658
67	0x3d808035	0.062744536
68	0xbe23cf2a	-0.15996996
69	0x3cab55b0	0.020914882
70	0x3e844555	0.25834146
71	0x3e894157	0.26807663
72	0x3e6c8e9d	0.23101278
73	0xbea57f76	-0.32323807
74	0xbdaab76b	-0.083357655
75	0x3e898c23	0.26864728
76	0xbe0c58fd	-0.13705821
77	0xbd91b380	-0.07114315
78	0xbeaa4b7d	-0.33260718
79	0xbd868443	-0.06568196
80	0x3e70b4e7	0.23506509
81	0x3eb23df0	0.3481288
82	0xbe65e28f	-0.22449706
83	0xbe90096a	-0.28132182
84	0xbe004cd8	-0.12529314
85	0x3d69fbf4	0.057125047
86	0xbf0bd691	-0.5462428
87	0x3ccdb204	0.025109299
88	0x3de3201a	0.11090107
89	0xbf4b4a5c	-0.7941034
90	0x3e606388	0.21912968
91	0x3eb8d7cc	0.3610214
92	0xbc7132d8	-0.014721595
93	0x3c0fcf47	0.008777446
94	0xbedd4b12	-0.43221337
95	0x3dddd91a	0.108324245
96	0xbdb95096	-0.09048574
97	0xbdad728d	-0.084691145
98	0xbe6bc414	-0.23024017
99	0x3ea3e8d5	0.32013574
100	0xbd3a6155	-0.04550298
101	0x3ec3fef4	0.3828045
102	0xbe0f62e1	-0.14002563
103	0x3e737309	0.23774351
104	0xbd6cdf80	-0.057830334
105	0xbd505d9a	-0.050870515
106	0x3da0970e	0.078413114
107	0xbec86c15	-0.3914496
108	0x3dbbb330	0.09165037
109	0xbb3a1060	-0.0028391108
110	0x3cc22a18	0.023701712
111	0xbeed0dfa	-0.46299726
112	0xbea1e45f	-0.31619546
113	0x3e0ea75e	0.13931033
114	0xbef5ba46	-0.47993678
115	0x3ec82673	0.39091834
116	0x3d939636	0.07206385
117	0xbec0e3f4	-0.37673914
118	0x3e4d1f4d	0.20031472
119	0xbea22d7e	-0.31675333
120	0x3e4e4ada	0.20145741
121	0x3dfee951	0.12446845
122	0x3e9ba8e1	0.30402282
123	0x3e08def0	0.13366294
124	0xbdbc1d87	-0.091853194
125	0xbe809baf	-0.25118777
126	0xbd7e6405	-0.062107105
127	0x3e6ff7d6	0.23434386

features.8.running_var f4 [128]
0	0x3eb230ab	0.34802756
1	0x3e2c9f71	0.16857697
2	0x3e114e8f	0.14190124
3	0x3e07bc05	0.13255318
4	0x3ebde417	0.3708808
5	0x3e9e966c	0.30974138
6	0x3e1f0afc	0.15531534
7	0x3e05823b	0.1303796
8	0x3ddd17e4	0.107955724
9	0x3e05f363	0.13081126
10	0x3da2c709	0.07948119
11	0x3e30cc42	0.17265418
12	0x3e2f1f0d	0.17101689
13	0x3e3af758	0.18258417
14	0x3e42b24d	0.19013329
15	0x3e97d79f	0.29656693
16	0x3e27d27e	0.1638889
17	0x3e5a05f7	0.21291338
18	0x3e48fa69	0.19626774
19	0x3e841bd8	0.25802493
20	0x3e4dec85	0.20109756
21	0x3e1a2fe6	0.15057334
22	0x3e93073f	0.28716466
23	0x3e31b465	0.17353971
24	0x3e24c4e9	0.1609074
25	0x3e01ba0f	0.12668632
26	0x3e8ff21f	0.2811441
27	0x3e143159	0.1447195
28	0x3e7b4957	0.24539696
29	0x3def8651	0.11695541
30	0x3dc9d7f6	0.098556444
31	0x3e1b79c2	0.15183166
32	0x3e05b762	0.13058236
33	0x3e661b2c	0.22471303
34	0x3ecf8db3	0.40537795
35	0x3dfa20e2	0.12213303
36	0x3e72d139	0.23712625
37	0x3e257e7a	0.16161528
38	0x3ea14539	0.31498125
39	0x3e854f37	0.26037
40	0x3dc99394	0.098426014
41	0x3e41e8ad	0.18936415
42	0x3e163dac	0.14671963
43	0x3e87033d	0.26369658
44	0x3e5a66ab	0.21328227
45	0x3e1585ca	0.14601818
46	0x3e5a5a2e	0.21323463
47	0x3e19ac45	0.15007122
48	0x3e1cce27	0.15313016
49	0x3e05cff8	0.13067615
50	0x3e046bfe	0.12931821
51	0x3e434efc	0.19073099
52	0x3e22d49e	0.1590142
53	0x3e13c0da	0.14429036
54	0x3e33538b	0.17512338
55	0x3e922fc9	0.28552082
56	0x3df48087	0.11938577
57	0x3e577097	0.21039043
58	0x3ea553b4	0.32290423
59	0x3e31380e	0.1730654
60	0x3eebd1b6	0.46058434
61	0x3e2e768d	0.17037411
62	0x3e8cde27	0.2751324
63	0x3e03b0d4	0.12860423
64	0x3e83c2de	0.2573461
65	0x3e3d688d	0.18496914
66	0x3e906044	0.28198445
67	0x3e1f1c92	0.15538242
68	0x3eff8552	0.49906403
69	0x3e2e2940	0.17007923
70	0x3e793942	0.24338248
71	0x3e45b891	0.19308688
72	0x3e1c1ea9	0.15246071
73	0x3e287f35	0.16454776
74	0x3e3c876f	0.18411039
75	0x3ea7cbd0	0.32772684
76	0x3e15067a	0.14553252
77	0x3e3a04f2	0.18165949
78	0x3e8f7b0c	0.28023565
79	0x3e7b1b4a	0.24522129
80	0x3e14def1	0.1453817
81	0x3e70286b	0.23452918
82	0x3dbcbc18	0.092155635
83	0x3e245173	0.16046695
84	0x3e6dcaf1	0.23221947
85	0x3e0601be	0.13086602
86	0x3e50b9a5	0.20383318
87	0x3e30e038	0.17273033
88	0x3e06607d	0.13122745
89	0x3e40314e	0.18768808
90	0x3e62397a	0.22092238
91	0x3e13eefd	0.14446636
92	0x3e96be45	0.2944204
93	0x3e3cc3ab	0.18434016
94	0x3e5fad88	0.2184354
95	0x3e0d193a	0.13779154
96	0x3e1adf50	0.1512425
97	0x3e5f1fa3	0.21789412
98	0x3e2fcf65	0.17168958
99	0x3e575459	0.2102827
100	0x3e32bc30	0.174546
101	0x3e1e6173	0.15466861
102	0x3dc66eb1	0.096890815
103	0x3e98e67f	0.29863355
104	0x3de6ed10	0.11275685
105	0x3e8bb764	0.27288353
106	0x3e01292e	0.12613365
107	0x3ee57f97	0.44823906
108	0x3dcc1b66	0.09966163
109	0x3e6eeb0d	0.23331852
110	0x3e350383	0.17677121
111	0x3e2322db	0.15931265
112	0x3e9066f7	0.28203556
113	0x3e43f683	0.19137006
114	0x3e21979c	0.1578049
115	0x3e91fcbc	0.28513134
116	0x3e9336f1	0.28752854
117	0x3d99b37c	0.07504937
118	0x3e65183c	0.22372526
119	0x3e34ee84	0.17669111
120	0x3dec074a	0.11524828
121	0x3dd0f02f	0.102020614
122	0x3e0f6f1a	0.14007226
123	0x3e18fe62	0.1494079
124	0x3e95041a	0.29104692
125	0x3e11925f	0.14215992
126	0x3e527a4c	0.20554465
127	0x3e6e79b0	0.23288608

features.11.bias f4 [256]
0	0xbd7ec1f7	-0.062196698
1	0x3d0bf086	0.034164928
2	0x3da5e6a4	0.08100632
3	0xbd910848	-0.07081658
4	0xbccaa380	-0.024736166
5	0x3d41a72f	0.04727858
6	0x3d207bcf	0.039180573
7	0x3cddd8a4	0.027080841
8	0xbd6fd68e	-0.058554225
9	0x3d8cc32a	0.06873162
10	0x3d8735ad	0.06602035
11	0x3d6ce132	0.05783195
12	0xbd35d3d7	-0.04439148
13	0x3d20de18	0.039274305
14	0x3c2d4b5a	0.010577047
15	0x3d40e224	0.047090665
16	0xbd746cd8	-0.059674114
17	0x3cacb775	0.021083573
18	0xbd80f196	-0.06296079
19	0x3d94b3f6	0.07260887
20	0xbc94bc3b	-0.018156162
21	0xbd9c5d3b	-0.0763497
22	0xbbfaace8	-0.0076500066
23	0xbd3b7e60	-0.045774817
24	0x3d89bb46	0.06725173
25	0xbda22456	-0.07917087
26	0xbd898404	-0.06714633
27	0xbda8764e	-0.0822569
28	0x3c5ab945	0.013349836
29	0x3c662d78	0.0140489265
30	0xbdb14635	-0.08655969
31	0x3d8c424f	0.06848585
32	0xbc92b877	-0.017910225
33	0x3d37e44d	0.04489546
34	0xbd581c93	-0.052761625
35	0xbdaa501c	-0.08316061
36	0xbd41417c	-0.04718159
37	0xbd3dd922	-0.046349652
38	0x3d1e3982	0.038629062
39	0xbd2035dc	-0.039113864
40	0x3d805cd8	0.062677085
41	0x3d910030	0.07080114
42	0x3d121218	0.035661787
43	0x3c5b0bd6	0.013369521
44	0x3c88e477	0.016710503
45	0xbd6362fb	-0.055514317
46	0xbc3f6794	-0.01168241
47	0x3da7ab61	0.08186985
48	0x3cd84519	0.026400136
49	0x3c89b18c	0.016808294
50	0x3c41cad7	0.011828146
51	0x3d8c675f	0.06855654
52	0xbc800687	-0.015628112
53	0x3da1d246	0.079014346
54	0x3d5fc32b	0.054629486
55	0x3da4882e	0.08033787
56	0xbda5d15f	-0.08096575
57	0xbd5098ff	-0.05092716
58	0xbd7fbb19	-0.06243429
59	0x3d75ea0e	0.060037665
60	0xbdb1e6ef	-0.08686625
61	0x3d801070	0.06253135
62	0x3ceb274b	0.02870526
63	0xbdb563d9	-0.08856935
64	0x3cb1c243	0.021699077
65	0xbc1c9864	-0.009557817
66	0x3db3934c	0.08768329
67	0xbd997864	-0.07493666
68	0xbd8e2470	-0.06940544
69	0xbd8b2b51	-0.06795371
70	0xbd7885fd	-0.060674656
71	0x3c8393cf	0.016061692
72	0xbd5c3a0e	-0.053766303
73	0xbd2c69b6	-0.042093
74	0xbd9ef6dc	-0.077619284
75	0xbd7040b7	-0.058655467
76	0x3d90172a	0.07035668
77	0xbd3274ba	-0.04356835
78	0x3c4ca523	0.012490544
79	0xbdb2f874	-0.08738795
80	0xbd9585cc	-0.0730091
81	0x3d5ff639	0.054678176
82	0x3b8a8548	0.004227314
83	0xbc995930	-0.018719286
84	0x3d9d3b03	0.07677271
85	0x3d01b8be	0.031670325
86	0xbdb37dad	-0.08764205
87	0x3d002406	0.031284355
88	0xbcebc1a1	-0.028778853
89	0x3d96538b	0.07340153
90	0x3d981bf9	0.0742721
91	0x391339b4	0.00014040509
92	0xbcaac8fa	-0.020847786
93	0xbc253c02	-0.010085108
94	0x3c94d96e	0.018170085
95	0x3da9a2ea	0.082830265
96	0x3d77473e	0.060370676
97	0xbd18840a	-0.037235297
98	0x3d71f1ff	0.059068676
99	0x3d0b5410	0.034015715
100	0xbd007fa3	-0.031371724
101	0xbd927a2d	-0.071522094
102	0x3cfbaa43	0.030720836
103	0xbd6794e5	-0.05653848
104	0xbabccb69	-0.0014403883
105	0xbdaa37cb	-0.08311423
106	0x3d54cb59	0.05195174
107	0xbd1c7185	-0.0381942
108	0x3d0af896	0.033928476
109	0xbd8b2b6b	-0.06795391
110	0xbda4d9d0	-0.08049357
111	0x3bf7030c	0.007538205
112	0x3d16a940	0.036782503
113	0x3d7db145	0.061936636
114	0xbd01ef48	-0.031722337
115	0xbb3f932f	-0.0029232015
116	0xbd08a90f	-0.03336435
117	0xbcc7a9d6	-0.024372976
118	0x3dae0e23	0.0849879
119	0xbd9432fe	-0.072362885
120	0x3bcdefaa	0.0062846737
121	0xbd95a666	-0.073071286
122	0x3cce852f	0.025209991
123	0x3cc33278	0.023827776
124	0x3dac9aa3	0.08427932
125	0x36a0e0bc	4.794534e-06
126	0x3c77c691	0.0151230255
127	0xba3ce9c3	-0.0007206464
128	0x3d29c1e8	0.04144469
129	0xbd31b4f9	-0.04338548
130	0x3d5f3d5b	0.054501873
131	0x3da219dc	0.079150885
132	0x3d9bfcfd	0.07616613
133	0xbc24e1dd	-0.010063616
134	0xbda97dcd	-0.08275948
135	0xbc001f42	-0.007819952
136	0x3d7b5a8f	0.06136566
137	0x3d9b6919	0.07588405
138	0x3c1604c0	0.009156406
139	0x3ca80e5f	0.020514665
140	0xbc0855e9	-0.008321264
141	0x3d633613	0.05547149
142	0x3d8b3093	0.06796374
143	0x3b1d9cc6	0.0024049743
144	0xbb0cf508	-0.0021508355
145	0x3d6a62da	0.05722318
146	0xbce5c186	-0.02804638
147	0xbbbcd3eb	-0.0057625673
148	0xbd099f3d	-0.033599127
149	0xbd356c0e	-0.044292502
150	0x3cb7e370	0.022447318
151	0x3c9e0849	0.01929106
152	0xbca032d7	-0.019555492
153	0x3d81cf3f	0.06338357
154	0x3cab0ad0	0.02087918
155	0xbca5cf07	-0.02024032
156	0xbd2b15db	-0.04176889
157	0x3b416da5	0.0029514816
158	0xbc80cf6a	-0.015723903
159	0x3d35df39	0.044402335
160	0x3c70c42e	0.01469521
161	0x3be67191	0.007032581
162	0x3d58331f	0.052783128
163	0x3d857634	0.06516686
164	0x3dae8a3e	0.08522461
165	0x3caf90d3	0.021431362
166	0xbd5d20e2	-0.053986438
167	0xbba05136	-0.0048924936
168	0xbd9dd270	-0.077061534
169	0xbce985c9	-0.028506177
170	0x3dacf996	0.08446042
171	0x3d17de3e	0.03707718
172	0x3d507cd5	0.0509003
173	0xbda9949e	-0.082802996
174	0xbd4f21cd	-0.050569344
175	0x3d56b707	0.052420642
176	0xbd82661e	-0.063671336
177	0x3d686842	0.056740053
178	0xbd3e1687	-0.046408202
179	0xbd71848d	-0.0589643
180	0x3d8d9e4a	0.06914957
181	0x3af68b75	0.0018809872
182	0x3ac8134a	0.0015264538
183	0x3c8594e5	0.01630635
184	0xbdafeff2	-0.08590688
185	0xbd82e340	-0.06391001
186	0xbd7fa76e	-0.062415533
187	0x3cb1031d	0.02160793
188	0x3db3babc	0.08775851
189	0xbc3ae6e3	-0.011407587
190	0xbd936a6c	-0.07198033
191	0x3d9419c7	0.07231479
192	0x3d13d4c2	0.036091574
193	0xbd94cbef	-0.0726546
194	0x3cf6c271	0.030122014
195	0x3d99fd43	0.07519009
196	0xbdb41656	-0.08793323
197	0x3d29d583	0.041463386
198	0x3d329cb4	0.043606475
199	0xbd0df0ec	-0.03465359
200	0xbdad9fa0	-0.08477712
201	0xbcd10456	-0.025514763
202	0x3d358c35	0.044323165
203	0xbd16d99b	-0.03682862
204	0xbcae134b	-0.021249434
205	0xbbc56266	-0.006023693
206	0x3da046ab	0.07825979
207	0x3c852880	0.016254663
208	0x3c203672	0.009778606
209	0x3b3b419a	0.0028573037
210	0x3d0e1825	0.034690995
211	0xbd4ec266	-0.05047836
212	0xbc43268a	-0.011911044
213	0xbd56d216	-0.052446447
214	0x3c4c6d1d	0.0124771865
215	0xbce960ac	-0.02848848
216	0xbd8d1c7a	-0.06890197
217	0xbd69122e	-0.056902103
218	0xbd98708b	-0.07443341
219	0x3d4fa675	0.050695855
220	0xbcd7b546	-0.026331555
221	0xbd826418	-0.063667476
222	0xbdb08dde	-0.08620809
223	0x3cd612fd	0.026132101
224	0xbd9d27dd	-0.07673619
225	0xbd40c7e3	-0.047065627
226	0xbd9e25ea	-0.07722075
227	0xbd778398	-0.060428232
228	0x3c281d81	0.0102609405
229	0xbcaad0a3	-0.020851439
230	0x3da70062	0.0815437
231	0xbd16209e	-0.0366522
232	0x3d5284cb	0.051396172
233	0xbd8418a8	-0.06450015
234	0x3d6f992c	0.058495685
235	0xbcc95149	-0.024574893
236	0x3d9661ca	0.073428705
237	0x3c8c92c0	0.01715982
238	0x3d88b18a	0.06674488
239	0x3d4fad50	0.050702393
240	0xbd0b5832	-0.034019656
241	0x3d4686fc	0.048468575
242	0x3bc845da	0.0061118426
243	0xbd19094e	-0.03736239
244	0xbda49d47	-0.08037811
245	0xbdb6ea80	-0.08931446
246	0xbd44adb8	-0.048017234
247	0x3c9fa6c3	0.019488698
248	0x3b1bfdb3	0.002380234
249	0xbd4387ee	-0.047737055
250	0xbdb2c54a	-0.08729036
251	0xbd9e1be5	-0.07720164
252	0x3d5ef6a7	0.054434445
253	0xbd6c7174	-0.057725385
254	0xbd88fced	-0.06688867
255	0x3c5fb599	0.013654136

features.12.weight f4 [256]
0	0x3f80bd6c	1.0057807
1	0x3f7f48ef	0.9972066
2	0x3f814f1f	1.0102271
3	0x3f7c5805	0.9857181
4	0x3f7f7f28	0.998034
5	0x3f7d9497	0.99054855
6	0x3f7e00d6	0.99220026
7	0x3f7fa292	0.9985744
8	0x3f7e2663	0.99277323
9	0x3f7ea9f7	0.99478096
10	0x3f81bc84	1.0135655
11	0x3f806539	1.0030891
12	0x3f8007c7	1.0002373
13	0x3f81b786	1.0134132
14	0x3f8059d6	1.0027416
15	0x3f7c6638	0.98593473
16	0x3f8067c4	1.0031667
17	0x3f7d6460	0.98981285
18	0x3f80cb2c	1.0062003
19	0x3f80a2d7	1.0049695
20	0x3f7d8fb9	0.9904743
21	0x3f8060b9	1.0029517
22	0x3f80e933	1.0071167
23	0x3f803389	1.0015727
24	0x3f821c74	1.0164933
25	0x3f80540b	1.0025648
26	0x3f7dfe97	0.992166
27	0x3f7ea089	0.9946371
28	0x3f7d8851	0.9903613
29	0x3f7ef80e	0.9959725
30	0x3f815349	1.0103542
31	0x3f814a9e	1.0100896
32	0x3f816bd2	1.0111029
33	0x3f7f1706	0.99644506
34	0x3f815f42	1.0107195
35	0x3f7f60a4	0.99756837
36	0x3f80a12a	1.0049183
37	0x3f7f254e	0.996663
38	0x3f80b743	1.0055927
39	0x3f7c45ee	0.98544204
40	0x3f810d33	1.0082153
41	0x3f80c2eb	1.0059484
42	0x3f7e57a5	0.99352485
43	0x3f7e023b	0.99222153
44	0x3f7e34ee	0.99299514
45	0x3f7e6ddc	0.9938638
46	0x3f7ebfb6	0.9951128
47	0x3f806f73	1.0034012
48	0x3f7e7e76	0.99411714
49	0x3f80f0ae	1.007345
50	0x3f804796	1.0021846
51	0x3f7f9361	0.9983426
52	0x3f7ee841	0.9957314
53	0x3f80bce6	1.0057647
54	0x3f8092e4	1.0044827
55	0x3f8077fb	1.0036615
56	0x3f809f9e	1.0048711
57	0x3f809ab7	1.0047215
58	0x3f7f04b1	0.99616534
59	0x3f806934	1.0032105
60	0x3f81853d	1.0118786
61	0x3f7f2f08	0.9968114
62	0x3f80d7bf	1.006584
63	0x3f817ea8	1.0116777
64	0x3f804621	1.0021402
65	0x3f7f6bb0	0.99773693
66	0x3f7e4d4a	0.99336684
67	0x3f800b13	1.000338
68	0x3f7d55f2	0.9895927
69	0x3f7e68af	0.99378484
70	0x3f7b720c	0.98220897
71	0x3f8136a9	1.0094806
72	0x3f811572	1.008467
73	0x3f81ea3e	1.014961
74	0x3f81465f	1.00996
75	0x3f8168f9	1.011016
76	0x3f7de912	0.9918376
77	0x3f8011bf	1.0005416
78	0x3f816e81	1.0111848
79	0x3f820ddc	1.016048
80	0x3f809e70	1.0048351
81	0x3f7cbd1b	0.9872605
82	0x3f7f6fb3	0.99779814
83	0x3f815096	1.0102718
84	0x3f805f78	1.0029135
85	0x3f7dbc56	0.991155
86	0x3f7e032d	0.99223596
87	0x3f8147f9	1.0100089
88	0x3f806e66	1.0033691
89	0x3f7f0277	0.99613136
90	0x3f80aad6	1.0052135
91	0x3f7eb0f8	0.9948878
92	0x3f805029	1.0024463
93	0x3f81059c	1.0079837
94	0x3f7eeb68	0.9957795
95	0x3f7df300	0.99198914
96	0x3f7dc417	0.99127334
97	0x3f7f2f94	0.99681973
98	0x3f800f4d	1.000467
99	0x3f80b599	1.0055419
100	0x3f80680e	1.0031755
101	0x3f7cf133	0.9880554
102	0x3f817e43	1.0116657
103	0x3f7d8564	0.9903166
104	0x3f7d1022	0.9885274
105	0x3f813832	1.0095274
106	0x3f80bd3f	1.0057753
107	0x3f80aa79	1.0052024
108	0x3f801fb3	1.0009674
109	0x3f8184a2	1.0118601
110	0x3f7bf3e5	0.9841903
111	0x3f7bf3cc	0.9841888
112	0x3f7faa8d	0.99869615
113	0x3f80633e	1.0030286
114	0x3f7fe54e	0.99959266
115	0x3f7ff34c	0.99980617
116	0x3f7bbc31	0.9833403
117	0x3f7ff7f4	0.9998772
118	0x3f7fd4bf	0.99934
119	0x3f805be0	1.0028038
120	0x3f80fd5e	1.0077322
121	0x3f7cd3e6	0.9876083
122	0x3f805818	1.0026884
123	0x3f80b885	1.0056311
124	0x3f7dff78	0.9921794
125	0x3f809ad1	1.0047246
126	0x3f7b3557	0.98128265
127	0x3f7eb564	0.9949553
128	0x3f7edf43	0.9955942
129	0x3f81119b	1.0083498
130	0x3f7f7c20	0.99798775
131	0x3f7fda60	0.9994259
132	0x3f7f7015	0.997804
133	0x3f7fab18	0.99870443
134	0x3f7d396a	0.9891573
135	0x3f7eeebe	0.9958304
136	0x3f7e0551	0.9922686
137	0x3f7edfb3	0.9956009
138	0x3f81118d	1.0083481
139	0x3f7ecafb	0.99528474
140	0x3f80936a	1.0044987
141	0x3f80d0da	1.0063736
142	0x3f80ef32	1.0072997
143	0x3f81ddc2	1.01458
144	0x3f807543	1.0035785
145	0x3f8016c3	1.0006946
146	0x3f7d6ffe	0.9899901
147	0x3f822926	1.0168808
148	0x3f7f242d	0.99664575
149	0x3f7f0756	0.9962057
150	0x3f7fee3a	0.9997288
151	0x3f7f3b40	0.99699783
152	0x3f7eff2d	0.9960812
153	0x3f7fe348	0.9995618
154	0x3f8176d5	1.011439
155	0x3f7cb7ff	0.98718256
156	0x3f7d573a	0.9896122
157	0x3f7e9ff7	0.99462837
158	0x3f8199ad	1.0125023
159	0x3f8053cb	1.0025572
160	0x3f7f3fc6	0.99706686
161	0x3f7fb4e1	0.99885374
162	0x3f7ee2ec	0.99565005
163	0x3f7b68a1	0.98206526
164	0x3f7fcad4	0.99918866
165	0x3f802323	1.0010723
166	0x3f7e48b6	0.993297
167	0x3f808bb6	1.0042636
168	0x3f7c9191	0.98659617
169	0x3f7d2758	0.9888816
170	0x3f803dd6	1.0018871
171	0x3f7ed6ea	0.9954668
172	0x3f80077c	1.0002284
173	0x3f80a07c	1.0048976
174	0x3f80f8ac	1.0075889
175	0x3f7dfc5c	0.99213195
176	0x3f8157ea	1.0104954
177	0x3f804eb2	1.0024016
178	0x3f81e619	1.0148345
179	0x3f80c5ab	1.0060323
180	0x3f7f0c0f	0.99627775
181	0x3f8024ee	1.001127
182	0x3f80b056	1.0053813
183	0x3f8192f2	1.0122969
184	0x3f7d70ac	0.9900005
185	0x3f80a109	1.0049144
186	0x3f808acc	1.0042357
187	0x3f80d9b8	1.0066442
188	0x3f7fee0a	0.99972594
189	0x3f80f1b0	1.0073757
190	0x3f80b067	1.0053834
191	0x3f80907e	1.0044096
192	0x3f80464d	1.0021454
193	0x3f7efc64	0.9960387
194	0x3f81a7fb	1.0129389
195	0x3f805f2f	1.0029048
196	0x3f8174a8	1.0113726
197	0x3f7e7cf4	0.99409413
198	0x3f801d46	1.0008934
199	0x3f7df326	0.9919914
200	0x3f80404d	1.0019623
201	0x3f802fab	1.0014547
202	0x3f7da84b	0.9908492
203	0x3f7d79d5	0.99014026
204	0x3f7c6a1e	0.9859942
205	0x3f7ba439	0.9829746
206	0x3f814a82	1.0100863
207	0x3f7e6e5e	0.99387157
208	0x3f7e7b15	0.9940656
209	0x3f7f8427	0.99811023
210	0x3f7d3cb0	0.98920727
211	0x3f7ceb71	0.98796755
212	0x3f82de78	1.0224142
213	0x3f7e3601	0.99301153
214	0x3f7ea849	0.9947553
215	0x3f80044a	1.0001309
216	0x3f7d2ae9	0.988936
217	0x3f7de9a5	0.9918464
218	0x3f811cb3	1.0086883
219	0x3f8065be	1.0031049
220	0x3f7fe3bc	0.9995687
221	0x3f80d883	1.0066074
222	0x3f7d029d	0.9883211
223	0x3f807eb3	1.0038666
224	0x3f8053cb	1.0025572
225	0x3f816312	1.0108359
226	0x3f7f68e0	0.997694
227	0x3f7fcbf6	0.99920595
228	0x3f7eb11c	0.99489
229	0x3f7fec16	0.99969614
230	0x3f802020	1.0009804
231	0x3f805a8a	1.002763
232	0x3f7fbf81	0.99901587
233	0x3f80a5be	1.005058
234	0x3f80cb15	1.0061976
235	0x3f7f42b8	0.9971118
236	0x3f80b6a9	1.0055743
237	0x3f80bccd	1.0057617
238	0x3f7e2300	0.99272156
239	0x3f801400	1.0006104
240	0x3f7fe896	0.9996427
241	0x3f81bcb2	1.013571
242	0x3f806df0	1.003355
243	0x3f80364c	1.001657
244	0x3f7f553c	0.9973943
245	0x3f7dde61	0.9916745
246	0x3f7dc373	0.99126357
247	0x3f810fa9	1.0082904
248	0x3f7ea84d	0.99475557
249	0x3f810823	1.0080608
250	0x3f804c9f	1.0023383
251	0x3f7f7172	0.9978248
252	0x3f7f372c	0.9969356
253	0x3f8053f7	1.0025624
254	0x3f80fa0f	1.0076312
255	0x3f7f2f5d	0.99681646

features.12.bias f4 [256]
0	0x3bf45368	0.007456232
1	0xbb5012c0	-0.0031749457
2	0x3c8bbb23	0.017057007
3	0xbc57354c	-0.013135266
4	0x3ba15e15	0.0049245455
5	0xbc010a95	-0.007876058
6	0xbc1f1c5b	-0.00971135
7	0x3b9c9d40	0.004779488
8	0xbbb476c4	-0.005507322
9	0x3be0b748	0.0068577863
10	0x3c4d19bb	0.012518342
11	0xbb51dff8	-0.0032024365
12	0x3b4ac302	0.0030938988
13	0x3c51320f	0.012768283
14	0xb8478c36	-4.757588e-05
15	0xbc0a1e05	-0.008430009
16	0x3b1d3ba6	0.0023991852
17	0xbb113037	-0.0022153982
18	0x3c074507	0.0082562035
19	0x3bf08945	0.0073405826
20	0xbc2c40c1	-0.010513485
21	0x3c1ad572	0.009450303
22	0x3bfbd670	0.007685475
23	0x3b9e26bb	0.0048263944
24	0x3c973945	0.018459925
25	0x3c06e14d	0.008232427
26	0xbbffc726	-0.0078057228
27	0xbb8503d8	-0.004059296
28	0xbc582ff5	-0.013195028
29	0x3a0e7b89	0.0005435278
30	0x3ba66a07	0.0050785574
31	0x3c64106e	0.013919933
32	0x3c5a7cd9	0.01333543
33	0xbb5c820f	-0.0033646857
34	0x3bb6fe94	0.0055845473
35	0xb9d648e3	-0.00040871566
36	0x3b9f4718	0.00486077
37	0xbbc37e0a	-0.0059659528
38	0x3c2018f4	0.009771574
39	0xbc73f07d	-0.01488888
40	0x3c37432f	0.011185451
41	0x3b0db3aa	0.002162198
42	0xbc696e08	-0.014247425
43	0xbb000eb5	-0.0019540016
44	0xbbf4ee2a	-0.0074746804
45	0xbc288de2	-0.010287734
46	0xbb20a4d6	-0.0024512312
47	0x3bc6374d	0.006049073
48	0xbbbdeef5	-0.005796308
49	0xbb5deae1	-0.0033861923
50	0xbb190b74	-0.0023352774
51	0xbbabc3b1	-0.005241834
52	0xbc245279	-0.010029429
53	0x3b9dc9be	0.0048153093
54	0x3c2a731d	0.010403422
55	0x3ba81ee7	0.005130637
56	0x3c018800	0.00790596
57	0x3c1cf3c1	0.0095796
58	0x3bbabfe0	0.005699143
59	0x3ba58182	0.005050839
60	0x3bbc20bb	0.0057412065
61	0xbb6c0a93	-0.0036017045
62	0x3c0c7612	0.008573072
63	0x3c6ff461	0.014645667
64	0x3b2eec75	0.0026691232
65	0xbbcfe801	-0.0063447957
66	0xbc20cd0a	-0.00981451
67	0x3bbacf48	0.0057009794
68	0xbc02dec5	-0.007987683
69	0xbbd2b0f1	-0.0064297845
70	0xbc52c514	-0.01286437
71	0x3c02471f	0.007951527
72	0x3c42d765	0.011892174
73	0x3c4dacca	0.012553403
74	0x3c2b5e36	0.010459473
75	0x3c6b9a8a	0.014380107
76	0xbbefbfef	-0.0073165814
77	0x3b99945b	0.004686875
78	0x3bcafd7f	0.00619477
79	0x3ca590f3	0.020210719
80	0x3aefdb8f	0.0018299686
81	0xbc3c8b3f	-0.011507808
82	0xbc020950	-0.007936791
83	0x3b880741	0.0041512554
84	0xbb24417b	-0.0025063443
85	0xbbec54dd	-0.007212265
86	0xbbbd0abf	-0.0057691033
87	0x3c092a1f	0.008371859
88	0x3b312a7b	0.0027033377
89	0xbc0fedcb	-0.008784722
90	0x38cfcd6a	9.9087905e-05
91	0xbbfc803d	-0.007705717
92	0x3b1f56ea	0.002431328
93	0x3c0b7b4e	0.008513285
94	0xbbb6fd13	-0.005584368
95	0xbc540fdd	-0.012943235
96	0xbc1e6976	-0.009668699
97	0xb901af91	-0.00012367802
98	0x397382f4	0.0002322307
99	0x3bbe9432	0.005816006
100	0x3b127861	0.0022349583
101	0xbb90a560	-0.0044142455
102	0x3c1d46c1	0.009599389
103	0x3a05c9ff	0.0005103647
104	0xbc2d0f7b	-0.010562773
105	0x3bf8cbaa	0.007592638
106	0x39dda52d	0.0004227547
107	0x3c206b7d	0.009791252
108	0x3be32cd8	0.006932836
109	0x3c290080	0.010315061
110	0xbc9e040d	-0.019289041
111	0xbc70ebbf	-0.014704644
112	0x3b90d6dc	0.0044201445
113	0xbb953cbd	-0.0045543597
114	0xba24d30e	-0.0006287553
115	0xba91cad6	-0.0011123072
116	0xbc94131e	-0.018075522
117	0x3b33283c	0.0027337214
118	0x3bcdf1df	0.006284937
119	0x3c34405c	0.011001673
120	0x3bf7708e	0.0075512594
121	0xbc2d9965	-0.010595654
122	0x3c12d667	0.00896225
123	0x3b64382a	0.0034823515
124	0xbbfb4a68	-0.007668782
125	0x3b91d843	0.0044508292
126	0xbc647447	-0.013943738
127	0xbba5da4d	-0.005061424
128	0xbba64581	-0.0050742035
129	0x3c1c560e	0.009542001
130	0xbb4845b7	-0.0030559131
131	0xbb80998d	-0.0039245547
132	0x3be1db7b	0.006892619
133	0xbb273fe7	-0.0025520266
134	0xbc0f71f8	-0.0087552
135	0xbb8e0fb0	-0.004335366
136	0x3aa3cb5c	0.0012496519
137	0xbc14f4b0	-0.009091541
138	0x3c5c83a5	0.013459121
139	0xba4a587c	-0.00077188737
140	0x3b3d54ce	0.002888966
141	0x39b78b7b	0.000350084
142	0x3bdea877	0.006794985
143	0x3b8ae5ac	0.004238805
144	0x3ad3009c	0.0016098204
145	0x3c1050a2	0.008808287
146	0xbb976b05	-0.004620912
147	0x3c821f26	0.015883993
148	0xbb0af916	-0.0021205596
149	0xbc110a90	-0.008852616
150	0x3b43267f	0.0029777584
151	0xb96d9ef2	-0.00022661293
152	0xbc0adbd7	-0.0084752655
153	0x3b88b70a	0.0041722106
154	0x3b79f18e	0.0038138363
155	0xbc1fa000	-0.009742737
156	0xbc1421c7	-0.009041256
157	0xb9c698bc	-0.000378793
158	0x3b9c0c60	0.0047622174
159	0x3babfd60	0.0052487105
160	0xbb8d722e	-0.00431659
161	0x3b74bee2	0.003734522
162	0xbb287b55	-0.0025708277
163	0xbc446307	-0.011986501
164	0x3a1417bf	0.00056492904
165	0xbb170ad4	-0.0023047226
166	0xbc0525e2	-0.008126708
167	0x3c14c73a	0.009080702
168	0xbc0e394a	-0.008680651
169	0xbc254a37	-0.010088495
170	0x3aa0663a	0.0012237497
171	0xbb7a556b	-0.0038197886
172	0xb9e06e6a	-0.00042806874
173	0x3ba7cdd6	0.005120973
174	0x3bea7431	0.0071549644
175	0xbc22ca2f	-0.0099359
176	0x3c156b43	0.0091198115
177	0x3b03c5bc	0.0020106873
178	0x3c451932	0.012029933
179	0x3c2e191b	0.010626103
180	0xbb2884b4	-0.0025713863
181	0x3c23490a	0.009966144
182	0x3c0de440	0.008660376
183	0x3bb5a492	0.0055433
184	0xbc04acb4	-0.008097816
185	0x3a2253bf	0.0006192289
186	0x3aadd9f4	0.0013263808
187	0x3c18e9e5	0.009333109
188	0x3b6b542b	0.0035908322
189	0x3c07dc63	0.00829229
190	0x3b7f699c	0.003897286
191	0x3c33b27d	0.010967848
192	0xba857e4c	-0.0010184734
193	0xbaf5e95d	-0.0018761564
194	0x3c8ed642	0.01743615
195	0x3b830e78	0.0039995275
196	0x3bb4f681	0.0055225496
197	0xba95bc8f	-0.0011423993
198	0x3b901d29	0.0043980074
199	0xbbd403f9	-0.0064702
200	0xbb4390bb	-0.0029840905
201	0xbacca3fb	-0.0015612835
202	0xbbf562f7	-0.007488604
203	0xbc1683cc	-0.009186696
204	0xbc10e135	-0.008842756
205	0xbc1997c3	-0.009374562
206	0x3c0f960e	0.008763803
207	0xbb499ffb	-0.0030765522
208	0xbc0764fa	-0.008263821
209	0xbb8cfd1f	-0.0043026353
210	0xbc536c3b	-0.012904222
211	0xbbd5796b	-0.0065147183
212	0x3cb6b552	0.022303257
213	0x3b330608	0.0027316827
214	0x3b6a0098	0.003570592
215	0x3b277c44	0.0025556246
216	0xbc05e4a4	-0.008172188
217	0x3b2295ba	0.0024808482
218	0x3b54f421	0.0032494145
219	0x3b168a91	0.0022970776
220	0xbba642d0	-0.0050738826
221	0xbbfcb2af	-0.0077117304
222	0xbc237138	-0.009975724
223	0x3bf0e41f	0.007351413
224	0x3b89f680	0.0042102933
225	0x3c8a287c	0.016865008
226	0x3a27622c	0.0006385173
227	0x3b2f58ff	0.0026755927
228	0xbbeba4a1	-0.007191256
229	0x3a915886	0.0011089004
230	0x3bdec3e7	0.0067982557
231	0x3b8ded72	0.004331284
232	0xbb4c2e51	-0.0031155536
233	0x3a0689cd	0.0005132228
234	0x3b12889d	0.002235926
235	0xb9c8e2b1	-0.0003831587
236	0x3b14735d	0.002265177
237	0x3c2510e2	0.010074826
238	0xbb957050	-0.004560508
239	0xbb1b8f10	-0.0023736395
240	0xbb0a4a80	-0.0021101534
241	0x3b468fac	0.0030298037
242	0x3c34506b	0.011005501
243	0x3bf75c87	0.007548872
244	0xbbe0c6b8	-0.0068596266
245	0x3a82259a	0.0009929419
246	0xbc5ed9f4	-0.013601769
247	0x3bb75e08	0.005595926
248	0x3baee7f6	0.0053377105
249	0x3c15a05a	0.009132469
250	0x3c0d8a99	0.008639001
251	0xbc09974f	-0.008397891
252	0xba528a69	-0.0008031489
253	0x3b482f1e	0.0030545662
254	0x3bab3449	0.0052247387
255	0xbb8f1e20	-0.004367605
