app/src/main/assets/execution_int8.onnx (onnx, 115556 bytes, 38 tensors)

features.0.bias f4 [32]
00000000: b338 283e 3cc3 ee3c 0088 023e 86ab 1abe
00000010: d993 403e babd ed3d e40a 853d 221e 75bd
00000020: c76f 923d ea53 0d3e da43 4cbd bc50 30be
00000030: 7552 50bd e902 263e 513a 393e 00ff 363e
00000040: 661f 213e 2a37 8ebd 13b4 fc3c 3d5b 81bd
00000050: beec 953d 48c9 1ebe 3607 533d e480 18be
00000060: cc2b 0c3d 0166 11be e861 e0bd 0c38 39bd
00000070: ee17 08bb 8002 68bd d016 02be 1c2c 803d
0.16427879 0.02914583 0.12747192 -0.15104493 0.188064 0.11608453 0.06496218 -0.05984319
0.07150226 0.13801542 -0.049869396 -0.17218298 -0.050859887 0.16212048 0.18088652 0.17870712
0.15734634 -0.069441155 0.030847585 -0.063162304 0.073205456 -0.1550647 0.05152055 -0.14892918
0.034221455 -0.14199068 -0.10956174 -0.045219466 -0.0020766216 -0.05664301 -0.12704015 0.06258413

features.1.weight f4 [32]
00000000: 1a50 813f c4f3 803f 749e 7f3f 5992 803f
00000010: e92f 7e3f 7454 7e3f 2568 7e3f e906 813f
00000020: f376 7f3f af01 803f 1211 813f c847 7d3f
00000030: 055b 803f 9ed6 803f 8653 7e3f f960 7f3f
00000040: f4bf 803f 7ad9 7e3f 0c48 7e3f d962 7e3f
00000050: 3bcf 803f 199c 7f3f 568f 803f 590d 803f
00000060: 8a09 813f 383d 803f 86cc 7f3f 8b74 7f3f
00000070: f97c 803f 1799 803f 7193 803f 0c6e 7f3f
1.010257 1.0074391 0.99851155 1.0044662 0.99291855 0.99347615 0.9937766 1.0080234
0.9979088 1.0000514 1.0083334 0.98937654 1.0027777 1.0065496 0.99346197 0.99757344
1.005858 0.9955059 0.99328685 0.9936958 1.0063242 0.9984756 1.0043743 1.0004073
1.0081036 1.0018682 0.99921453 0.99787205 1.0038139 1.0046719 1.0044996 0.99777293

features.1.bias f4 [32]
00000000: 64b4 1f3c 0873 493b f963 71ba d4c0 fd3b
00000010: 6e64 89bb 249c 03bc 6413 a8bb 5a28 333b
00000020: a1c8 b1bb fe57 8c3b 9eb4 493c 298d 30bc
00000030: a168 5d3b 2ce4 ae3b 8286 62bb 6715 20bb
00000040: 3ba6 e33b b276 8bbb f548 2fbb 7a74 a0bb
00000050: fb17 203b 2c85 b4ba f0a8 b83a 0426 773a
00000060: 3119 013c dad7 0cbb 2999 ebba 7bd2 fbb8
00000070: bbd0 d93b 4e64 bd3b 2e83 313b 3f15 2fbb
0.009747598 0.003073873 -0.00092083175 0.007743934 -0.0041928804 -0.008032832 -0.0051292647 0.0027337284
-0.005425528 0.0042829504 0.012311129 -0.010775843 0.0033784288 0.005337259 -0.0034565036 -0.002442682
0.0069473065 -0.004256093 -0.0026746367 -0.0048966976 0.0024428356 -0.0013772598 0.0014088433 0.0009427967
0.007879541 -0.0021490962 -0.0017974722 -0.00012007818 0.006647197 0.0057797795 0.0027086246 -0.0026715545

features.1.running_mean f4 [32]
00000000: 7f8e b2be 20f5 553e 5f99 753f d6ba 843f
00000010: 7c43 83be 4e5c 293f f9bf 12bf ad15 13bd
00000020: 1ffc ee3e a839 e4be 4b2d 49bf 21d1 903d
00000030: e13f b1be d411 443f 1d79 143f 7baf 9bbe
00000040: fa62 443f 2988 fd3e af84 6bbe 4c8b 3cbf
00000050: a91a d73e 6a9b 0abf 6a8e 2d3e 543c a73e
00000060: 86e3 f7bd 348c 17bd 9bd0 813f 4669 5c3f
00000070: f0a0 5e3f 73cf 2a3e 770f 1d3f 2ab5 bf3e
-0.3487434 0.20894289 0.9593715 1.0369518 -0.25637424 0.6615647 -0.5732418 -0.035909344
0.46676728 -0.44575238 -0.78584737 0.07071138 -0.34619048 0.76589704 0.57997304 -0.30407318
0.76713526 0.49517944 -0.22999834 -0.7365005 0.42012528 -0.54143393 0.16948858 0.32663214
-0.121039435 -0.036998942 1.0141786 0.86098135 0.8696432 0.16680698 0.6135172 0.37442905

features.1.running_var f4 [32]
00000000: de44 a13c 6d54 003c fd9f e93b b07e 153d
00000010: 4759 143c 2d33 033c 5188 9a3c 0c12 df3a
00000020: 093e a33b 848a d73c 0c2e c73c 9163 b43b
00000030: 5394 563c 2e39 7d3c 9687 8e3b 8512 883b
00000040: 8e4c f03c f921 163c 80f5 eb3b 3fe8 ce3b
00000050: 69b2 f03b 63f1 953c d3e3 ee3c a62d 5c3c
00000060: 1504 6e3c d241 833b 704e 273c 133c 003c
00000070: 29a8 513c 51da ab3c 0be8 283c 2cc7 313c
0.019686159 0.007832629 0.007129668 0.03649777 0.0090544885 0.008007807 0.018863829 0.0017018928
0.0049817604 0.026311167 0.024313949 0.0055050333 0.013096887 0.015455527 0.004349659 0.0041525983
0.02933338 0.009163373 0.0072008967 0.006314307 0.007345487 0.018303579 0.02916137 0.013438618
0.01452734 0.004005649 0.010211572 0.007826823 0.01279644 0.020978125 0.01030923 0.010850709

features.3.bias f4 [64]
00000000: 828a c1bd 5462 bc3d 6e4e 1bbe 40f8 313e
00000010: b6a1 fc3d 491e ca3c e101 aabd 616c 54bc
00000020: 4b88 2c3e a88b 213e a0eb 1e3d e302 2cbe
00000030: ee4c 26bd de25 f6b8 4309 1d3b 5ad2 80bc
00000040: bb64 6cbd 1976 9fbd 6c32 4cbc c7e0 0c3e
00000050: 0ae6 02be b843 87bd 477f 2b3c b203 2abc
00000060: 67de f0bd f797 ad3c ba54 863d e2d6 06be
00000070: 0128 3ebd d705 f1bd 7869 45bd 6b35 d3bd
00000080: bbde 8e3d 1963 ff3d 3ac4 c7bd 1299 ae3c
00000090: cd2a f1bd a01f 093e 8412 073e cda6 f0bd
000000a0: a164 143e 9572 23bd 78d9 8039 fe88 b93d
000000b0: 199f cabd 15b7 25be a889 d7bd f93b 24be
000000c0: 618f e6bd 3dd0 603d 5abe 0dbd a33e ca3c
000000d0: 9748 99bd 9f8e 213e a6a8 bb3d f774 6dbb
000000e0: aa2e 223e 997c e2bd fb95 00be 2472 dcbd
000000f0: b48f 303e c991 babd b13f c83d e458 d93d
-0.094502464 0.09198442 -0.15166637 0.17379856 0.123355314 0.024672644 -0.083011396 -0.012965293
0.16848867 0.15775931 0.03879893 -0.16797976 -0.04060071 -0.000117372474 0.002396182 -0.015725303
-0.05771325 -0.07786197 -0.012463193 0.13757621 -0.12783065 -0.06604713 0.010467357 -0.010376858
-0.1176117 0.021190627 0.06559129 -0.13167909 -0.04642487 -0.11768692 -0.048196286 -0.10312923
0.06976076 0.12470073 -0.09754224 0.021313224 -0.11775742 0.1339097 0.13190657 -0.11750565
0.14491512 -0.039904196 0.0002457609 0.09059332 -0.09893627 -0.16183122 -0.10524303 -0.16038503
-0.11257816 0.05488609 -0.03460536 0.02468807 -0.074845485 0.15777062 0.091630265 -0.0036233047
0.15838113 -0.11058921 -0.12557213 -0.10763958 0.17242318 -0.091098376 0.09777773 0.10612658

features.4.weight f4 [64]
00000000: 9d16 813f 2a39 803f 33e2 7d3f 3f0d 813f
00000010: ae2e 7f3f ba23 7f3f e2be 813f d84e 803f
00000020: 1b9b 7e3f 2ced 7f3f 2d85 7f3f 281d 803f
00000030: 8a0d 803f 136c 813f eb6a 803f 7ad0 803f
00000040: b20a 813f cd21 803f 9e73 803f 3d68 7e3f
00000050: 2523 7f3f a4f9 803f 3e7c 803f 9b9c 7f3f
00000060: cd92 7f3f 01bd 7e3f f385 7e3f 2cf0 7e3f
00000070: a277 7e3f 3458 803f df33 803f c616 803f
00000080: c964 813f 7a4f 803f 4cd9 803f c700 7f3f
00000090: e326 7e3f be3b 803f 47e9 803f aea7 7c3f
000000a0: 42e2 7e3f 181c 7e3f 086c 803f d8e1 7f3f
000000b0: 7c5e 7f3f c7d9 803f 222c 803f afd4 7f3f
000000c0: 94a6 813f 0b56 7f3f 53aa 7e3f b137 7f3f
000000d0: cbc0 7f3f 7731 7d3f 09ce 803f c98d 7f3f
000000e0: 5211 7f3f 7274 803f 5551 7d3f 4b5b 803f
000000f0: 6ade 803f 12c1 803f 47ff 7e3f a656 803f
1.0085026 1.0017445 0.9917328 1.0082167 0.996806 0.9966389 1.0136378 1.0024061
0.9945542 0.9997127 0.99812585 1.0008898 1.0004132 1.0111107 1.0032629 1.0063622
1.0081389 1.0010315 1.0035284 0.99377805 0.99663 1.0076184 1.0037916 0.99848336
0.99833375 0.9950715 0.9942314 0.99585223 0.99401295 1.0026917 1.001583 1.000695
1.0108882 1.0024254 1.0066314 0.9961056 0.99278086 1.0018232 1.007119 0.9869336
0.9956399 0.9926162 1.0032969 0.99953985 0.99753547 1.006646 1.0013468 0.99933904
1.0128961 0.99740666 0.99478644 0.99694353 0.99903554 0.989036 1.0062877 0.9982572
0.99635804 1.0035536 0.9895223 1.002786 1.0067875 1.005892 0.9960827 1.0026443

features.4.bias f4 [64]
00000000: d440 ce3b e7d3 0c3b 4839 0f3a 51ec 1f3a
00000010: e910 53bb a4fc 28bb cd98 533c 2366 863b
00000020: 7865 3dbb d15f 17bb 8928 a2bb 107f ab3b
00000030: e842 743a 550a 363c dffe 9f3b 4c0b 92ba
00000040: ef3d cb3b b99e 8f3a 5514 283b 2358 063a
00000050: 3c33 13bc a6d4 763c a409 663b b6a6 f1ba
00000060: 6ba6 09bb 1530 b8bb adf8 913a 2b87 a4bb
00000070: 88d9 85bb 79f3 8f3b f6e4 993a 1074 b83a
00000080: 93e1 803b 000d 233b b3a0 1d3c 5918 58bb
00000090: 5be4 21bc 69ff 823b cb6d da3b 803f 4cbc
000000a0: 6950 52bb bf00 fbbb b15f 473b 1521 d23b
000000b0: f56b bdbb 1edb da3b 0dfe ae3a e472 22bb
000000c0: 602a 3c3c d985 0fbc 9f60 0ebc b8b6 85bb
000000d0: 8b84 97bb 9761 26bc f10b 583b 1c68 cbbb
000000e0: 88e5 acba 2158 653b 509f 36bc 8219 8a3b
000000f0: 653b 113c cc3c 003c bcb4 0ebc 74a8 4f3b
0.006294349 0.0021488608 0.00054635527 0.00061005825 -0.0032206124 -0.0025785351 0.0129148485 0.004101531
-0.0028899591 -0.0023097883 -0.00494868 0.005233653 0.0009317831 0.011110862 0.004882678 -0.0011142283
0.0062024514 0.0010957337 0.0025646884 0.0005124828 -0.008984383 0.015065348 0.003510096 -0.0018436525
-0.0021003734 -0.005620966 0.0011136733 -0.005020996 -0.0040847696 0.004393038 0.0011741209 0.0014072675
0.0039331405 0.0024879575 0.009620833 -0.0032973497 -0.009881104 0.0039977324 0.0066659204 -0.012466311
-0.0032091385 -0.007660001 0.0030422027 0.006412635 -0.0057806917 0.006678953 0.001335086 -0.0024787718
0.011484712 -0.008759939 -0.008690028 -0.0040806197 -0.0046239547 -0.010155103 0.0032966102 -0.006207479
-0.0013190964 0.0034995156 -0.0111463815 0.0042144665 0.008864258 0.007826995 -0.008710083 0.00316861

features.4.running_mean f4 [64]
00000000: 19bd 2a3e bb3b 69be 980e d13c 72b0 a13e
00000010: 924a 29be aeeb 21bf 0d24 e8bd 9ab7 783e
00000020: a2ca c73e d69d 53be 1136 86be 1c1d 2d3d
00000030: c829 663d 8aca 3d3d 5825 db3e 80de 61bd
00000040: c0d7 88be 3def 80bd 06df 313e a9e6 20be
00000050: 6628 41bc b95b 35be 06ef 533e c50a 0b3e
00000060: ed9e 3ebb d87c 2bbc 8735 83bd 23d3 6abe
00000070: ad12 773e 48b6 58be 62d8 97be da98 9f3c
00000080: d418 103f f049 41be afa6 d5be 4047 00be
00000090: 5a8e e6bd 7ad1 023e 7617 21bd 36af 663d
000000a0: ae65 2f3f 7c33 a53e 7dcd acbe 8cc9 87be
000000b0: 4186 8fbe fd96 31be 225b b1be 72b5 f8be
000000c0: b0a8 453e ccd8 a73e eaf7 0c3e c0dd 4b3e
000000d0: b676 93be 8a53 073f 66cc fb3d 9951 9f3e
000000e0: 2f2f 9cbd 0549 b63d c018 adbc d63b 87be
000000f0: 3c72 e23d a0fc 23bf 543c e43d 8654 853c
0.16673698 -0.22776692 0.025519654 0.3157993 -0.16532353 -0.63250244 -0.11335001 0.24288788
0.39021784 -0.20665678 -0.26213124 0.04226409 0.05619219 0.046335734 0.4280193 -0.055143833
-0.26727104 -0.06295631 0.17370233 -0.1571299 -0.011789417 -0.1771077 0.20696649 0.13578327
-0.0029086426 -0.010466777 -0.06406694 -0.22932105 0.24128218 -0.21163285 -0.29657274 0.019482065
0.56287885 -0.18875861 -0.41728732 -0.1252718 -0.1125762 0.12775221 -0.039329015 0.056319438
0.68514526 0.32265842 -0.33750525 -0.26520956 -0.28032115 -0.17342754 -0.3463984 -0.48575932
0.1930263 0.3278259 0.13766447 0.1990881 -0.28801507 0.52861845 0.12294845 0.31116942
-0.07626187 0.08900646 -0.021129966 -0.2641284 0.11056945 -0.6405735 0.11144319 0.016275655

features.4.running_var f4 [64]
00000000: 9ca5 e83d 6787 143e 99d9 b43e dfa3 f13d
00000010: 538e be3d 364e 213e afb4 d03d bcd6 023e
00000020: 3425 163e 9bc8 0f3e 35de fa3d e057 e73d
00000030: 0fd8 4e3d e574 083e 6a1d 8f3d 89b5 ae3d
00000040: 369a 873d 528c 913d 2345 2b3d 1b4d a63d
00000050: d4e0 de3d 266c 853d ae43 d73d 4cb6 683d
00000060: 04e0 723d a4ba ff3d 7ed8 9e3d d2a9 313e
00000070: 2bd3 0f3e 1c80 453d d8a8 303e 29bc 7e3d
00000080: a294 fc3d 7028 d73d 8925 8d3d 6dec 3b3e
00000090: bbda 523d b14e 043e 2efd 023e 9bbb 2f3e
000000a0: 7281 133e 1d18 423e fb71 8e3e 35d6 203e
000000b0: 6084 983d 4468 793d c575 933d 860f ff3d
000000c0: df35 5a3e 50d2 7e3d 05c5 ac3d 6f0c a03d
000000d0: 21e0 bf3d 13fa 9e3d abd8 903d dc2c 9e3d
000000e0: 6469 d93d f512 323e ebaa 2b3d 473d c33d
000000f0: c94c 483e 377c 213e 8885 4e3d bf6b 813e
0.113597125 0.14504777 0.35322264 0.11798834 0.0930449 0.15752491 0.10190713 0.12777227
0.1466263 0.14041369 0.12249414 0.11296058 0.05049902 0.13325842 0.06988032 0.08530719
0.0662121 0.07106842 0.04181398 0.081201755 0.10882726 0.06514768 0.10510956 0.056814477
0.05929567 0.12486771 0.07756136 0.17349938 0.14045398 0.048217878 0.17251909 0.062191162
0.12333037 0.1050576 0.06891925 0.18351908 0.05147813 0.12920643 0.12791893 0.1716141
0.14404848 0.18954511 0.27821335 0.15706713 0.074471235 0.06089045 0.07200197 0.12454133
0.21309613 0.06221229 0.08436016 0.078148715 0.09368921 0.077625416 0.07072576 0.077234
0.10615805 0.17390044 0.041911047 0.09533172 0.19560541 0.1577004 0.050420314 0.25277516

features.7.bias f4 [128]
00000000: bb25 7fbc ad16 543d a4cd 823d 34c8 f1bd
00000010: 4339 903d 6821 7e3d 6a9c 31bd ad2b b93d
00000020: 6942 20bd a96c cabd 8ad9 46bd c3fd e53d
00000030: 7b93 d63c 0c51 75bd f316 c23d d20a a13d
00000040: 05c7 103d 13d4 3b3d 5af6 d03d cc87 923d
00000050: 295d e3bd e2b5 483d dfe6 cdbd 69cc b73c
00000060: 746f 53bc 6f57 b73d 6ab6 f73d cbc2 e43d
00000070: 739e dc3d e27e 15bd 672a 923d 8ed3 bcbc
00000080: 8e97 64bc 13fb cfbd 3d0c 2fbd 332a 463d
00000090: 4111 6cbd 77cf 3b3b d3bc e53d 6b94 653d
000000a0: fbde 343c ef78 82bd f8dd 713b 1145 303d
000000b0: da99 c63d afa3 fbbd a706 3c3d 13b1 ea3d
000000c0: 6c15 2c3d f304 babd 1d1f cbbd 2613 bb3d
000000d0: 05a5 60bd f330 65bd 210b c9bd ba72 073d
000000e0: 2160 b53d aa87 e7bd 5e4e 973d 93ba 6c3d
000000f0: aab6 483d 5e01 f7bd d54a a53d 6298 64bd
00000100: 0c6b e63d b964 b03d 89d3 5f3c e5cb 3bbc
00000110: 7319 9bbd 1d9a fe3d 1ad2 7d3c e034 aebd
00000120: 1c03 eebd 1a46 863d 5179 fb3d ebca ebbc
00000130: c7d6 f6bd 589c b2bd 1054 933d a159 aebd
00000140: da66 d2bd 5627 92bd 896a e5bd fcfb cabd
00000150: 31a7 7b3d d132 3dbd 7daa a5bd d948 043d
00000160: 3671 073d da21 93bd 90b5 7abd e2c6 ee3c
00000170: aaff 85bc 30d2 fe3d 2d97 ddbd e48b 803d
00000180: ad05 713d 2900 bc3b 389e eb3d 60cc 23bd
00000190: 117f 4cbd d1be dcbd 41bd 99bc 60cb a8bc
000001a0: 9af0 d1bd f69e d7bd e3ee 87bd 2df3 07bd
000001b0: 3315 1b3c a9b3 d8bd e6b6 dfbd 353f 85bd
000001c0: edba cabd f00d 7dbd 71c8 413d 7c68 9dbd
000001d0: 2561 14bc 7c37 e63d db73 f73d b18b c2bd
000001e0: 8e85 a93d 9648 e6bd 5cbb 37bd c42d 7ebd
000001f0: 82ac a93d d06d 973c 10c2 f33b ef3c 0ebc
-0.0155729605 0.051779438 0.06386879 -0.11805764 0.07042172 0.062043577 -0.04336206 0.090415336
-0.039125834 -0.098840065 -0.048547305 0.11230042 0.026193371 -0.059891745 0.094770335 0.07863392
0.03534605 0.045856547 0.10203238 0.071548074 -0.11101753 0.049001582 -0.10053801 0.022436338
-0.01290499 0.089522235 0.120953396 0.11169966 0.10772409 -0.036497958 0.07136994 -0.023050096
-0.013952149 -0.101553105 -0.04273628 0.048380088 -0.057633642 0.0028657594 0.11217656 0.056049746
0.011039491 -0.063707225 0.0036905985 0.043034617 0.096973136 -0.122870795 0.04590478 0.114595555
0.042012617 -0.09082975 -0.09918044 0.09134512 -0.054844875 -0.055954885 -0.09816576 0.033068396
0.08856226 -0.11305173 0.07387994 0.05779512 0.049002327 -0.12060808 0.08070914 -0.055809386
0.11250886 0.08612961 0.013661274 -0.011462186 -0.075732134 0.124317385 0.015491987 -0.08506179
-0.11621687 0.065563396 0.12278999 -0.028783282 -0.12052684 -0.087212265 0.07193768 -0.08513189
-0.10273524 -0.07136409 -0.112019606 -0.099113435 0.061438743 -0.04619104 -0.08089159 0.032296035
0.03306695 -0.07184191 -0.061208308 0.02914757 -0.016357262 0.12442434 -0.1081985 0.06276682
0.058843303 0.005737324 0.11504787 -0.03998983 -0.049925867 -0.10778583 -0.018767001 -0.02060479
-0.10250969 -0.10528366 -0.06637361 -0.033190895 0.0094655035 -0.105811425 -0.10923557 -0.065061964
-0.098989345 -0.06178087 0.047310296 -0.076859444 -0.009056364 0.112410516 0.120826446 -0.094993
0.08277427 -0.112443134 -0.044856414 -0.062055364 0.082848564 0.01848498 0.0074389055 -0.00868152

features.8.weight f4 [128]
00000000: aacf 7e3f 017c 7f3f 22b4 7d3f e801 813f
00000010: da3f 7d3f 7598 7d3f e4c8 7d3f 47fd 803f
00000020: d20c 7d3f c5bd 7e3f 11e3 803f f7e8 803f
00000030: 32f4 803f 020a 803f 7994 7d3f 1843 7f3f
00000040: ca79 803f c291 803f aed3 803f f56f 7d3f
00000050: f2e1 7d3f 4bd8 7e3f 4af9 803f f2af 803f
00000060: 29a8 7f3f 6027 803f 749a 7d3f a56c 7f3f
00000070: 946a 7e3f 4ad9 7e3f c3b3 7f3f eae8 803f
00000080: 484a 803f e66a 803f 728a 7f3f 2ad2 803f
00000090: acc9 7e3f 27f0 803f 79f0 803f 227b 813f
000000a0: a687 7e3f 0a37 803f 8cfa 7f3f 42b8 803f
000000b0: 20fa 7d3f 8976 7f3f 31c0 7d3f dfd7 7f3f
000000c0: 3d21 813f d0db 7b3f b724 803f 4565 7e3f
000000d0: 6bdb 7e3f 3406 803f 36e2 7d3f db3e 7f3f
000000e0: 0162 803f 0124 7f3f 97c0 7f3f 8cde 803f
000000f0: b44d 803f 0e05 813f 4dcb 803f c801 7e3f
00000100: f855 803f fefa 7e3f 7df5 7d3f 39da 7f3f
00000110: d26f 7f3f 6206 7e3f 89d7 7f3f 733c 803f
00000120: a4fd 7f3f 5314 7f3f 35e7 803f 502e 7f3f
00000130: 2a13 7f3f 5de3 7d3f 0532 7e3f 3f49 7e3f
00000140: 80d8 7f3f 14dd 803f 0edf 813f ad8d 803f
00000150: 9c68 7f3f 9925 803f ea97 813f 0649 803f
00000160: f9ec 803f 0f6d 803f a0cd 7f3f 141c 803f
00000170: 5a08 813f de50 803f 93fd 7d3f d621 803f
00000180: 679f 7d3f 5141 7e3f a78f 7f3f 2ef5 803f
00000190: 327f 803f 9801 7f3f 6fd1 7e3f 78e4 7d3f
000001a0: 2b6c 7f3f dd0a 803f 3aa2 7e3f 57cb 7e3f
000001b0: 6a2c 813f 4778 7f3f 04d8 803f 9f36 7e3f
000001c0: 25c7 803f 0b74 813f f3d2 813f 1235 803f
000001d0: b571 7f3f b37e 7e3f 4f4c 813f 7402 7e3f
000001e0: d97d 7e3f 7166 803f f212 813f f8ab 803f
000001f0: 9673 7e3f 8841 7e3f e50b 7f3f d621 813f
0.9953562 0.9979859 0.99102986 1.0078707 0.98925555 0.99060756 0.9913466 1.0077294
0.9884769 0.99508315 1.0069295 1.0071095 1.0074522 1.0003054 0.99054676 0.9971175
1.0037167 1.0044482 1.00646 0.9899896 0.9917289 0.99548787 1.0076077 1.0053694
0.9986597 1.0012016 0.990638 0.99775153 0.99381375 0.99550307 0.9988367 1.007108
1.0022669 1.0032623 0.99820626 1.0064137 0.99526477 1.0073289 1.0073386 1.0115702
0.99425733 1.0016797 0.9999168 1.0056231 0.99209785 0.99790245 0.99121386 0.9993877
1.0088269 0.9838228 1.0011204 0.99373275 0.99553555 1.0001893 0.99173295 0.99705285
1.0029908 0.9966431 0.99903244 1.0067916 1.0023713 1.0079668 1.0062042 0.9922147
1.0026236 0.99601734 0.9920271 0.99942356 0.9978 0.9922849 0.99938256 1.0018448
0.999964 0.9964039 1.0070559 0.9968004 0.9963862 0.99175054 0.99295074 0.99330515
0.9993973 1.0067468 1.0146196 1.0043236 0.99768996 1.0011474 1.0124485 1.0022285
1.0072318 1.0033282 0.99923134 1.0008569 1.0080674 1.0024679 0.9921505 1.0010326
0.99071354 0.99318415 0.9982857 1.0074823 1.0038817 0.99611807 0.9953832 0.9917674
0.99774426 1.0003315 0.9946629 0.9952902 1.0091679 0.99792904 1.0065923 0.99302095
1.0060774 1.0113539 1.0142502 1.0016196 0.9978288 0.9941208 1.0101413 0.99222493
0.9941078 1.0031263 1.0083907 1.0052481 0.9939512 0.9931874 0.99627525 1.0088451

features.8.bias f4 [128]
00000000: 732b 92bb 04da 833a 25cd 34bc 9b50 fd3b
00000010: 0b22 22bc e1df 81bb a00e 10bc ac81 2f3c
00000020: 51a4 fdbb 4895 a1bb bc65 903b c8bf c63b
00000030: 1132 a13b 95cf 7d3b b526 17bc 4190 2abc
00000040: 09fa 0d3b cb70 3b3b 6096 2d3b fd64 47bc
00000050: 0fc0 5ebb 2d10 0fbc 4bbf 3e3c 0078 903b
00000060: e6de c9ba 99b7 833b 1158 09bc a6b3 133a
00000070: b88e bfbb 1583 1a3b 2d1a 07bb 4804 003c
00000080: 46a9 983b e123 433b 0b1e 16bb c3ea 6e3b
00000090: 4e13 09bb 26b0 103c 245f 1f3c ff9f 083c
000000a0: 5f3d 1038 0415 a0ba 9c2c b8ba ad6d ec3b
000000b0: 5592 1ebc f29d 1e3a e694 0fbb 45fb 51ba
000000c0: 5501 223c 259b 86bb f89b 403b 0634 1ebc
000000d0: 9f01 9cbb 11df 703b c46c acbb 6c09 39bb
000000e0: 1a5b dc3b 2c3b 00ba a615 12ba 48cf 923a
000000f0: 0218 c23b defc 643c 5393 c23b 186d 01bc
00000100: 805d 4dbb ed51 393b bf07 c1bb c513 59bb
00000110: 70c5 9fbb c9b9 b7bb 84b9 3dba 2d14 dc3a
00000120: 02c4 00bb ca76 8dbb dc45 6d3b 68b7 25bc
00000130: ebaa f239 43fc a6bb fc97 d3bb 28e6 a5bb
00000140: aa39 52bb 1636 953b 9ab4 453c 1aec b13b
00000150: c282 0abb cc97 f43a 885b 753c 6e68 f23b
00000160: a502 603b 52c6 853b 4110 88ba 21c6 a83b
00000170: c4a8 bf3b d745 fb39 1932 dcbb 07f5 273b
00000180: 1a53 07bc 092b cfbb 34f6 81bb 8150 7c3b
00000190: 4ba0 9a3a 0cb2 9cbb f1b0 eabb 1bcd 79bb
000001a0: 025b 48bb 651f e53b 8e97 7fbb e4e7 9cba
000001b0: 6894 2e3c 95d6 ee38 23e9 fc3b f7ec 29bb
000001c0: 6ec9 aa3b 50ac 263c 233c 823c 1515 55bb
000001d0: 4d52 02ba 5e91 b2ba 7942 3f3c a871 f7bb
000001e0: 2ec4 bcbb 7866 a33a 44c8 203c 0025 933b
000001f0: 415a fbba 5611 a0bb c07a 45bb 1986 eb3b
-0.004460746 0.001005948 -0.011035238 0.007730556 -0.009895812 -0.003963456 -0.008792549 0.0107120685
-0.0077405353 -0.004931126 0.004406659 0.0060653426 0.0049192985 0.0038728465 -0.009225537 -0.010410369
0.0021663925 0.0028601165 0.0026487336 -0.012170074 -0.0033988988 -0.008731884 0.0116422875 0.0044088364
-0.0015401512 0.0040196893 -0.008382813 0.00056343747 -0.005845871 0.0023576666 -0.0020614967 0.007813521
0.004658851 0.0029776024 -0.002290609 0.0036455847 -0.0020916048 0.00883106 0.009727273 0.008338927
3.438943e-05 -0.0012213294 -0.001405138 0.007215223 -0.009678443 0.00060507574 -0.0021908819 -0.00080101594
0.009888013 -0.00410785 0.002938984 -0.009655958 -0.0047609354 0.0036754052 -0.0052619893 -0.0028234376
0.0067247273 -0.000489163 -0.0005572684 0.0011200691 0.005923272 0.013976304 0.0059379726 -0.007899545
-0.0031336248 0.0028277591 -0.005890816 -0.0033123356 -0.0048758313 -0.005606864 -0.0007237422 0.0016790681
-0.001964808 -0.0043171393 0.003620497 -0.010114528 0.0004628518 -0.00509599 -0.006457327 -0.005062837
-0.0032077827 0.0045535667 0.012066985 0.005429757 -0.0021135067 0.0018660962 0.014975436 0.007397703
0.0034181264 0.0040824795 -0.0010380821 0.005150572 0.005848976 0.00047926485 -0.0067198393 0.0025628225
-0.008259559 -0.006322269 -0.0039661173 0.0038500133 0.0011797039 -0.004781967 -0.0071622063 -0.0038116637
-0.0030571823 0.006992268 -0.0039000246 -0.0011970964 0.0106555 0.000113886934 0.0077182218 -0.0025928596
0.0052120006 0.010172918 0.015897816 -0.0032513787 -0.000497137 -0.0013623645 0.011673563 -0.0075513907
-0.005760691 0.0012466451 0.009813372 0.0044904947 -0.0019176678 -0.004884879 -0.003013298 0.0071876165

features.8.running_mean f4 [128]
00000000: 2577 46be 344d adbe a77a 583e 0273 23be
00000010: fc90 c23d 5e51 253e 8d39 83bd b66d b43e
00000020: f990 73be 8411 2ebe ca25 e03d 5e2e 913e
00000030: 1848 a03d 0377 4fbe 9226 84be ea5e 8ebd
00000040: 9a67 f63e 650b 963d a053 043e 25ed dabe
00000050: b699 233e ccb7 59be af99 e8be 0b82 823e
00000060: 78e4 ebbe ed2b 76be 6ba8 04bd a5f7 b23e
00000070: b4c4 1fbe bb4d ae3d 8c73 85bc fb08 893c
00000080: 0168 29be be97 173e f425 66bc 7128 1d3f
00000090: 8472 e4be 2246 0f3f ea87 81be 302f be3c
000000a0: 1cbe 2dbc 61aa 08bd 7ca1 9d3e c4d1 9d3c
000000b0: 0abd 853e f58a d5be b64d e63d 4abc 4dbe
000000c0: 30de a83d df9b 49be 25db 90bd 6573 4d3e
000000d0: 9a94 5c3e 4a8b 41be afa1 2c3e 748f 0f3e
000000e0: 889e 063e 3aaa 4ebe ecaf 60bd 1fc7 293d
000000f0: f204 8c3e c2b6 06be 26a9 173d 90e1 25be
00000100: afcf 9abc d9dd 863e 8250 5c3b 2ad5 d3be
00000110: 52da 38bd 0dcc 543e 600c 29be 1465 02be
00000120: 5350 213d 8bca c23e 0094 fe3e 6a0e f73d
00000130: 9f77 2d3c 1d2b 6ebe 4109 46be 40db 893c
00000140: 6a5c b2be ed5c a5be 6792 c7be d791 02bf
00000150: 7520 62be 62ac c7be b8ff 2bbf 8929 543e
00000160: cf4d 7e3e ba16 58be 791e e8bd b1ff be3d
00000170: 46f6 3c3e 409c 133f f8f2 d1be e8fc 963e
00000180: 7d84 29be b356 e23e 0e69 a63e de4d 25be
00000190: 16bc 70bd df77 32be b2df 833e e7ed e83d
000001a0: b920 8cbe 19a3 e33d 430b 9ebd 2db1 bcbe
000001b0: 6e77 33be 25b4 473e 1903 99be 16b5 32bd
000001c0: 9ce4 4b3e ecc8 cfbd 8b81 273e 3402 223d
000001d0: 7731 583e bf22 e93c 35d4 793d 5124 a5be
000001e0: 6f25 4b3e 7d55 febc ccb5 c3be 61bd 943e
000001f0: 7cde 443f 18fb 17bf 0e06 22be 47b4 1cbe
-0.19381388 -0.33847964 0.21140538 -0.15961841 0.0950031 0.1614432 -0.06407461 0.35239953
-0.23785771 -0.16998869 0.10944708 0.28355688 0.07826251 -0.20260243 -0.25810677 -0.06951697
0.48125917 0.07326392 0.12922525 -0.42759052 0.15976605 -0.21261519 -0.4542975 0.2548984
-0.46072745 -0.24040194 -0.03238718 0.34954563 -0.1560238 0.0851092 -0.016290449 0.016727915
-0.1654358 0.14803979 -0.014047135 0.61389834 -0.44618618 0.5596639 -0.25299007 0.02321586
-0.010604408 -0.03336561 0.30787265 0.019265063 0.26120788 -0.41707578 0.11245291 -0.20091358
0.08245504 -0.19688366 -0.070730485 0.20063551 0.21541062 -0.18900791 0.16858552 0.14019567
0.13146412 -0.20182124 -0.054855272 0.041449662 0.27347523 -0.13155654 0.037026547 -0.16199327
-0.01889786 0.2634113 0.0033617322 -0.4137357 -0.04513008 0.20780964 -0.16508627 -0.1273387
0.039383244 0.38045153 0.4972229 0.12063296 0.010587602 -0.23258634 -0.19339468 0.01682818
-0.3483613 -0.3229746 -0.38978884 -0.51003784 -0.22082694 -0.38998705 -0.6718707 0.2071897
0.24834369 -0.2110242 -0.11333937 0.09326113 0.18453321 0.57660294 -0.41005683 0.29489827
-0.16554447 0.4420677 0.32502025 -0.16142985 -0.058773123 -0.1742854 0.25756603 0.11373501
-0.27368715 0.11115093 -0.07716992 -0.36853924 -0.17526028 0.19502313 -0.29885176 -0.04362973
0.19911426 -0.10145745 0.1635801 0.039552882 0.2111262 0.028458951 0.060993392 -0.3225427
0.19838499 -0.031046623 -0.38224638 0.29050735 0.76901984 -0.59367514 -0.15822622 -0.15303145

features.8.running_var f4 [128]
00000000: c976 4d3e d620 833e f0ad 293e c838 573e
00000010: 1fda a73e d146 103e b147 4e3e cef3 533e
00000020: bb08 603e 1592 503e d98a 233e 6d85 043e
00000030: c076 b83d c2b1 2a3e 35d2 6a3e 6677 113e
00000040: 1cf5 1b3e ff18 313e 69ff 283e d2ee 743e
00000050: fda8 2d3e 00d4 0d3e f5fd 2a3e d78f 733e
00000060: b01d 3e3e b13d 383e 9941 a23d f598 283e
00000070: ae59 4a3e 9c77 1e3e d77e 2a3e 1220 473e
00000080: b0a9 4d3e b393 c73d e128 763e 65e1 2f3e
00000090: 25be a53d ce62 823e b4b3 963e 8e70 173e
000000a0: f941 963e cda7 4b3e 4b53 b03e 880e 5b3e
000000b0: 1bba 003e 0dd2 343e 9148 df3d 7e74 473e
000000c0: e7df 143e 727e 703e 82b4 3b3e a392 4f3e
000000d0: c497 0f3e 3e1d f93d f29f 893e 71c3 c73e
000000e0: 04d4 533e b8b3 dd3d a0d0 7b3e 392e 6a3e
000000f0: 1e6e cf3d 56f7 a53e 070f 263e 51c6 043e
00000100: 7831 573e 7f14 543e dad5 6d3e ea6c 383e
00000110: cbd1 3d3e 7b03 0e3e 8869 873e e8f0 323e
00000120: d260 1f3e ed95 8b3e ecd7 733e bdfe ab3e
00000130: c593 ab3d 425e 0a3e 8269 583e f656 6e3e
00000140: 9e70 6a3e 8113 1e3e 2409 5c3e 41f9 403e
00000150: 9535 8d3e 84fb 733e 4a95 603e 55b6 1b3e
00000160: 85a4 293e ac15 513e 932c d93d 72e8 053e
00000170: 2c99 583e 0ada 343e 91f5 093e 4aba da3d
00000180: b5ec 783e fa48 363e 5979 fe3d 1f91 633e
00000190: ffef 143e 7c38 013e 5208 233e 22ae cc3d
000001a0: c751 cc3d b87b 853e 3809 813e f3de 4b3e
000001b0: 3487 8b3e 0fb1 5c3e 3f6e 613e a2f9 153e
000001c0: 5461 323e 4377 913e 3abe 283e 674c 273e
000001d0: 265b 283e ba37 4f3e 7d42 9a3e f150 9e3e
000001e0: 8322 4c3e 51d8 8b3d 485a 493e 7e34 153e
000001f0: 3740 1d3e c6a4 803e b2a9 0a3e e7be 033e
0.20064844 0.2561099 0.16570258 0.21017754 0.327836 0.14089514 0.20144536 0.20698473
0.2187833 0.20368226 0.15970935 0.12941523 0.09007025 0.16669372 0.2293175 0.14205703
0.1523022 0.17294692 0.16503681 0.23919228 0.16958995 0.13850403 0.1669844 0.2378534
0.18566012 0.17992283 0.07922668 0.16464598 0.19760773 0.15475315 0.16649948 0.19445828
0.20084262 0.09744968 0.24039032 0.17175825 0.08092908 0.25466007 0.29433978 0.1478903
0.29347208 0.1988823 0.34438547 0.21392262 0.12570994 0.17658253 0.10902513 0.19478032
0.14538537 0.23485735 0.18330577 0.20270781 0.14022738 0.12163781 0.2687984 0.39016297
0.20686346 0.10825294 0.24591303 0.22869195 0.10128425 0.32415265 0.1621667 0.12966277
0.21014965 0.20710944 0.23226109 0.18010297 0.18537061 0.13868515 0.264477 0.17474711
0.15564278 0.27262822 0.23812836 0.33592787 0.08377794 0.13512519 0.21133998 0.2327536
0.22894523 0.15437128 0.21487862 0.18845083 0.27579942 0.23826414 0.2193195 0.15206273
0.16566665 0.20418423 0.10604205 0.13076952 0.2115218 0.176613 0.13472582 0.10680063
0.24309047 0.17801276 0.12425489 0.22223328 0.14544676 0.12619203 0.15921143 0.09994151
0.09976535 0.26070952 0.25202346 0.19909267 0.2725159 0.21551917 0.22014712 0.14646009
0.1741994 0.28411302 0.16478816 0.16337739 0.1644102 0.20236102 0.30128852 0.30921128
0.1993504 0.068283685 0.19663346 0.14570805 0.15356527 0.25125712 0.13541296 0.12865792

features.11.bias f4 [256]
00000000: 09d4 b8bd e35c 6ebd 4c86 023d bb32 88bd
00000010: 2149 b2bd bd68 7cbd 5aea afbd 821d 7b3d
00000020: a039 a0bd 3082 3dbd 942a 903d 8291 83bd
00000030: c158 45bc 4b55 34bd 39c4 763a 7de8 373d
00000040: 3823 263c c352 b1bd 3f9e 82bd 2ea8 aa3d
00000050: 231e c8bc f289 8b3d 904f 7c3d b935 153d
00000060: b400 533c c37d 6c3d bd80 91bd cf40 a4bd
00000070: dde4 50bd 1c6c a8bd ba86 25bb 85b7 a73d
00000080: 02f4 a53d 5e48 a73d 96ed a5bb d0e7 b8bd
00000090: 945c 30bd 32ac 37bd b820 4a3c 793b 3d3d
000000a0: b29c dcbc 80c7 b83c b255 8c3d 126d a93c
000000b0: f861 b23d ac15 7cbd 9bc8 083d 8f1b 98bc
000000c0: bca5 cfbc 55f4 943d 524f 443d 6935 95bd
000000d0: a944 6f3d 3b29 dabc 5d47 b13d 1a5f 6abd
000000e0: 55f0 963d 6dae af3c 1774 0ebd 0b8b b03c
000000f0: 108d 143d 54ad 50bd ceb0 87bd a2c3 d53c
00000100: 4a75 b4bc b382 5dbd 19dc 9fbd 09d8 51bd
00000110: b59b 2f3d 7c77 af3c ebf0 a7bd f2d0 94bd
00000120: f3a3 9cbd 9eae e93a 23b6 a2bd d479 7c3d
00000130: 5468 913d 58a9 453d b864 143d 2593 7fbd
00000140: 5b3d b03c 33f9 9fbd 0f8e f9bc a9f7 74bb
00000150: 1184 a539 bb44 ffbb 3cb6 07bc 72ec 163c
00000160: c181 433d f45d 14bd c602 803d 9861 94bd
00000170: 9056 0fbb cf37 7bbd 8d2c a0bd db3e fc3c
00000180: aa2f c43c af3f 03bd 59f4 9cbd dc61 4fbc
00000190: a7a1 a53d dc76 82bd f79a ecbc 4754 703d
000001a0: 791b 8fbd 11bf ebbc d774 d93b 30e5 943d
000001b0: 7858 373d 197c 52bc 2b93 85bd 441d 30ba
000001c0: f01b 073d 7ba5 14bd 194e 52bd 1a69 cd39
000001d0: 2b99 4c3d 9be2 a43d 65d7 043d ecc0 633b
000001e0: 8c9a 14bd b6fb ed3c e8bb 3ebd d760 363d
000001f0: 9e35 393d 85ff af3c 2816 733c a665 873d
00000200: 5f4d bb3c d264 58bd 9ffa 1d3d f1d2 85bd
00000210: 97f7 08bd 6d06 583d 7225 943d 877e 37bd
00000220: 9da1 a6bd a118 b9bd 4bb3 fbbc 55ca 79bd
00000230: 3c98 5fba 3a17 693d 6919 413d abc1 a73d
00000240: aadc 64bd ace4 adbd aaec 6f3c 321b 5ebd
00000250: b806 5fbd 1bd6 103c 3467 acbd 1d8a f03c
00000260: 561a 5ebb 936f 793d 8adc 523d 9bbf d93c
00000270: 9c10 b73d 3301 c8bc 5161 bb3c 7c0e 89bd
00000280: a45a 0a3d b478 87bd d45a 743a 0c10 b63d
00000290: a978 ab3d 546b 7ebd ed53 a1bd b9ed 94bd
000002a0: 7aee 07bb eda3 283d 2587 3f3d 7df4 833d
000002b0: 4546 663c c1b9 19bd e6e1 b63c dec3 1f3d
000002c0: e505 a8bd a142 a63d 2bca 83ba 69b3 273c
000002d0: 7678 91bd e5f9 acbd 9eee 85bd 98b7 93bc
000002e0: 8964 aa3d 8b1a 9fbd 9bd2 afbc 7085 afbc
000002f0: bb0d 82bd 3abd 443d 3756 7d3c 7885 a93d
00000300: d16d 1cbd e312 43bd e591 97bd d264 083d
00000310: c9d5 973c 5861 12bb 2ed7 913d f575 37bd
00000320: e7c1 3bbd e17b a8bd 21fa c1bc b804 0abd
00000330: 861f 39bb 673f b0bc e112 543d ab91 6f3d
00000340: 9d92 73bd e0a8 613d 0979 4abd d93a 353c
00000350: 9d9d 29bb 4299 48bc 0c4e 89bc 385b 513d
00000360: d122 b5bd 708c 493d ee59 81bd a7d5 3bbd
00000370: e029 fabc 7133 1e3d 22ab 1a3d c308 2c3d
00000380: 27f6 7fbd 6ab6 673d 7528 03bd a88c a0bd
00000390: 9fa8 603d 5d59 933d b55e 713c 31e3 84bd
000003a0: 176a 993b 1dfc e6bc f4d1 f13c 2afa 663d
000003b0: 62c8 b23c 4691 8c3c ccf0 3abd ce70 a83d
000003c0: 2769 e9bc 09ad 4b3d ca65 813d e36d 503d
000003d0: 602c 8cbd 7952 96bc a656 933d b77b 58bd
000003e0: c48e cebb 226f 13ba 69d8 1abd 48be 4e3d
000003f0: 4644 893d fd3d a73d 98f7 46bd 1f17 20bd
-0.090248175 -0.058194052 0.031866357 -0.06650301 -0.087053545 -0.061623324 -0.08589621 0.061307438
-0.07823491 -0.046266735 0.07039371 -0.06424238 -0.012045086 -0.044026654 0.0009413395 0.044899452
0.010140233 -0.08658364 -0.06377839 0.08332859 -0.024428433 0.0681342 0.061599314 0.036428187
0.012878586 0.057737123 -0.07104633 -0.08020174 -0.05099951 -0.08223745 -0.0025257305 0.081893004
0.081031814 0.081681 -0.005063723 -0.0902859 -0.04305704 -0.044841953 0.012336902 0.046199296
-0.026930187 0.022556067 0.068522826 0.020681892 0.08710092 -0.061544105 0.033394437 -0.018567828
-0.025347583 0.07273165 0.04792721 -0.07285578 0.05841509 -0.026630988 0.086561896 -0.057219602
0.073700584 0.021445477 -0.03477868 0.021550676 0.03626734 -0.05094655 -0.0662552 0.026094262
-0.022028584 -0.054079723 -0.07805652 -0.051231418 0.042873103 0.02141928 -0.08200248 -0.07266416
-0.07648458 0.0017828529 -0.07944896 0.06163962 0.07099977 0.048257202 0.036228865 -0.062396187
0.021513632 -0.07811203 -0.030463247 -0.0037379062 0.0003156965 -0.0077901757 -0.008283194 0.009211646
0.047731165 -0.036222413 0.06250529 -0.07245177 -0.0021871664 -0.06133252 -0.078209974 0.03079169
0.02394851 -0.032043155 -0.07663793 -0.012657609 0.08087473 -0.06370327 -0.028882487 0.058674123
-0.06987662 -0.028777631 0.006636243 0.072702765 0.044762105 -0.01284697 -0.06522211 -0.0006718228
0.032985628 -0.036290627 -0.05134401 0.00039178954 0.04995076 0.08051034 0.03243198 0.0034752442
-0.0362802 0.02905069 -0.04656592 0.044525947 0.04521715 0.021484146 0.014836825 0.06611185
0.022864042 -0.052830525 0.03856909 -0.065343745 -0.033439245 0.052740503 0.072337046 -0.0447984
-0.08136294 -0.09037901 -0.030725142 -0.060983974 -0.00085294596 0.056906916 0.047143374 0.08191236
-0.055874504 -0.08490881 0.014643827 -0.054225154 -0.054449767 0.008840109 -0.08418122 0.029362733
-0.003389021 0.06089742 0.051479854 0.026580622 0.08938715 -0.024414634 0.022873553 -0.06692216
0.033777848 -0.06614819 0.0009321396 0.088897794 0.083726235 -0.062114075 -0.07877336 -0.072719045
-0.0020741508 0.041171957 0.046759743 0.06443117 0.0140548395 -0.037530664 0.022324514 0.039005153
-0.08204249 0.08118177 -0.0010054758 0.010235646 -0.07103054 -0.08446101 -0.06539653 -0.01803188
0.08319957 -0.077687345 -0.02146273 -0.021425933 -0.06350275 0.048032023 0.01546245 0.0827741
-0.038190667 -0.047625434 -0.07400874 0.033299275 0.018534558 -0.0022335853 0.071211204 -0.044790227
-0.045839217 -0.08226753 -0.023678841 -0.033695906 -0.002824755 -0.021514608 0.051775817 0.05848853
-0.059465993 0.055092692 -0.049431834 0.011061394 -0.0025881298 -0.012243571 -0.016760848 0.051112384
-0.08844531 0.049206197 -0.06315981 -0.04585805 -0.030537546 0.038623277 0.03776086 0.042000543
-0.06249061 0.056570448 -0.032021005 -0.07839328 0.05484831 0.07194779 0.014732053 -0.06488646
0.0046818363 -0.028196389 0.029519059 0.05639092 0.021824066 0.017159116 -0.045639798 0.08224641
-0.028492523 0.049725566 0.06318243 0.050886046 -0.06844401 -0.018349873 0.07194261 -0.05285236
-0.00630364 -0.0005624165 -0.03780404 0.050474435 0.06702475 0.0816612 -0.048575968 -0.03908455

features.12.weight f4 [256]
00000000: 193d 813f d5e8 803f 742f 7c3f 33a7 7f3f
00000010: 81bb 803f 236a 803f fa5c 7d3f fde5 7c3f
00000020: 9c0e 803f bd12 803f fd6c 803f e6ca 7f3f
00000030: bbc3 7f3f fdb7 803f fc64 803f 8675 7e3f
00000040: 5293 803f a3ea 7e3f a63d 7e3f 71d0 7f3f
00000050: 40af 7f3f f395 7f3f 1ad4 7f3f 0b23 813f
00000060: 46d7 7e3f 8dc7 803f d36e 7e3f 403c 7f3f
00000070: 7087 813f ffca 7e3f 9ef4 7e3f 223e 7e3f
00000080: e7c6 803f 723a 813f e496 7f3f d682 7e3f
00000090: 7b40 7f3f ef77 7f3f 8f49 7f3f 9535 813f
000000a0: 8241 7e3f fc14 7e3f a760 803f b858 7e3f
000000b0: 96cc 813f e113 7f3f c51b 813f 222a 7d3f
000000c0: cf51 803f efd3 803f 7f36 813f 9e40 813f
000000d0: b48d 7e3f 4057 813f b4e9 7d3f af91 7f3f
000000e0: 1e25 7e3f ba05 7d3f 8d99 7c3f ab76 823f
000000f0: ba3f 7d3f c575 803f 215a 7f3f 5c37 813f
00000100: 6945 7d3f 9ff5 803f 79aa 7e3f c1b7 813f
00000110: 0748 7c3f 1b77 803f 4a83 803f c06c 7f3f
00000120: 47da 7e3f 64bc 813f 9d5b 803f 1cde 7f3f
00000130: 46fd 7f3f 037e 813f 5768 803f 6b7c 7e3f
00000140: cc12 803f 9766 803f 81a0 803f 0983 7f3f
00000150: 9260 7d3f 3013 813f 7405 813f 3e26 803f
00000160: 421c 803f e9e2 7f3f a8c0 7e3f 17ff 7e3f
00000170: c0c8 7d3f 2fa9 7f3f e2f8 7f3f 4374 803f
00000180: b15b 803f 8224 7f3f 8744 803f 4a22 803f
00000190: d073 813f dcd8 7e3f 43be 7f3f 1c6f 7f3f
000001a0: 093e 7f3f a7c2 7f3f 4c05 813f 3a15 803f
000001b0: 0b4b 803f 7880 813f 08be 803f f6c1 803f
000001c0: e5c4 803f 9e00 7e3f 346c 803f 2bb7 803f
000001d0: 613c 803f 8b02 7e3f cfd7 7d3f 8a29 813f
000001e0: 2179 803f 81ed 7d3f a82e 813f 0651 7f3f
000001f0: 84e1 7f3f 014a 803f 748b 7e3f ad67 7d3f
00000200: f518 823f ee05 813f 271f 7f3f 72ac 803f
00000210: 5526 803f 1fcc 7e3f 0c8a 7e3f 2edb 7f3f
00000220: 3688 7f3f 6694 7e3f 67bd 803f d834 7f3f
00000230: 4162 803f 4e27 803f 5f19 7f3f 9358 813f
00000240: 7fd9 7e3f 2901 7d3f c6b5 7f3f 9168 7c3f
00000250: c25e 803f 7adb 7f3f 6c88 803f b2a0 803f
00000260: aeb6 7f3f b897 7e3f e31f 813f 2dc6 7f3f
00000270: 3014 803f ea4d 803f 502b 803f 440a 803f
00000280: ff3c 803f cd69 803f da68 7e3f 7966 7f3f
00000290: b2a1 803f 6c09 803f 7dd2 813f 8faf 803f
000002a0: 4175 7d3f 4bde 7e3f b7a9 803f c0fe 7d3f
000002b0: a6e4 7c3f 7ac6 7f3f 1fb1 7f3f a95b 7e3f
000002c0: 79c2 7f3f 0933 7d3f e3a5 813f 5200 803f
000002d0: c911 813f 515d 813f 42c2 7e3f 2ef1 7f3f
000002e0: 04da 7f3f d089 803f 1a05 803f 3781 813f
000002f0: 4e64 803f 9e7d 7d3f 387a 7f3f 97ea 7d3f
00000300: 47ff 803f 6945 813f 7665 7f3f 1668 7c3f
00000310: bf2a 803f e4a8 803f f738 7f3f 8f18 7e3f
00000320: a015 7f3f 7b69 7d3f a04d 7f3f eee1 803f
00000330: fd76 7c3f 90b9 7d3f 8494 7f3f 3575 803f
00000340: c5ee 813f f2ad 7f3f 8d4a 7e3f 2d72 803f
00000350: 0bac 7d3f fb4a 813f 6e72 7e3f c12e 803f
00000360: d9a1 7f3f eadf 7d3f c53c 7d3f 1bf7 803f
00000370: c0b3 7d3f 86c1 803f 211e 7f3f 948d 803f
00000380: c302 803f 5b0a 813f e4ad 7f3f ee8e 803f
00000390: dc84 813f 802d 7d3f 7d52 813f de7e 7f3f
000003a0: 81c7 7f3f df4a 813f bd49 813f e237 7d3f
000003b0: d736 803f dcb1 803f 2ea6 7f3f deb3 7f3f
000003c0: 1403 803f bb7b 803f 23f5 7e3f 67e0 7c3f
000003d0: e0d3 7f3f 3c1b 7d3f c5a3 7e3f e3a6 7e3f
000003e0: 91ee 7e3f 41a6 803f b10a 7f3f e6c7 803f
000003f0: 9aec 7f3f 9235 7e3f ee01 7f3f 68f4 7d3f
1.009677 1.0071055 0.9850991 0.998645 1.0057222 1.003239 0.98969996 0.98788434
1.0004458 1.0005718 1.003326 0.99918973 0.99908036 1.0056149 1.0030818 0.99398077
1.0044959 0.9957678 0.9931282 0.9992743 0.99876785 0.9983818 0.99933016 1.0088819
0.9954723 1.0060898 0.99387854 0.9970131 1.0119457 0.995285 0.99592006 0.9931356
1.00607 1.0095961 0.99839616 0.9941839 0.99707764 0.9979238 0.99721617 1.0094477
0.99318707 0.9925077 1.0029496 0.99354124 1.014056 0.9963971 1.00866 0.98892415
1.0024966 1.0064677 1.0094756 1.0097845 0.9943497 1.0104752 0.9918473 0.9983167
0.99275386 0.98836863 0.986718 1.0192465 0.98925364 1.003594 0.997469 1.0095019
0.98934036 1.0074958 0.9947887 1.0134202 0.98547405 1.0036348 1.0040066 0.99775314
0.99551815 1.0135617 1.0027958 0.99948287 0.9999584 1.0116581 1.0031842 0.99408597
1.0005736 1.0031308 1.0048982 0.9980932 0.9897548 1.008398 1.0079789 1.001167
1.0008624 0.9995561 0.9951272 0.99607986 0.99134445 0.9986753 0.9998914 1.003548
1.0027982 0.9966508 1.0020913 1.0010464 1.0113468 0.9954965 0.9989969 0.99778914
0.99704033 0.9990639 1.0079741 1.0006478 1.0022901 1.011733 1.0057993 1.0059192
1.0060087 0.9921969 1.0033021 1.0055898 1.0018426 0.9922263 0.9915742 1.0090802
1.0036966 0.9919053 1.0092363 0.99733007 0.99953485 1.0022584 0.9943154 0.9898632
1.0163866 1.0079935 0.9965691 1.0052626 1.0011698 0.99530214 0.9942939 0.99943817
0.99817216 0.9944519 1.0057801 0.9969001 1.0029985 1.0011995 0.9964809 1.0105156
0.9955062 0.98829895 0.9988674 0.98597056 1.0028918 0.9994427 1.0041633 1.004904
0.9988812 0.99450254 1.0087856 0.9991177 1.0006161 1.0023777 1.0013218 1.0003133
1.0018615 1.0032288 0.9937874 0.99765736 1.0049345 1.0002875 1.0142361 1.0053576
0.9900704 0.9955794 1.0051793 0.9921684 0.9878639 0.99912226 0.9987964 0.9935861
0.99906117 0.98906 1.012875 1.0000098 1.0083553 1.0106603 0.99515164 0.99977386
0.9994204 1.0042057 1.0001557 1.0117558 1.003061 0.990198 0.99795866 0.9918608
1.0077904 1.0099307 0.9976419 0.9859632 1.0013045 1.0051541 0.99696296 0.99256223
0.9964237 0.98989075 0.9972782 1.0068948 0.9861906 0.9911127 0.9983599 1.0035769
1.0150992 0.99874794 0.99332505 1.0034844 0.9909064 1.0101007 0.99393356 1.0014268
0.99856335 0.9916979 0.9892085 1.0075411 0.991024 1.0059059 0.9965535 1.0043206
1.0000843 1.0081285 0.9987471 1.0043619 1.011867 0.9889755 1.0103298 0.9980296
0.99913794 1.0100974 1.0100628 0.98913395 1.0016736 1.0054278 0.99862945 0.9988383
1.0000939 1.003776 0.995928 0.9877991 0.9993267 0.9886968 0.9946864 0.994734
0.99582773 1.0050737 0.9962569 1.0061004 0.999704 0.9930049 0.9961232 0.9920106

features.12.bias f4 [256]
00000000: 5dfa 0f3c 3ffa 943b c2c2 1fbc 491c 88ba
00000010: ea60 54bb 8ea4 64ba 1d27 1dbc 847b c6bb
00000020: aea5 8a3b a6a3 f13a 625e cdba 3018 9c39
00000030: aac4 a23a 5171 023a ca5f f439 3955 8ebb
00000040: 5a1d 403b 2a14 47bb 0e40 beba 97b8 3a3b
00000050: d9a2 c2bb 8c6c b1bb b668 f73a 4bd3 5e3b
00000060: 8819 b1bb 4ea2 c63b 0bf1 08bc edf0 38bb
00000070: f339 1d3c 0f08 98ba 1bce 873b f541 b7bb
00000080: 33df 3e3b 21ee 193c 08e5 c6bb 11c4 233a
00000090: c9db c1ba c943 e2ba a535 9738 08b8 303b
000000a0: f3df 32bb 7131 05bc 10e6 3bbb b276 0bbb
000000b0: 8aa1 4e3c 76fe 0bbc b5c3 f73b 60a8 24bc
000000c0: d256 993b a3e3 703b e050 383c 967c 473c
000000d0: fc13 dbba 77a8 c43b dea9 1bbc 5d18 c7ba
000000e0: 6cf2 d3ba 7945 f0bb de4a 21bc 5990 673c
000000f0: 3158 44bc ddfc a73b aff5 81bb efe7 353c
00000100: 157b 1fbc c049 b03b 40d7 83bb b443 073c
00000110: 1286 11bc 59be 083c 0e89 983b 180b 88bb
00000120: 7953 d1bb dc9a 593c 4b44 7a3b cb99 6aba
00000130: 056a e03a 1053 3b3c 5c70 703b 5170 d2bb
00000140: d25b 883a 9238 ac3b 12d0 193b 9bb2 2cba
00000150: e665 2fbc be79 403c 7e77 103c 3810 3b3b
00000160: f809 fb39 1fd1 023a 935f d7bb 6d0f 82bb
00000170: 03e9 bcbb ef57 f8ba 5ed2 9439 4618 c33b
00000180: b24a 79ba ecaa 08bc ff36 e139 651e 7d3a
00000190: e686 2b3c df2a 18bc d2cf 56bb 21f9 f6ba
000001a0: c3f6 c7bb 87d9 cf3a 36ea 30bb 366a c73a
000001b0: c721 a3bb bc1b 643c 42a1 073c 6fe1 af3b
000001c0: 1473 0b3c 4104 c0bb 06ac 623b bdea 263c
000001d0: ebc8 513a f77d f4bb 359c 5ebb d192 f33b
000001e0: 89c8 703a ba8c f2bb 416e 103c 55c4 2fbb
000001f0: 77d1 4bbb 33c7 403c b4c6 f4bb 9300 23bc
00000200: 550f 8e3c 0868 0d3c 8af5 d63b 207e 033c
00000210: 4e8f a03b 5eb0 abbb 6f84 0cbc f68e 953b
00000220: 2256 0abb cc58 b9bb 5a38 923a 3b6a 63bb
00000230: 09d5 123b cfb7 f5ba 6ce0 fbbb 2778 2a3c
00000240: 13c4 bebb 4430 a9bb 360e f2ba 27ed 65bc
00000250: 9d95 ed3b 3336 daba a753 a23b 8c69 ff3b
00000260: e749 62ba 4149 4bbb 7cf8 ee3b bb9a ea3a
00000270: deb0 9c3b 9cd6 223c ed0c 2a3b 34ea 353c
00000280: c3d3 783a f2a2 a13b 28aa 1fbc 775a 893a
00000290: 34d6 723b 1ce0 3239 6a11 0b3c ab9f e33b
000002a0: 94f0 28bc b94c 85bb dde7 703b 3d8a 9abc
000002b0: a9ea 00bc 41f9 e63a e23c cabb 31bb 7dbb
000002c0: 194a 88bb 29ca 1abc 3fbe 193c 5c7a b33a
000002d0: a196 6f3b cfbf 143c ce82 123b 45f8 a83a
000002e0: 9dc3 3fbb 6703 7a3b a8f1 ff3a 44c1 463c
000002f0: 5840 c53b 8d2a 1bbc 0152 cd3a 3de2 d03a
00000300: f0d7 4a3b 9b62 d03b 4175 64bb 3590 7bbc
00000310: 4928 43bb e18b aeb9 a63d 5739 7160 a9bb
00000320: 3a15 0abc c222 21bc 4cb1 c53a 41f4 d13a
00000330: bf6b ecbb 6526 bdbb ed6d d3bb d1ba 9e3b
00000340: 86a4 4c3c 7308 3ebb 1b14 c2bb 2c5d f93b
00000350: 5f8e 24bc 345b 253c 189a cbbb 71dd 5a3b
00000360: 4833 6c3a 8522 c8bb 61ce 57bc b0bb 083c
00000370: 57ea 0cbc 1596 0a3c 5a7c 1ebb 53c3 e63b
00000380: 0289 f73b 28d2 f23b 8f99 b3bb 4675 263b
00000390: f262 383c 36b0 ddbb a78e 2e3c ed88 1c3a
000003a0: 5043 c3ba f0bd 543b e216 1f3c a140 23bc
000003b0: 87a9 a139 7a10 cf3b 9ac8 ceb9 9326 733a
000003c0: 46e3 29bb 5623 b23b 4518 1bbc 861a dabb
000003d0: 1073 153b f81c 3cbc a586 c1bb 0548 e6bb
000003e0: da90 fabb ad5f 8b3b f523 1ebb 7e39 e33b
000003f0: 85d0 0a3c 2d65 4bbb e35c 63bb 775e d1bb
0.008787719 0.004546433 -0.009751024 -0.0010384406 -0.0032406398 -0.00087220303 -0.009591845 -0.0060572047
0.0042311763 0.0018435612 -0.0015668387 0.0002977266 0.001241823 0.0004975992 0.00046610675 -0.0043436554
0.002931437 -0.003037701 -0.0014514939 0.0028491372 -0.005939823 -0.005414551 0.0018875811 0.0034000452
-0.005404655 0.0060618287 -0.00835825 -0.0028219775 0.009596336 -0.0011599081 0.0041444427 -0.0055925795
0.0029124736 0.009395153 -0.006069783 0.0006247173 -0.0014790233 -0.0017262633 7.210233e-05 0.002696516
-0.0027294129 -0.0081294635 -0.0028671063 -0.0021280465 0.012611756 -0.008544555 0.007561172 -0.010049909
0.0046795392 0.0036756776 0.011249751 0.0121757 -0.001671433 0.006001528 -0.009500949 -0.0015189756
-0.001617027 -0.0073325005 -0.00984451 0.014133536 -0.011983917 0.005126579 -0.0039660553 0.011102661
-0.009733935 0.0053798854 -0.0040234625 0.008255888 -0.0088820625 0.008346164 0.00465501 -0.004151713
-0.0063881245 0.01328155 0.0038187678 -0.00089493085 0.001712144 0.011433378 0.0036688065 -0.0064220806
0.0010403341 0.005255767 0.0023469967 -0.00065878936 -0.010705447 0.011747776 0.008817552 0.0028543603
0.00047881878 0.0004990268 -0.0065726726 -0.003969124 -0.005765082 -0.0018947105 0.00028385496 0.0059538214
-0.00095097267 -0.008341532 0.0004295632 0.0009655713 0.010469174 -0.009287565 -0.003277768 -0.0018842557
-0.0061024143 0.0015857675 -0.002699507 0.0015214148 -0.004978392 0.013922628 0.008278193 0.00536745
0.0085113235 -0.005859882 0.0034587397 0.010187802 0.00080026564 -0.0074613052 -0.0033967618 0.0074332734
0.00091851555 -0.00740203 0.008815349 -0.0026819904 -0.0031100193 0.011766243 -0.0074699763 -0.009948867
0.017341295 0.00863076 0.0065600323 0.008025676 0.0048998957 -0.0052395305 -0.0085764965 0.0045641614
-0.0021108468 -0.0056563374 0.001115571 -0.003470077 0.002240481 -0.0018746796 -0.0076866653 0.010404623
-0.0058217137 -0.0051632244 -0.001846737 -0.014033592 0.0072505013 -0.0016648233 0.00495382 0.0077945646
-0.0008632228 -0.0031019005 0.0072928052 0.0017898896 0.0047818264 0.009938862 0.0025947646 0.011103202
0.0009492004 0.0049327547 -0.009745158 0.0010479231 0.0037053945 0.0001705889 0.008488039 0.006946524
-0.010311265 -0.004067984 0.0036759295 -0.018864745 -0.007868447 0.0017621891 -0.0061718086 -0.003871631
-0.0041592238 -0.009447613 0.009383737 0.0013693082 0.0036558288 0.009078934 0.0022355798 0.0012891373
-0.0029260882 0.0038149 0.0019526975 0.012131039 0.0060196333 -0.009470594 0.0015664698 0.0015936565
0.0030951463 0.006359411 -0.0034859928 -0.015354206 -0.002977865 -0.00033292084 0.00020526964 -0.0051689674
-0.008427912 -0.009834947 0.0015082746 0.0016018228 -0.007214993 -0.0057723993 -0.006452313 0.0048440476
0.012490397 -0.0028996735 -0.005922807 0.007609984 -0.01004371 0.010092545 -0.0062134378 0.003339615
0.0009010327 -0.0061076307 -0.013171763 0.008345529 -0.008600793 0.008458634 -0.0024183006 0.0070423274
0.0075541744 0.0074103065 -0.005480952 0.002539949 0.011254059 -0.0067653907 0.010654128 0.0005971331
-0.001489738 0.0032461844 0.0097100455 -0.009964139 0.0003083462 0.006319103 -0.00039440842 0.00092754624
-0.002592282 0.0054363413 -0.0094662355 -0.006655994 0.0022804178 -0.011481516 -0.0059059435 -0.0070276284
-0.007646662 0.004253349 -0.0024130319 0.006934344 0.0084725665 -0.0031035647 -0.0034692816 -0.006389435
