app/src/main/assets/stance_int8.onnx (onnx, 115556 bytes, 38 tensors)

features.0.bias f4 [32]
00000000: ac0a 02bd 899d be3d 8717 3abe 028b 13be
00000010: fad4 ac3d a1e7 76bd b96e e7bc 6bf7 363e
00000020: 0062 833b b98d b2bd df94 e73d 7476 b43d
00000030: b712 0bbe 7ef4 b9b9 7943 cabc 8a2f 12be
00000040: dea4 ccbd bc6c 133e 13dc f2bd 02a1 343e
00000050: 5834 033d a5a4 dd3d 98ce 133e 4de2 2b3d
00000060: 5a21 893d 7cc4 0f3e 24b7 debd 0c87 373e
00000070: 85bf 033e 89b0 35be fe0b 623d 23d8 8ebd
-0.03174846 0.09307391 -0.18173037 -0.14408496 0.084390596 -0.060279492 -0.028251039 0.1786782
0.0040094852 -0.08718438 0.11307692 0.08811656 -0.13581358 -0.0003546811 -0.024690377 -0.14275947
-0.099923834 0.14396948 -0.11858382 0.17639545 0.03203234 0.10822419 0.14434278 0.041963864
0.066958144 0.14039797 -0.10874775 0.1792261 0.12866028 -0.17743124 0.055187218 -0.069748186

features.1.weight f4 [32]
00000000: 3fb1 803f 5d13 803f 173e 7e3f e2a4 7e3f
00000010: d2d7 7d3f 9687 7d3f ec43 7b3f 9111 813f
00000020: 6b35 7e3f 25cd 7e3f 3c84 7f3f 686d 823f
00000030: d093 803f b4db 7f3f a38d 7c3f 26f8 7f3f
00000040: 6dd4 813f 7b6e 7d3f 86de 813f d732 7e3f
00000050: 9fc0 803f 7b5f 813f 95de 803f 244c 813f
00000060: 5d9d 813f edbc 7c3f 5469 813f b933 7c3f
00000070: 5969 7f3f eb9e 803f 8124 813f 5c1d 7e3f
1.0054091 1.0005909 0.9931349 0.9947034 0.9915744 0.9903501 0.98150516 1.0083486
0.9930026 0.99531776 0.9981115 1.0189638 1.0045109 0.99944615 0.9865362 0.9998802
1.0142952 0.98996705 1.0146034 0.99296325 1.0058783 1.0107263 1.0067927 1.0101361
1.0126148 0.9872578 1.0110269 0.9851642 0.9977012 1.0048498 1.0089265 0.9926355

features.1.bias f4 [32]
00000000: cbbe c73b 3707 753c ae87 1a3c a9b6 5e3b
00000010: 318a aebb 9ac7 1a3b 0f2d 8cbc cb16 633c
00000020: 96fd 65bc 65d9 26bc 21bd 803c e359 893c
00000030: 15a0 d8bb accc 5dbb ae60 9c38 c9ae 00bb
00000040: 8317 d139 3188 8abc c329 4c3c d72d 303b
00000050: 3bed 9c3c f3ad bb3c 0001 dc3c 207d 8c3b
00000060: ded4 783c 00f8 3dbc 87ca e93b 4f71 41bc
00000070: 6b1a cc3b 5d90 d3bb 713f 0c3c c3c3 afbb
0.0060957423 0.014955333 0.009431763 0.0033983386 -0.0053265323 0.0023617507 -0.01711133 0.013860415
-0.01403751 -0.010183667 0.015715184 0.016766494 -0.00661088 -0.0033843918 7.456668e-05 -0.001963543
0.00039881104 -0.016910644 0.012461129 0.0026882791 0.019156089 0.022910094 0.026855946 0.004287377
0.01518747 -0.011594772 0.007134739 -0.0118068 0.006228735 -0.0064564184 0.0085600475 -0.005363913

features.1.running_mean f4 [32]
00000000: 495d 803e f349 2dbf 538f a53e 5ec9 4a3e
00000010: 6b0d 70bf 1156 df3c 1ff9 97be 2876 493e
00000020: ce69 10bf 8c77 34bf a876 4ebc 6ee8 57bf
00000030: 8c45 693c dbd5 32bf 71f3 563d e4af dcbe
00000040: 850a 29be 2c2d 63be 78b7 e2bd 0cfd 613f
00000050: 2b6a 7fbe 8e2a adbd e01b 713f 93d0 93bc
00000060: ef2d ad3e d205 0b3d 9308 d83e 9a0d 4b3f
00000070: a53e 1f3f 503b 9d3e ed0f 5ebf d691 153f
0.2507117 -0.6769096 0.3233591 0.19803378 -0.93770474 0.02726272 -0.29682252 0.1967398
-0.56411445 -0.70494914 -0.012601532 -0.84339035 0.014237773 -0.6985757 0.052478258 -0.43102944
-0.16507919 -0.221852 -0.1107015 0.88276744 -0.24942844 -0.08455382 0.9418316 -0.018043792
0.33824107 0.033941098 0.42194042 0.7931763 0.6220496 0.30709314 -0.8674305 0.58425653

features.1.running_var f4 [32]
00000000: 285f 863c 0487 b83c 3d7c 8c3c eae2 9e3c
00000010: d9f1 d53c 6c55 863c 40a1 503c df6f 503d
00000020: 16a9 f03b 1ebd f03c fcdf 2a3c 4b49 5a3c
00000030: f5df 8d3c 36ec 3b3c 6ce6 513c ab53 033c
00000040: 02da 603c 3880 093d 5fcf 763c 5ce4 023d
00000050: d0bb af3c beca a23c bb02 393c 9486 a23d
00000060: 4c43 9f3c d537 a83b e7fb 5d3c cbcf 203c
00000070: f51d 1c3d 23db 3b3d 18cf d43c 9d5e 653c
0.016402796 0.022525318 0.017149085 0.01939531 0.026116299 0.016398154 0.0127337575 0.05088794
0.0073443754 0.029387053 0.010429379 0.0133231385 0.017318705 0.011469891 0.0128112845 0.0080155535
0.013723852 0.033569545 0.01506409 0.03195606 0.02145186 0.019872066 0.011292155 0.07935825
0.01944127 0.005133609 0.013548828 0.009815167 0.038114507 0.045863282 0.025977656 0.013999608

features.3.bias f4 [64]
00000000: 1ffe 79bd c62d eabc 31a2 0e3e 7374 a03d
00000010: 7521 233e eb66 483c 2334 203e 384a 26be
00000020: 8e74 b0bc 5f34 183e ab97 fc3d d5ee dc3d
00000030: 3ff3 26be 0fe6 d2bc d415 ad3c ce96 c0bd
00000040: ecdc 08be f816 253e cacb 643d 3c49 f8bd
00000050: 28ef e2bd 40f0 e4bd afb2 16be b42d cb3d
00000060: effa f83d 1dbe c9bd 2074 253e 7b7d 55bc
00000070: b218 0d3e ebf7 ea3d a9b7 b2bd 13ed 533d
00000080: 5243 92bd 2966 ec3d 098b 683d 4f68 c8ba
00000090: 1e65 853c 4850 edbd e5bf a3bd 71c3 833d
000000a0: ec28 0e3e dad4 02be 4ef4 5f3d 5331 e93c
000000b0: d033 06be f528 c5bc fa78 98bd 42ab 473c
000000c0: 47ae 09be a6b1 ecbd c04b afbd 9608 28be
000000d0: d389 ccbd 0e52 323e 4557 a9bd 6663 2fbe
000000e0: e87c bcbd 9190 8fbd 9511 e8bd efc3 f73d
000000f0: 3986 17bc 7771 933d c7e5 80bd c6d8 7f3d
-0.061033364 -0.02858628 0.13929059 0.07834711 0.15930732 0.012231569 0.15644889 -0.1623925
-0.021539953 0.14863728 0.12333616 0.10787741 -0.16303729 -0.025744466 0.021128573 -0.09403764
-0.13365525 0.16122043 0.05585841 -0.12123343 -0.11080772 -0.111786366 -0.147166 0.099208266
0.12157237 -0.09850714 0.1615758 -0.013030405 0.13778952 0.11473068 -0.08726437 0.051739763
-0.071417466 0.11542923 0.05677322 -0.0015289875 0.016283568 -0.11587578 -0.07995585 0.06433762
0.13882798 -0.12776509 0.054676346 0.028465902 -0.13105702 -0.024067381 -0.074449494 0.012186827
-0.13445388 -0.11557321 -0.0855937 -0.16409525 -0.099872254 0.17414114 -0.082685985 -0.17127761
-0.092035115 -0.07009996 -0.113314785 0.12097918 -0.00924831 0.07199376 -0.062938266 0.06246259

features.4.weight f4 [64]
00000000: 1bbd 7f3f 63fd 7e3f 8fd0 803f 7da5 803f
00000010: fbc8 7c3f 0ac3 803f 4f23 803f a1c7 803f
00000020: 43a9 803f 64a8 813f cf06 803f 35e8 813f
00000030: 266b 7e3f b9a4 813f fe04 823f 0233 813f
00000040: 7e7c 7f3f fc78 813f 6a99 7f3f b491 7b3f
00000050: 78e9 803f 065d 7c3f 9a8c 7d3f c4c9 7b3f
00000060: 57d0 7f3f 6416 803f ddec 7f3f 609a 813f
00000070: ba2b 803f d3e9 803f 2050 813f 2e3d 7d3f
00000080: 8ea5 7d3f 2835 813f 9121 803f 42ab 7e3f
00000090: 126f 7e3f 85dc 803f f35b 7d3f 0143 823f
000000a0: a506 7e3f 86ae 7e3f 71bf 7c3f bc46 803f
000000b0: 633f 7c3f 34ad 7d3f 354a 803f 8643 803f
000000c0: f842 7d3f ba15 7e3f 1351 803f 8b12 823f
000000d0: 359f 7e3f fff0 7a3f 328c 833f a561 813f
000000e0: 39eb 7d3f 862e 7f3f 6219 803f e83e 803f
000000f0: 0297 793f 44e2 7e3f 43ae 7f3f 0c63 803f
0.9989793 0.9960539 1.0063647 1.0050503 0.9874417 1.0059521 1.0010775 1.0060922
1.0051655 1.0129514 1.0002078 1.0148989 0.99382246 1.0128394 1.0157773 1.0093691
0.99799335 1.0115047 0.99843466 0.982692 1.0071249 0.9857944 0.99042666 0.98354745
0.99927276 1.0006833 0.999708 1.0125237 1.0013344 1.0071357 1.0102577 0.9892148
0.9908074 1.0094347 1.0010244 0.9948007 0.9938823 1.0067297 0.9896843 1.0176698
0.9922889 0.9948505 0.98729616 1.0021586 0.9853422 0.9909241 1.0022646 1.0020607
0.9893031 0.992519 1.0024742 1.0161909 0.9946168 0.9802398 1.0277159 1.0107924
0.99187046 0.99680364 1.0007746 1.0019197 0.97496045 0.99564004 0.9987528 1.0030227

features.4.bias f4 [64]
00000000: 2671 b7bb fbf7 30bb c09d 4b3c 87a1 463c
00000010: 028a 7ebc 99fe 9a3b b06d 343c c339 27bb
00000020: 05d2 5e3c c214 183c fc94 93ba 1984 523c
00000030: 225e 03ba 57e4 483c fb1f bc3c 90f3 173c
00000040: 4b73 803b 5684 8c3c 072f 143c fab2 a0bc
00000050: c92e 823c 9971 35bc 1d2a 9fbb 11a7 ecbb
00000060: 04f4 23bb 9230 813b 5245 843c b11f 3e3c
00000070: 001a b93b e74c b13b 56b0 693c 97aa 31bb
00000080: 41b7 0abc 2a8e 083c 61f2 03bc 04ab 97bb
00000090: 0f2f 7bba 8d35 223b 4478 22bc ae59 b33b
000000a0: f0af 1e3c 3689 083c 29ea 47bc fb4b 67bb
000000b0: 786a ebbb f077 56bc 47a1 1cbc 05a0 363c
000000c0: bae6 ca3a 213e 233c 9126 923b 7547 673c
000000d0: d7c8 3cbc acab 1fbb adb3 b83c 1262 6b3c
000000e0: 04f6 343b 7285 0dbc be35 703b fb99 4e3a
000000f0: 5bfd 83bc 9784 0139 68f1 1dbb 8bf0 b23b
-0.005598205 -0.0027003277 0.012427747 0.012123472 -0.015535833 0.0047300574 0.01101248 -0.0025516606
0.013599877 0.009282293 -0.0011259611 0.012848877 -0.00050112803 0.012261472 0.022964468 0.009274378
0.003919994 0.017152946 0.009044415 -0.019616593 0.01589145 -0.011074447 -0.004857315 -0.0072220643
-0.002501727 0.0039425576 0.016146336 0.0116042355 0.0056488514 0.005410779 0.014263233 -0.0027109736
-0.008466543 0.008334676 -0.008053393 -0.004628541 -0.00095819024 0.0024751157 -0.009916369 0.005473337
0.009685501 0.008333495 -0.012201824 -0.003529309 -0.007184323 -0.013090119 -0.009559936 0.01114655
0.0015480139 0.009963543 0.004460164 0.014116158 -0.011522493 -0.00243638 0.022546614 0.0143666435
0.0027612457 -0.008637773 0.0036653127 0.0007881221 -0.01611202 0.00012351792 -0.0024100188 0.005460804

features.4.running_mean f4 [64]
00000000: 4794 c0be faad 9d3d 2ab9 1abb 94fc bebd
00000010: 70d4 bd3d 81ce 913d 8e4b a23e fb59 f6be
00000020: 9500 51bd ebd2 53be c523 5c3e f81b 953d
00000030: 8f4e 4fbd 7250 02bf 0834 073e 2cf9 babe
00000040: a15c e73d 0ea1 c8bc 0c25 c93d cab0 71be
00000050: 69f3 cc3d 683a 35be 5966 9e3e 58d5 1f3f
00000060: e12a 833e d65c 653b 48c8 853e c5fd f0be
00000070: ea6c 48bd cb0b 393e 9480 85bd 8c88 8b3d
00000080: b61a b6be 5daa adbe 6787 1f3f 1f97 30be
00000090: dd21 823c 36f0 a63c 1079 35be 6bcf 0fbe
000000a0: de38 9c3e 23ae d0bd 9914 7a3e 39ed 3d3e
000000b0: f7e2 813e 66a8 463e 1dcf edbd 0210 16bd
000000c0: 8dbe febd af5d a4be 937c 93be c201 85be
000000d0: 0c97 68bd b9a8 003f 0821 fdbe a80b b9be
000000e0: d5b8 94be f1ee 933d 8b26 dabd bb9f 063e
000000f0: df7e 3bbe b2df 04be 4e3e 32be 68ee 713e
-0.37613127 0.07699199 -0.0023608902 -0.09325519 0.09269035 0.071194656 0.3169827 -0.48115525
-0.051025946 -0.20685928 0.2149802 0.07280725 -0.05061203 -0.50904 0.13203442 -0.36518228
0.112969644 -0.02449086 0.09821519 -0.23602596 0.10007364 -0.17698061 0.3093746 0.6243491
0.25618652 0.0034997961 0.26129365 -0.4706861 -0.048931994 0.18070905 -0.06518665 0.068131536
-0.35567254 -0.3391904 0.6231598 -0.17245148 0.015885288 0.020378213 -0.17721963 -0.14043967
0.30512136 -0.10189464 0.2442192 0.18547525 0.25368473 0.19400176 -0.11611769 -0.03663636
-0.124386884 -0.32102725 -0.2880598 -0.25977904 -0.056784675 0.5025745 -0.49439263 -0.36141706
-0.29047266 0.07223309 -0.10651883 0.1314687 -0.18310116 -0.12975958 -0.1740658 0.23626101

features.4.running_var f4 [64]
00000000: 4d43 423e d634 f73d 6bd3 d93d fbd6 253e
00000010: 52c9 143d 6484 ec3d ce56 8f3d fc2a 833d
00000020: 0a6c 653d 14dd c53d 9c0d ac3e a19d 333e
00000030: f1fc b13d 69fc 0b3e 880c de3d 657d d23d
00000040: 34f8 193e 019f 2c3e f886 123e 1c60 483d
00000050: 5a45 593e e5ed 0c3e 9e2d e53d 8c5f cb3d
00000060: d0ca bd3d 8936 043e ad0e 4a3e 8bfe 563e
00000070: 5f0a 0d3e 65e1 933d eb80 aa3d a7f2 273e
00000080: ac9a a73d 7b0c f63d c73c 603e 193d f93d
00000090: c5db ce3d 5663 0b3e 79f9 243e ec02 b63d
000000a0: 7ae6 f13d 7e71 3f3d a119 5d3d d5de 543e
000000b0: df83 8d3d e356 a53d 3713 403e 2b8e c83d
000000c0: c1d3 0b3e 65ee bb3d 3850 193d 614d e83d
000000d0: 8a48 233e b90d 113e 1878 ff3d d3f6 e83d
000000e0: b676 423d 1805 053e e1fc dc3d c5a2 8e3d
000000f0: 035c 113e 8c1d 103e ae62 e43d 78ad 683e
0.18970986 0.120706245 0.10636028 0.1619529 0.036324807 0.11548689 0.069989786 0.06404683
0.056011237 0.09661308 0.33604133 0.175406 0.08690823 0.13670506 0.10842234 0.10277823
0.15036088 0.1685753 0.14309299 0.048919782 0.21217862 0.13762625 0.111903414 0.099303335
0.09267199 0.12911429 0.19732161 0.20995538 0.13773488 0.07220725 0.083253704 0.16401158
0.08183798 0.12014099 0.21898185 0.121698566 0.101005115 0.13612112 0.16110791 0.08887276
0.11811538 0.046739094 0.05397952 0.20788129 0.06909918 0.08073213 0.1875733 0.097927414
0.13654996 0.091763295 0.03743002 0.11342884 0.1594564 0.14165391 0.12474078 0.11375203
0.047476493 0.12990224 0.1079042 0.069646396 0.14195256 0.14073771 0.11151634 0.22722423

features.7.bias f4 [128]
00000000: 2d1a 4dbd 5c42 a4bc 5b79 a43c 4090 7cbc
00000010: 61d3 f63d fea1 e83d 1671 d0bd 59b6 ed3c
00000020: 759a af3d d9ff b73c 6b88 eebc 9b5c 4dbd
00000030: e2e8 7f3d c103 c43a ae8b ee3d 6883 d1bd
00000040: a5f0 983d 9aca f83d ef6a b0bd 7f8d 463b
00000050: 7d0b c2bc 1e59 273b 0a4c 353d bf01 873d
00000060: e60a 273c 25cd 1e3c dc6c 893d bfcf 64bd
00000070: 6dd0 b4bd 9a3e 76bd 5dc5 443d b147 6c3d
00000080: 51f3 97bd 3110 873d 13b4 ec3c 6410 133d
00000090: d2d8 a8bd 499f 543d 5776 95bd a1ba f03c
000000a0: b19d b8bd daa8 863d 664c a3bd 7a1f 9cbd
000000b0: c700 fd3c 82a3 4e3d abee 963c e4c3 1abd
000000c0: 18ce 86bc e276 473d 5d3a f53c 279b cabc
000000d0: 251b 1bbb eab8 5ebc 6e7b 953b bedc 903d
000000e0: 28dc d93d a0ce b0bd a80c 5bbb bc34 cf3d
000000f0: 52dc 52bb c94d b4bd 9be4 35bd f6d9 6bbd
00000100: e2a9 abbb 952a d63d 6a89 c23d cbef 7abd
00000110: 130a b0bd 5b71 aebd e94f fdbd 88d6 633d
00000120: 1ffb df3d 7ff0 aabd 6173 b23d 0257 003e
00000130: 1341 dabd 1edd ec3d c1a0 a43d f6bd 323d
00000140: ab79 c53d cf7f 7cbd 1e77 a6bc 863a c2bc
00000150: af67 fabd ea9c 1a3d 10a3 d2bd 2e9f 1e3d
00000160: 8fd3 11bd 07d2 b1bc 1066 a1bd 7d06 45bd
00000170: 8161 1cbd 4985 0a3d 2232 153d b88f 963d
00000180: f4df 87bd eba6 c8bd 5bc8 de3d 27ab c63d
00000190: 8cc0 f23a 21ab 7abb 73e5 a1bd dcfe 71bc
000001a0: 88c8 fc3d 9a33 113d abee 72bd a298 5f3c
000001b0: afb0 e23d 3a5e 5b3d ddf8 b73d 4ced 84bc
000001c0: 14bc a03d 7d1c 18bc afa9 a0bc 30be a63d
000001d0: 9d33 993c 478a bb3d 34d1 823d 7dcc f8bc
000001e0: 6702 e33d 0955 673d 8541 023c 1c55 e8bd
000001f0: 0f45 243d 9c1d 453d 648e 94bd bccf 3639
-0.05007379 -0.020051174 0.020077398 -0.015415251 0.12052036 0.113590226 -0.101778194 0.029017614
0.08574382 0.022460865 -0.029117784 -0.050137144 0.062477954 0.0014954732 0.116477355 -0.10230142
0.07467774 0.12148018 -0.08614146 0.003029674 -0.023687119 0.0025535296 0.04426197 0.0659213
0.0101954695 0.009692465 0.067102164 -0.055862185 -0.088288166 -0.060118295 0.048039783 0.057685558
-0.07419456 0.06594885 0.02889446 0.035904303 -0.0824448 0.05190972 -0.07297962 0.029385867
-0.09014452 0.06575175 -0.07973556 -0.07623191 0.03088416 0.050448902 0.018424353 -0.037784472
-0.016455695 0.04869736 0.029935056 -0.024732186 -0.0023667302 -0.013593892 0.004561833 0.07073353
0.106376946 -0.086331606 -0.0033424292 0.1011748 -0.0032174778 -0.08803899 -0.04440747 -0.05758091
-0.0052387575 0.10457341 0.09498866 -0.06126384 -0.085956715 -0.085177146 -0.12368757 0.055624515
0.109365694 -0.08346652 0.08713413 0.12533191 -0.10656943 0.11565612 0.08038474 0.043638192
0.09642347 -0.061645325 -0.020320471 -0.023709547 -0.12226807 0.0377473 -0.10285008 0.038726024
-0.03560215 -0.021706594 -0.07880795 -0.04810189 -0.038178924 0.033818517 0.036424764 0.07351631
-0.066345125 -0.09797462 0.108780585 0.097006135 0.0018520518 -0.0038248973 -0.07905092 -0.014770236
0.12342936 0.0354496 -0.059309643 0.01364723 0.11068856 0.05355666 0.08983014 -0.016226433
0.07848373 -0.009284136 -0.019612161 0.08141744 0.018701369 0.09157234 0.063875586 -0.030370945
0.110844426 0.05647758 0.007950191 -0.11344358 0.040104922 0.04812394 -0.07253721 0.0001743426

features.8.weight f4 [128]
00000000: 05ca 823f d9c0 7f3f df8d 803f a9b8 7f3f
00000010: f44a 803f 9bbe 7f3f 298b 7c3f e7ed 813f
00000020: efc3 7d3f df8f 813f 0e06 823f 610a 7e3f
00000030: bc8b 803f a1ea 7d3f 0a73 7d3f a1dc 803f
00000040: c5d5 803f f843 7d3f aa10 803f c552 803f
00000050: f3e3 7b3f 9734 7d3f 51c3 813f 8c3f 7f3f
00000060: aa41 7c3f 7af8 803f e56a 7d3f d528 803f
00000070: d4d6 7f3f 8814 7e3f e319 7f3f ec27 803f
00000080: 664e 803f ec21 803f 1124 7d3f 2997 803f
00000090: a901 813f 74c9 813f b58e 7d3f 4411 823f
000000a0: 204b 803f 092e 7e3f c251 7d3f 397e 7c3f
000000b0: 7615 803f 98f2 7e3f 0e77 7f3f 6b50 803f
000000c0: ca9e 803f cc18 7f3f 1b22 7e3f 701c 7f3f
000000d0: be2f 803f e73e 7d3f ac98 7d3f 7093 7f3f
000000e0: 694b 813f 26ae 7e3f 2a6c 7f3f 8155 7c3f
000000f0: 4dd9 7f3f 949a 7d3f 3daf 813f 2a67 7e3f
00000100: cc1f 833f ff0a 813f 07c6 7b3f 5823 7d3f
00000110: 4cb6 7b3f 6f31 813f d4d5 7f3f 0ae1 7e3f
00000120: ec7a 803f 3027 7c3f 2f22 7f3f d7b8 7c3f
00000130: 0f66 7d3f 1a6d 813f 9dc7 7f3f 3b8e 803f
00000140: 2c66 7d3f bfdd 813f 5f4e 7e3f 7e88 803f
00000150: 5783 803f eed1 7e3f f646 803f db09 823f
00000160: d35b 803f 466b 803f 6613 7f3f 1770 7d3f
00000170: d6a9 813f cf28 7a3f d0c4 7c3f 6b9c 813f
00000180: 004a 803f 9fe1 813f a8da 803f 352b 813f
00000190: 91a2 7f3f b511 803f f14f 7e3f a438 803f
000001a0: 427c 7d3f 715f 7d3f b439 7e3f 622d 7e3f
000001b0: 4ca4 803f 6c65 7c3f 7cc4 7e3f df47 803f
000001c0: fa1f 803f 0e7f 7d3f 808c 803f 5bbc 813f
000001d0: c411 803f 1740 813f 2dc8 7d3f 4acb 803f
000001e0: faf7 7f3f 894a 803f 5ea2 803f 953b 803f
000001f0: e228 813f 21f3 813f d330 813f cd0e 823f
1.0217901 0.9990364 1.0043296 0.99891144 1.0022874 0.99900216 0.9864984 1.0150727
0.99127096 1.0122031 1.0158098 0.99234587 1.0042644 0.9918614 0.9900366 1.0067331
1.0065237 0.9893184 1.0005085 1.0025259 0.983947 0.9890837 1.0137731 0.9970634
0.98537695 1.0075829 0.98991233 1.0012461 0.99937177 0.9925008 0.99648875 1.0012183
1.0023925 1.0010352 0.9888316 1.004613 1.0078632 1.0139604 0.9904588 1.0161519
1.0022926 0.99288994 0.9895288 0.986301 1.0006549 0.9958892 0.9979104 1.0024542
1.0048459 0.9964721 0.9927079 0.9965277 1.001457 0.98924106 0.99061084 0.99834347
1.0101138 0.9948448 0.9977442 0.9856797 0.9994095 0.9906399 1.0131603 0.99376166
1.0244079 1.0081481 0.9834904 0.98882055 0.9832504 1.0093211 0.9993565 0.9956213
1.0037513 0.98497295 0.99661535 0.98719543 0.98983854 1.011142 0.9991396 1.0043405
0.98984027 1.0145797 0.99338335 1.0041654 1.0040082 0.9953908 1.0021656 1.0159258
1.0028023 1.0032737 0.99638975 0.9899916 1.0129955 0.9771852 0.9873781 1.012586
1.0022583 1.0146979 1.0066729 1.0091311 0.9985743 1.0005404 0.9934073 1.0017285
0.9901773 0.9897376 0.993068 0.99288 1.005014 0.9859226 0.9951856 1.0021933
1.0009758 0.99021995 1.0042877 1.0135607 1.0005422 1.0097684 0.9913357 1.0062039
0.9998776 1.0022746 1.004955 1.0018183 1.0090601 1.0152322 1.0093025 1.0160767

features.8.bias f4 [128]
00000000: 3371 cd3c 1197 4c3b cf05 3a3c 5817 0fbb
00000010: 8546 c9b9 f2be c03a e780 a2bc ebfb 913c
00000020: ba84 acbb af40 d63b 676e a33c db91 20bb
00000030: 67d8 f93b f6e4 03bb 1c33 3539 f086 393c
00000040: 5950 353c 6d00 79bc 6638 0bba b9df adbb
00000050: 9528 3cbc 92b3 8dbb 8f4b 543c 87c4 5dbb
00000060: ec57 43bc 95ff 543c 6399 73bb cac5 003c
00000070: 3e92 803c 0902 5fbc fa4f a4bb 8af5 323c
00000080: b356 94bb e1d4 313a d44c 133c 240d 7e3b
00000090: 45d0 3f3c d43e 0c3c c3ff 2cbc 0ee4 a33c
000000a0: 1a20 85ba 4226 b1bb c23e 003a be71 80bc
000000b0: 3514 723a e73f e8ba 286f dfbb 0479 6f39
000000c0: 693c 4d3c 00b7 62bb dc85 8ebb 5d1d b1bb
000000d0: 9bca e1bb 2f2a f5bb 6f57 debb 3411 973a
000000e0: 7bd4 6f3c e530 a9bb faa9 513c cd3d 41bc
000000f0: 0634 c0b9 9c28 5dbc 86f7 c13c c65e 193b
00000100: 132f 9a3c 203a da3b b2cd d6bb 1153 79bc
00000110: d187 bebb eec1 053c 664d 243a bdbb b4bb
00000120: 5e00 2ebb a2a8 46bc 6b8a b63a 790d 42bc
00000130: 478a 08bc 1372 513c bd06 d73a b8a2 e73b
00000140: 5b0a 32bc c23d c73c 30e5 daba c44c b73b
00000150: 5974 7f3a e165 6f3b c630 433c 3ef4 183c
00000160: 25c9 c23b 8978 e73b 108d fdba e461 b2bb
00000170: 0180 bc3c 9c8d 91bc c79a 67bc f753 203c
00000180: 688f a43b b9de 5f3b e9e1 933a f603 de3b
00000190: f302 873b 31ce a13b 8b5f 1dbc cb3d 1c3b
000001a0: caee 17bb 781f ffbb 8d43 2ebb 40a8 64bb
000001b0: c490 673c 9890 0cbc 766a ccba c077 383c
000001c0: ce70 19ba fdd6 40bb 1072 173b 744d 553c
000001d0: b72f 17bb 6428 463c 90ab 5bbb f615 853b
000001e0: 6f2b e1bb 62ff 1bbb 4e5a fc3b 170f 933b
000001f0: bf0a 873c 1677 df3b 9f8e 123c 4e27 7b3c
0.025078392 0.0031217972 0.011353924 -0.0021833982 -0.0003839025 0.0014705344 -0.019836856 0.01782032
-0.0052648457 0.0065384726 0.019950105 -0.0024501 0.007624674 -0.0020125485 0.00017280545 0.0113236755
0.01106652 -0.015197855 -0.0005310833 -0.005306211 -0.011484285 -0.004324385 0.012957468 -0.0033839063
-0.011922818 0.013000389 -0.0037170283 0.007859657 0.015694734 -0.013611325 -0.0050144168 0.010922799
-0.004526937 0.00067837356 0.008990485 0.0038765157 0.01170737 0.008559901 -0.010559025 0.020006206
-0.0010156662 -0.005406172 0.0004892164 -0.015679237 0.00092345785 -0.001771924 -0.006818671 0.00022837898
0.01252661 -0.003459394 -0.0043494534 -0.0054051117 -0.0068906075 -0.0074818353 -0.0067853252 0.0011525513
0.014638062 -0.0051632994 0.012796873 -0.01179452 -0.00036659854 -0.013498452 0.023677599 0.0023402437
0.018821275 0.006659761 -0.0065552825 -0.0152175585 -0.0058145304 0.008163912 0.0006267637 -0.005515544
-0.0026550512 -0.012125166 0.001392675 -0.011844032 -0.008333749 0.012783545 0.0016405206 0.007068958
-0.010866727 0.02432144 -0.0016700383 0.005593868 0.0009744815 0.003652923 0.011913484 0.009335576
0.0059443885 0.0070639295 -0.0019344408 -0.0054437984 0.023010256 -0.01776772 -0.014136023 0.009785644
0.005021978 0.0034159853 0.0011282536 0.0067753745 0.0041202246 0.00493791 -0.009605299 0.0023840542
-0.00231831 -0.007785734 -0.0026590556 -0.0034890324 0.014133636 -0.008579396 -0.0015595693 0.011259019
-0.0005853296 -0.0029425018 0.0023108758 0.013018955 -0.0023069212 0.012094591 -0.0033519007 0.004061456
-0.0068716328 -0.0023803343 0.007701195 0.004487883 0.016484616 0.006819616 0.008945136 0.015329195

features.8.running_mean f4 [128]
00000000: f9b1 5b3b 1e2f c43e 3a16 953e c5f2 3cbe
00000010: 8bc9 e43e 7311 83be f5ef 533e c3c8 93bd
00000020: c645 c3bd ea3b 38be 01b2 bfbd f1d7 0dbf
00000030: b4ca a4bd 0d0f 46be 4f05 2d3e 6b6b c6bd
00000040: 40be 80bc d441 fd3d 6577 323e e13d 0c3d
00000050: 61c6 9dbe 8329 3abe 2534 d6be 8b65 c6be
00000060: 8cea 6c3e 3acb 9dbd 753a babd 6a32 f7bd
00000070: 92c1 73be 96ad 02be d32c a23e e3d4 d83e
00000080: d99e a7be bc4a 6cbd f2a9 8e3d 076a 2bbe
00000090: 2dc8 57be 5bb6 913e 6365 a83e 6dee 453d
000000a0: a7b7 413e d39b 37be 3ce2 683e b922 afbe
000000b0: 0469 063e 4c69 693e 72b4 cdbd 05e6 1f3d
000000c0: 00d0 ab3d 7296 9c3e bdad 7ebe 2eae 8cbe
000000d0: 26af 00be e6c6 a13d f6c7 debb d119 203d
000000e0: 36f4 11be 9c21 21be f4a2 f03d 7c68 0dbc
000000f0: 75a1 5b3c 3a5f 8fbe 8457 0bbe 5e54 10be
00000100: 930f 68be 320e 2f3e e9a2 243e a20b 1a3e
00000110: ca3f 7f3e 73c2 39be c6dc e3be 2dc3 13be
00000120: 005d 743b a87f 51be 5667 2c3d 54b8 51bc
00000130: a355 32be cce8 9fbe c696 22bd b0e6 173e
00000140: ee3c ae3d 8c8a adbc 0b92 f53e ea93 b2bd
00000150: 41db 4fbd e73f a13d 93e4 6bbd 8fe9 0c3e
00000160: 5c85 56bd 3eb9 bcbe 7432 abbd 28ba 82be
00000170: 3b7e 2d3e 73a5 53bd 549a 653e a934 ccbe
00000180: 481a f4be 5c7d 7ebe b640 b5bc 2054 92bd
00000190: 3aa8 8b3e 39f7 903e babb 43be a5e6 263d
000001a0: 94f7 063e 9497 84bd 96d9 11be 927c 9bbe
000001b0: f8d3 f43d 5a2e fd3c 045e d3bc 006c 34be
000001c0: 9921 5dbd 2b15 853d 4b26 6f3d ed02 173e
000001d0: 7a91 83be 6f17 82bd 52af a73e 6a1e 15be
000001e0: 7c57 c73d f7f4 a4be 1a94 803e 14dc 8bbe
000001f0: 8319 06be 6dd1 72bc a5c7 36be b0a5 af3e
0.0033522828 0.38317198 0.2911852 -0.18451984 0.44685015 -0.2559925 0.20697005 -0.07216027
-0.095347926 -0.17991605 -0.093601234 -0.55407625 -0.08046475 -0.19341679 0.16896556 -0.09688457
-0.015715718 0.12366071 0.17428358 0.0342387 -0.30815414 -0.18179898 -0.41836658 -0.38749346
0.23136348 -0.07704778 -0.09093181 -0.120701626 -0.2380431 -0.1276153 0.31674823 0.4234992
-0.3273838 -0.05768846 0.06966008 -0.16739665 -0.21072455 0.2845944 0.32889852 0.048323084
0.18917714 -0.17930536 0.22742552 -0.3420618 0.13125998 0.22794074 -0.10044183 0.039037723
0.08389282 0.3058353 -0.24870963 -0.2747664 -0.12566814 0.07899265 -0.0067987395 0.03908712
-0.14253315 -0.15735477 0.11749831 -0.008630868 0.013405194 -0.2800234 -0.13607603 -0.14094684
-0.22662191 0.17095259 0.1607777 0.150435 0.24926677 -0.18140583 -0.44504374 -0.14429922
0.0037286878 -0.20458853 0.042090736 -0.012800295 -0.1741548 -0.31232297 -0.03969457 0.14834094
0.08507715 -0.021184228 0.47962984 -0.087196186 -0.050746206 0.078735165 -0.057591032 0.1376097
-0.052373275 -0.3686008 -0.083592325 -0.2553265 0.16942684 -0.051671457 0.22422153 -0.39883927
-0.476763 -0.24852508 -0.022125583 -0.07144952 0.27276784 0.28313616 -0.19114581 0.040747304
0.13180381 -0.06474224 -0.14243159 -0.30368477 0.11954492 0.030905891 -0.025801666 -0.17619324
-0.05398712 0.06498178 0.05838613 0.1474721 -0.25696927 -0.06352126 0.32750946 -0.14562383
0.09733483 -0.32218143 0.25112993 -0.27316344 -0.1309567 -0.014820439 -0.17849596 0.34306097

features.8.running_var f4 [128]
00000000: 6393 b23e 7a81 2e3e fa52 8e3e fafb 1c3e
00000010: 0888 843e 1915 133e f4ef 0d3e 40d4 703e
00000020: adda 0b3e 9f0e 653e 497c a43e f45d 1f3e
00000030: 5bff d23d 1b1a 633e 92c4 423e 2f08 093f
00000040: 6e11 bf3e 8964 173e 7027 7c3e 019c 173e
00000050: e064 0c3e 0dbf 093e 3523 533e fd7a fd3d
00000060: 2115 853e 289d ba3e 591d 6a3e 8cef e83d
00000070: 6f4b 653e e8e7 383e 7c6a 583e 13ff 2e3e
00000080: 2654 0f3e 146b 533e 84ed f13d 20e3 0e3e
00000090: 9eb9 383e b3e5 593e 9ae9 5d3e d20a 5a3e
000000a0: 415b 2b3e df0f c73e 558e 3a3e 4119 323e
000000b0: 9c84 383e 0cd1 1f3e aa6a 643e 0741 253e
000000c0: 1eb3 363e c579 fe3d 1424 da3d 3409 2e3e
000000d0: 4c84 a63e 9997 6b3e 517c 813e 056e 0b3e
000000e0: afcc 703e 14cf 473e d44b 373e f0f8 bd3d
000000f0: 9e6d fd3d 4cff 0d3e ce1a b03e c77e 1a3e
00000100: 258e 9e3e 9ee5 1f3e 62a9 0e3e a389 123e
00000110: e167 fb3d 309a 843e ca67 453e af2c d53d
00000120: fcc9 fb3d fea0 f63d 5c1c 833e 394d 073e
00000130: cd31 173e ec7e 253f a762 833e ea64 273e
00000140: be5e 643e 3561 a83e 8002 333e 311c 023f
00000150: d106 8e3e 1b88 d03d 1cb6 733e 5c08 473e
00000160: 4d28 8f3e 5ce9 1c3e 1e71 4b3e 2018 ed3d
00000170: 947f 143e 80f1 2b3e 7d30 803e f430 8b3e
00000180: d924 5b3e bd21 a03e 915c 873e eaeb 203e
00000190: 319c 1d3e 9978 ab3e 03de 573e 7ae8 283e
000001a0: 8939 243e 43c1 e13d f740 123e 9b45 0b3e
000001b0: 440b 823e 069a 5f3e 3a30 903e 92bc 193e
000001c0: 9d4b 913e 6a31 133e b540 1e3e edf4 803e
000001d0: c7f0 b53e 5d05 a53d 458c 3c3e f74c 613e
000001e0: d81c 253e 1bfb 363e da2a 613e acea 353e
000001f0: 8da6 413e aab3 3e3e db19 c13e 979b a33e
0.34878072 0.17041579 0.2779768 0.15330496 0.25885034 0.14363517 0.13861066 0.23518467
0.13657637 0.22368859 0.32126072 0.15563184 0.103026114 0.22177927 0.19020298 0.5352811
0.37317985 0.14784445 0.24624419 0.14805605 0.13710356 0.13451786 0.20618899 0.12376974
0.25992683 0.36448026 0.22862758 0.11373815 0.22392057 0.18057215 0.2113437 0.1708949
0.13996944 0.20646316 0.11812881 0.13953829 0.18039557 0.2127903 0.21671143 0.2129319
0.1673403 0.38879296 0.18218358 0.17392446 0.18019336 0.15607089 0.22306314 0.16138087
0.17841765 0.124255694 0.106514126 0.16995698 0.3252281 0.23007049 0.25290158 0.13616188
0.2351558 0.19512588 0.1790002 0.09275997 0.123744234 0.1386692 0.3439545 0.15087424
0.30967823 0.15614936 0.13931802 0.14310317 0.12275673 0.25898886 0.19277874 0.10408913
0.12294385 0.120424256 0.25607574 0.13213052 0.14765091 0.6464679 0.25661203 0.1634709
0.22301766 0.32886663 0.17481422 0.50824267 0.27739576 0.1018221 0.23799938 0.19436783
0.27960435 0.15323395 0.1986737 0.11576867 0.14501792 0.16791344 0.25036994 0.27185786
0.21400775 0.3127574 0.2643781 0.15714994 0.15391614 0.33490446 0.21080784 0.16494933
0.16037573 0.1102319 0.14282595 0.13600771 0.2539922 0.21836099 0.28161794 0.1501334
0.28378 0.14374319 0.15454371 0.25186864 0.3553526 0.080576636 0.18412884 0.22002016
0.16124284 0.17869227 0.21989003 0.17765301 0.1891119 0.18623224 0.3771504 0.31954643

features.11.bias f4 [256]
00000000: f564 523d 1725 813d 09d7 843d 0699 98bd
00000010: 232b a33d 5d5d 48bc f2b0 253d dce5 523c
00000020: 8c63 133b b26e 9d3d 1a6e 813c 82eb 5f3d
00000030: 6a2c 85bd 1933 9abb 052b 383d 6ef0 71bd
00000040: 3219 d7bc eec3 a8bc ac0c 8a3d 7868 4bbd
00000050: 6882 44bd 1392 2c3d 5245 10bd 7700 a63d
00000060: 6e79 05bd 9424 383d d803 81bd f789 9a3d
00000070: 988c a4bd 570a d53c 0549 bd3a eb0c b3bc
00000080: f2c6 a43d f896 253d c573 03bd aabb 003c
00000090: 688e b93c 1093 f4bc 5cca 1b3d 21a2 a4bd
000000a0: 3221 853d 0168 9fbc 7771 fb3c 3893 513d
000000b0: 5f0c 40bc c185 64bd 1586 033d c1e2 acbd
000000c0: f4fd 2a3b 8c5e 43bd 12af 80bd 33d9 9ebc
000000d0: f38c 973d 6a69 8a3d 92c3 e13c 32b8 d4bc
000000e0: 8902 e7bb 2fe9 7f3d e7ce 973d 2b8f 84bc
000000f0: 1aa4 acbd 3dc5 33bd d699 ef3c 64ac 1a3d
00000100: 547a 4dbd 7e61 aa3d 6170 78bd df88 0abd
00000110: f5a3 9abb 52ab 4abd 5e3b 5c3c 4887 973d
00000120: 39e3 883d dc72 993d 7e3c aabd 18aa 1f3d
00000130: 7e6c a93d d864 933d 859f 753d ecb8 b3bc
00000140: d350 6abd a25c 753d e275 f2bc 2000 ccbc
00000150: 7b5c db39 6cde 09bd 7a98 7bbd 1b65 413d
00000160: 6105 61bd 74f1 a13d 8f65 b33b da36 5a3d
00000170: b74d 043c 05a2 2fbd 5d8e 843d 6d05 6ebd
00000180: d19e b2bd b141 de3b f6b0 98bc 56e4 09bc
00000190: 58d1 9cbd e00d 633d 6726 1e3d 67b3 97bd
000001a0: d4f4 91bc 3e1c f13b c63b 88bd 24f1 18bd
000001b0: 813a 76bd 7530 68bd e8f7 393c 8818 95bb
000001c0: d7fe 47bd 9a5b aa3d ddfe 95bd 7f60 443d
000001d0: e478 f93c 3d31 a03d 90d9 9d3c f068 673d
000001e0: 2b30 633c 6731 4b3d 4769 95bd 322c e3bc
000001f0: befa 8d3d 9d3d 7f3c 8e2d a13d f42c 56bd
00000200: 34e6 40bd 1050 9b3c a2ee a4bc 06d6 263d
00000210: 919f 8a3b 954e abbd e31b 4ebd 1b5f 2b3d
00000220: 7c3a a1bc dfab aa3d 798d d2bc ac2b abbd
00000230: 925e 46bd 06c0 74bd 59e5 0bbd 14f8 9a3c
00000240: 0aca ab3d 0ee7 26bd f878 1bbd 75fa ba3c
00000250: 418f 04bd cb1a d5bb ce0a 443d fab6 1b3d
00000260: ddb9 68bc 0f78 62bd 242d 8c3d 79f1 903d
00000270: 9f95 98bc 13f9 033c b470 eebc daf2 71bd
00000280: 0c4a c5bb d1a9 a23d e26f 953c 6db3 403c
00000290: 274f 1cbc 8118 7f3d 3b65 973d 1a8b f93c
000002a0: be98 36bd d8d9 893d 6f34 303d 533b 5ebd
000002b0: 846c 213d 81e3 88bd 1cc0 443c ac35 193c
000002c0: 2fb0 0abd b46e a9bd 0b75 363d 7a4e 3fbd
000002d0: 6693 27bd e4b8 ab3d 5d54 9f3c 3cc4 353d
000002e0: a023 ebbb d9db 83bd 5872 5a3d f8a4 1c3d
000002f0: edaa 5dbd fc9b 1b3d 92ce 513d 3a3f a0bd
00000300: b00f 36bd b5d6 843d 442f ffbc ef71 ed3c
00000310: d576 a63d fd0d b9bc b78d 11bd 9f75 9b3d
00000320: 0a6e 793d 0054 c23c e3a2 8f3d be15 69bd
00000330: a038 113c b45d b03d 727a 6bbd b6bb 173d
00000340: 4387 aebd 05cb 25bd 218b 9abd 2d3e a3bd
00000350: 93be 8fbc 8709 343d 6cac 663a 81cc a83d
00000360: 6172 8f3c 5c4e b2bd 36ab 733c e3dd 493d
00000370: 20ce e13b 11d5 8abc 67e2 a7bd 03c5 343d
00000380: a159 7bbd d938 34bd 96fd d13c 6046 ac3a
00000390: a2d5 f33c 2d97 883d 0674 243d 7838 8cbd
000003a0: f31b 48bd 85b2 a5bd 7062 623d 1c22 663d
000003b0: 4412 d73c 9f97 b6bc db7f 55bd 59bc fb3c
000003c0: 019f 9c3d bc68 f1bc 31cd ac3d a2f8 c0bc
000003d0: 1651 813d d63d 333d b1cf 083d 64cf 9cbc
000003e0: 2405 803d 7751 94bd 429c 1ebd b834 f93c
000003f0: 71cd b23d 40fc a6bd dda3 7dbd b0c3 063d
0.05136581 0.063059025 0.06486327 -0.07451062 0.07967212 -0.012229291 0.04045195 0.012872186
0.0022489754 0.07687129 0.01579957 0.054667957 -0.06502612 -0.0047057983 0.0449629 -0.059067182
-0.026257131 -0.020601239 0.06740698 -0.049660176 -0.047975928 0.042131495 -0.03522236 0.081055574
-0.032586507 0.04495676 -0.06299561 0.07545846 -0.08034629 0.026005907 0.0014441317 -0.021856746
0.08045758 0.04042718 -0.03209283 0.007857243 0.022650912 -0.029855281 0.03803478 -0.08038736
0.06500472 -0.019458773 0.030693753 0.05116579 -0.0117216995 -0.05579162 0.032110292 -0.084416874
0.002609131 -0.04769759 -0.06283392 -0.019390678 0.07399931 0.067583874 0.027559076 -0.025966737
-0.0070498628 0.06247824 0.0741251 -0.016181549 -0.084297374 -0.043889273 0.02924816 0.03776206
-0.05016549 0.083193764 -0.060654048 -0.033821937 -0.004719252 -0.04947979 0.013441889 0.0739885
0.06683964 0.07492611 -0.08312319 0.038980573 0.08272646 0.07196969 0.059966583 -0.021938764
-0.057205986 0.059902795 -0.029597227 -0.024902403 0.00041839838 -0.033659384 -0.06142471 0.047215562
-0.05493677 0.07907382 0.005474753 0.053274967 0.008075169 -0.042879123 0.06472466 -0.058110643
-0.08721698 0.0067827334 -0.018639069 -0.008416256 -0.07657117 0.055433154 0.038610842 -0.07407265
-0.017816938 0.007358103 -0.06652026 -0.037339345 -0.060114387 -0.056686837 0.011350609 -0.0045500435
-0.04882702 0.08318253 -0.07324002 0.04794359 0.030453153 0.078218915 0.019268781 0.05649656
0.013866465 0.04960766 -0.07295471 -0.027731035 0.06932591 0.015578655 0.07870017 -0.052288964
-0.04709454 0.018959075 -0.02013332 0.040731452 0.0042304476 -0.08364598 -0.050319564 0.041838747
-0.019681208 0.08333563 -0.025702225 -0.08357939 -0.048430033 -0.05975344 -0.03415427 0.018917121
0.08388145 -0.040747695 -0.03795716 0.022824505 -0.03236318 -0.006503438 0.047861867 0.038016297
-0.0142044695 -0.055290278 0.068445474 0.07077307 -0.018626032 0.008054989 -0.029106475 -0.059069492
-0.00602079 0.07942546 0.018241826 0.011761528 -0.009540356 0.062279228 0.07392355 0.030461837
-0.04457926 0.067310035 0.043018755 -0.054255795 0.03941013 -0.06684018 0.012008693 0.009351175
-0.033859428 -0.08273068 0.044545215 -0.0467057 -0.040912054 0.083848745 0.019449407 0.044376597
-0.0071758777 -0.06438417 0.053331703 0.038243264 -0.054118086 0.037990555 0.05122239 -0.078245595
-0.044448555 0.064862646 -0.031150468 0.028984992 0.08128134 -0.022589678 -0.03553554 0.07590794
0.060895957 0.023721695 0.0701349 -0.0569055 0.008863598 0.086116225 -0.05748982 0.03704425
-0.08521893 -0.040476818 -0.07546068 -0.079708435 -0.017546928 0.0439544 0.00087994966 0.08242131
0.017510595 -0.08706352 0.014872363 0.049283873 0.006891027 -0.016947301 -0.0819748 0.044133198
-0.061364774 -0.043999527 0.025633615 0.0013143532 0.029764954 0.066694595 0.04014971 -0.06846708
-0.04885478 -0.080906905 0.05526966 0.056184873 0.026253827 -0.022289095 -0.052123886 0.03072946
0.07647515 -0.029468887 0.08437575 -0.023556057 0.06314294 0.043760143 0.033401195 -0.01914186
0.062509805 -0.07242101 -0.038723238 0.030420646 0.08730591 -0.081535816 -0.06192385 0.032901466

features.12.weight f4 [256]
00000000: 31bc 803f 285d 813f dc46 813f 26d3 7c3f
00000010: 2fe5 7d3f e6a7 7e3f 4da9 813f 17a7 813f
00000020: f513 803f 6fc9 803f 464f 803f cbed 803f
00000030: f76b 803f a307 7f3f 6745 7f3f a947 813f
00000040: d5d4 813f 2059 803f 7cc3 803f 417b 7d3f
00000050: f777 7d3f 7c9b 7c3f 9e65 803f e2af 7f3f
00000060: c4a8 7e3f 875a 7f3f 7437 823f e669 7f3f
00000070: 1a17 7e3f 3892 813f 062a 823f 71f0 803f
00000080: 7503 803f c2e0 7e3f 97d7 7f3f 8100 803f
00000090: 0297 7f3f e1a8 813f c27b 7c3f 6687 813f
000000a0: 1219 7d3f bee4 7f3f c581 7d3f 60b2 7e3f
000000b0: 299e 813f 3a97 7d3f fdab 803f 2ff0 7e3f
000000c0: d1be 7f3f 1007 803f a3cc 7e3f c7d1 7c3f
000000d0: 5149 7c3f 9d62 803f 675c 7e3f 2cb0 7f3f
000000e0: 3d0a 803f aabe 7d3f 4fdd 7f3f 6076 7e3f
000000f0: 01e8 803f b9bc 803f 2634 7d3f f883 7f3f
00000100: f338 813f 7e3a 813f 3768 7f3f 2aaf 7a3f
00000110: ee7d 7f3f 9347 7c3f 06d9 7f3f 1e6e 7d3f
00000120: 6e35 7c3f 8854 803f 6abb 7c3f a741 803f
00000130: 8973 7d3f eb97 7d3f fb35 7e3f b72e 813f
00000140: dd1b 7f3f d886 803f 4f0c 803f 6738 833f
00000150: f470 7c3f 0114 823f e642 813f fd8c 7f3f
00000160: 582a 7f3f 2487 803f 299b 803f 6008 7f3f
00000170: 91df 7d3f a9ce 7c3f 98c4 7d3f 4391 7d3f
00000180: fe97 803f eeec 7f3f 86e0 7e3f c615 7f3f
00000190: 58c3 7e3f e0ed 803f d5ad 813f ca34 803f
000001a0: 0d4b 7d3f 03e5 7d3f fc0a 7e3f 5c48 7d3f
000001b0: 9bca 813f f030 803f 3548 803f 36d2 7c3f
000001c0: f967 7d3f 511f 823f 5e9b 803f 5f88 803f
000001d0: 0eae 813f 5b38 803f 617d 7c3f dfa4 823f
000001e0: fb1f 7d3f 1556 7f3f 78cd 7f3f 832d 7d3f
000001f0: 4dfa 7f3f 21d8 803f a76e 7f3f 89cb 7f3f
00000200: 2e74 7c3f 82a3 7f3f 97c9 803f dea2 7f3f
00000210: eb78 7e3f c19d 7e3f 6789 803f 6c3e 7f3f
00000220: 210d 813f a8dc 7e3f da09 813f bb25 7d3f
00000230: 0f4e 803f 0506 813f 42a2 7f3f 8d66 7d3f
00000240: 9431 7c3f c50d 803f 43f3 7e3f b613 7d3f
00000250: ae02 813f ec6b 803f 58ca 7d3f c9d0 7e3f
00000260: 745f 7f3f b13c 813f 0e61 813f ac53 823f
00000270: 91cd 813f f8b3 7d3f bd45 803f f168 7e3f
00000280: 2398 813f 05d4 7e3f 0570 813f e014 7f3f
00000290: 5583 7f3f a9e6 7f3f 617d 813f b2fc 7f3f
000002a0: f01b 7c3f ef14 7e3f a3a3 7e3f d586 813f
000002b0: 6647 823f 62f9 7e3f 638f 7f3f 5ba1 7e3f
000002c0: 1eb9 7c3f ab3a 813f 40ef 7d3f 8cfa 803f
000002d0: beaf 803f df84 803f 1853 803f 4609 7d3f
000002e0: ba76 813f 7c96 813f d937 7e3f d39b 803f
000002f0: f936 803f 181d 813f e5f5 813f 0171 7e3f
00000300: c41e 7e3f 1126 803f 14b6 803f 51c9 803f
00000310: 9e48 813f 9909 7f3f a400 833f 4931 813f
00000320: 2e92 7d3f 324f 7f3f ca14 7e3f fe52 813f
00000330: ba7e 813f 6231 803f 8260 7f3f 66ba 803f
00000340: 6e94 7f3f 4f98 7c3f c55a 813f 2e4c 7c3f
00000350: df52 7e3f 19e6 7c3f 1805 803f 175e 7e3f
00000360: 0073 803f 553b 7e3f 386b 7d3f f628 7c3f
00000370: e985 803f f772 7b3f 339f 7f3f 06a1 7d3f
00000380: 819b 813f 63e2 7f3f e916 803f 8c69 803f
00000390: f2b0 7d3f 8eed 7f3f 844d 7e3f 12fb 813f
000003a0: 7116 7c3f 5490 7f3f 59ba 803f 82b7 813f
000003b0: 5de7 7f3f f6ad 7d3f 8ea6 7d3f 44d2 803f
000003c0: b3f2 7e3f 9cf5 803f afcf 7e3f 5810 803f
000003d0: 4483 803f 6a14 7f3f e1bf 7f3f f68f 813f
000003e0: 407d 7d3f ce31 803f 03ce 803f e86e 7d3f
000003f0: 9540 7e3f 5a5f 813f bb9a 7f3f 1c06 813f
1.0057431 1.0106554 1.009975 0.98759687 0.9917783 0.9947494 1.0129791 1.0129117
1.000609 1.0061473 1.0024192 1.0072569 1.0032948 0.9962103 0.99715275 1.0099994
1.0143076 1.0027199 1.0059657 0.99016196 0.99011177 0.9867475 1.0031011 0.9987775
0.99476266 0.9974751 1.0173173 0.99770963 0.99254 1.0122747 1.0169075 1.0073377
1.0001055 0.99561703 0.9993834 1.0000154 0.99839795 1.0129663 0.9862634 1.0119445
0.9886638 0.9995841 0.9902614 0.9949093 1.0126392 0.9905888 1.0052487 0.9958524
0.9990054 1.0002155 0.99531 0.98757595 0.9854937 1.0030094 0.99359745 0.9987819
1.0003124 0.99119055 0.99947065 0.99399376 1.0070802 1.0057594 0.989077 0.99810743
1.0095505 1.0095975 0.99768394 0.9792353 0.9980153 0.98546714 0.99940526 0.9899615
0.9851903 1.0025797 0.9872347 1.0020036 0.9900442 0.99059933 0.9930112 1.0092381
0.9965189 1.0041151 1.0003756 1.0251588 0.9860985 1.0162355 1.0098541 0.99824506
0.99673986 1.0041242 1.0047351 0.99622154 0.9916926 0.9875284 0.99128103 0.99049777
1.0046384 0.999709 0.99561346 0.996426 0.9951682 1.0072594 1.0131174 1.001611
0.98942643 0.9917757 0.9923551 0.98938537 1.0139955 1.0014935 1.0022036 0.98758256
0.98986775 1.0165807 1.0047414 1.0041617 1.0131242 1.0017198 0.98628813 1.0206565
0.98876923 0.99740726 0.99922895 0.9889757 0.99991304 1.0065957 0.9977822 0.99919945
0.98614776 0.9985887 1.006152 0.9985789 0.99403256 0.99459463 1.0041932 0.99704623
1.0082132 0.99555445 1.0081131 0.988857 1.0023822 1.0079962 0.9985696 0.98984605
0.9851315 1.0004202 0.9958994 0.988582 1.0078943 1.0032935 0.9913688 0.9953733
0.99755025 1.0096647 1.0107744 1.0181785 1.0140859 0.99102736 1.0021282 0.9937888
1.0124553 0.99542266 1.0112311 0.9964123 0.9980977 0.99961334 1.0116388 0.9999496
0.9848013 0.9925069 0.9946844 1.0119272 1.0178039 0.9959928 0.99828166 0.9946496
0.98719966 1.0096029 0.9919319 1.0076461 1.0053632 1.0040549 1.0025358 0.98842275
1.0114357 1.0124049 0.99303967 1.0047554 1.0016776 1.0087004 1.0153166 0.9939118
0.99265695 1.0011617 1.0055566 1.0061437 1.0100286 0.9962402 1.023457 1.0093166
0.9905118 0.9973022 0.9925047 1.0103452 1.0116799 1.001507 0.99756634 1.0056884
0.9983586 0.98669904 1.0105826 0.9855374 0.993452 0.987886 1.0001554 0.9936232
1.0035095 0.99309283 0.9899173 0.985 1.0040866 0.982223 0.99852294 0.9907383
1.0125581 0.99954814 1.0006992 1.003221 0.9909812 0.99971855 0.9933703 1.0154746
0.9847174 0.998296 1.0056869 1.0134127 0.9996241 0.9909357 0.9908227 1.0064168
0.9958908 1.0074954 0.9953565 1.0004988 1.0040059 0.99640524 0.9990216 1.0122058
0.9901924 1.0015199 1.006287 0.98997355 0.99317294 1.0107224 0.99845475 1.007999

features.12.bias f4 [256]
00000000: 7b85 6b3b bbf0 2b3c 9f5e 4b3c cf79 29bc
00000010: b524 21bc 4b96 c3ba f07e 573c 20a8 ac3c
00000020: 09af 3a3b fea9 f33b ad24 2d3b 6148 233c
00000030: 8751 193b 3906 0fbb c3d1 af3b 903e f63b
00000040: aa78 043c 1c46 f6ba 3222 d03b 5c1c cdbb
00000050: dd3b 1ebc 640d 65bc 05b4 013c 4d2b b03b
00000060: e64d f3bb 2a86 1b3b e0a4 3d3c cfef a53b
00000070: c248 32bc ddd2 753c ec8d 503c eb65 2c3c
00000080: e0a6 eb3b 6314 943b cacd 09bb 6073 b43a
00000090: 00ac 093c 9613 033c e08b 19bc 1200 303c
000000a0: ba78 493b 3bba 54ba d0dc 53bb a7f4 c8bb
000000b0: e7d9 7e3c 1537 5ebb de74 bb3b 588c ccba
000000c0: 3225 92bb ef65 e83b 6675 dcba 6f15 87bc
000000d0: 3a25 1ebc 9aab fe3b c8c8 08bc 6616 bdbb
000000e0: d311 103c 5842 f4ba 461a 3cb9 9de1 84bb
000000f0: 4981 71bb 87df 3a3c 25f5 52bc 163d 8aba
00000100: 7844 623b 3150 2b3c d86e 73bb 4e9e 12bc
00000110: ab40 babb 61ff 47bc d67a 44bb 32f4 37bc
00000120: 1fd0 15bb 5d9b b639 2342 acbc d601 efb8
00000130: b5ae 19bc 0b5c e6bb 22e9 9dbb a922 313c
00000140: d66b 623a 9de4 413b e76e 5c3b 3e02 e93c
00000150: daf6 1fbc 72ca 9a3c 994f 2539 92e7 953b
00000160: 3364 34bb 2edc 603a ca77 d33b a993 55bb
00000170: d2b3 513b d251 21bc fa38 afbb 463d 49bc
00000180: 9d9c f9ba fac1 483c f6be 81ba bd9a 373b
00000190: f556 03bc 7ae2 373b 3e72 783c 41ab f33b
000001a0: 965c 0abc 0f69 5bbc 151f ffba adb8 fc3b
000001b0: 8eb6 143c 9b3b 2f3a 2dbb e03a 8706 4fbc
000001c0: 0162 26bb 415a 183c 1016 dc3b 6b43 5dbb
000001d0: 1bfc 313c 9f57 ff3b e2de 3ebc 0e8e aa3c
000001e0: 65fb 19bc 4674 503b 8f4e 903b 2575 8abb
000001f0: 834f 1b3c 9d52 dc3b d4b0 0e3b 3ec9 a6bb
00000200: 9f7f 1bbc 00a7 eb3b 7da9 883b f0ce c5bb
00000210: bd83 55ba 5081 c43a 61af 30b9 4d90 f1ba
00000220: 1187 b93b 2f1d 623c e471 313c d50c 003b
00000230: 0b93 243b d74a 743a b6b7 253b a3e4 18bc
00000240: 444a f2bb 0495 0bba 0c9e 02ba be61 883b
00000250: 03cf 913a 6443 3d3c bbd1 77bb eb00 f4ba
00000260: ce75 edbb b364 afbb a2c5 3c3c 5869 b63c
00000270: ed36 b33c bb93 19bb bc1e 903b 5025 b6b9
00000280: ae33 02bb 7780 1bbc 2761 863c c330 19bb
00000290: bc5e 3fbc 9509 aabb 6384 973c f133 3bbc
000002a0: ae07 58ba d0f8 453b c3b3 3fbb 6631 ad3c
000002b0: 6b20 a53c e6a0 06bc d1c8 80bc b115 42bc
000002c0: e95c 43bc 62e6 ab3c 3794 5a3b 252d ca3b
000002d0: 0116 c3bb 0851 f13b c0b2 29bb 9178 26bc
000002e0: 26b9 073c 6b1f 4bba 33b0 8438 ae52 6a39
000002f0: ccb5 633b ef6f 6dbb 3476 5b3c cc87 aabb
00000300: 131a 0cbc bd3f c13b 50d3 253c e517 0d3b
00000310: 39ad 1d3c 008b e9bb 505b ef3c 9ee7 ec3b
00000320: 6278 2ebc 0de2 aeba abab 2bbc 5a83 803c
00000330: d968 d53c 1c0d e63b 71eb 43bb 5e81 c73b
00000340: 2025 8aba 64aa 1ebc 87b2 2f3c bfc4 e7bb
00000350: e80b aaba b543 0bbc bcb7 243b 6df1 aeba
00000360: b5a4 8e3b 4f3b c73b f249 01bb 4573 9abb
00000370: 6c67 023c 53b5 8cbc 2694 e43b c827 26bc
00000380: 5efb 4c3c dbc4 963b efb1 893b 002b 1c3c
00000390: 1d87 61bc 0509 303b 2069 31bb 6af6 3a3c
000003a0: 8278 2abc 7545 21bb d5ba 903b e0d9 793c
000003b0: 1f26 6f39 ba9a 733a 6dcb 7abb 72a8 da3b
000003c0: 88a6 0dbb 9519 923b a2bc edba bdb1 9e3a
000003d0: af05 c93b 0157 65bb e86f 8fbb af7f 4c3b
000003e0: ebbd 76bc c546 aebb b554 9139 d739 0ebc
000003f0: 5ce0 73bb 1817 0c3c 71f3 733b 91ad 733c
0.0035937715 0.010494406 0.012412696 -0.010343983 -0.009835412 -0.001492211 0.013152823 0.021076262
0.0028485677 0.007436036 0.0026419566 0.009965987 0.0023394541 -0.0021823777 0.0053655817 0.0075147822
0.008085409 -0.0018789205 0.0063517326 -0.006259484 -0.009657827 -0.013980243 0.007916455 0.0053762556
-0.0074250577 0.002373109 0.011574954 0.005063988 -0.010881605 0.015003887 0.012729149 0.010522346
0.007191524 0.004519032 -0.00210272 0.0013767295 0.008402824 0.008000275 -0.009371728 0.010742204
0.0030742125 -0.00081149087 -0.003232766 -0.0061326805 0.015554882 -0.0033907343 0.0057207188 -0.001560579
-0.0044600004 0.0070922296 -0.0016819655 -0.016489713 -0.00965243 0.0077719213 -0.008348651 -0.0057704924
0.008793312 -0.0018635495 -0.00017938865 -0.0040552155 -0.0036850742 0.011405832 -0.01287583 -0.001054677
0.0034525674 0.010456131 -0.0037144925 -0.008948876 -0.0056839786 -0.012206883 -0.0029980442 -0.011227654
-0.0022859646 0.000348295 -0.02102763 -0.0001139675 -0.009380032 -0.0070300153 -0.0048190514 0.010811486
0.00086372846 0.0029585727 0.003363544 0.028443452 -0.009763444 0.018895362 0.00015765279 0.0045747245
-0.0027525544 0.0008577731 0.006453489 -0.0032589233 0.003199805 -0.009846168 -0.0053473683 -0.012282675
-0.0019043867 0.012253279 -0.000989883 0.0028015815 -0.008016338 0.0028058575 0.015163956 0.0074361865
-0.008444926 -0.013391747 -0.0019464219 0.0077124448 0.009076728 0.0006684602 0.0017145626 -0.012635834
-0.0025388005 0.009298862 0.0067164972 -0.0033762108 0.010863329 0.0077924277 -0.011649819 0.02081969
-0.009398316 0.0031807586 0.004403896 -0.0042253905 0.009479406 0.0067237155 0.0021772878 -0.005089908
-0.009490876 0.007191539 0.004170595 -0.0060366318 -0.0008144936 0.0014992151 -0.00016850002 -0.0018429846
0.005661853 0.013800903 0.010830376 0.0019538898 0.0025112059 0.00093190133 0.0025286502 -0.009331855
-0.007394107 -0.0005324634 -0.0004982657 0.0041620424 0.0011124316 0.011551712 -0.0037814218 -0.0018615996
-0.0072467094 -0.0053525805 0.011521729 0.022267029 0.021876777 -0.0023434001 0.004398195 -0.00034741545
-0.001986723 -0.009491078 0.016403748 -0.0023375012 -0.011680301 -0.0051891305 0.018495744 -0.011425958
-0.00082408905 0.0030208118 -0.0029251433 0.02114172 0.02015706 -0.008217072 -0.015720757 -0.011845992
-0.011924007 0.020983879 0.0033352503 0.0061699324 -0.005953551 0.007364396 -0.0025893897 -0.010160581
0.008283889 -0.0007748517 6.32707e-05 0.0002234678 0.003474581 -0.0036230048 0.013394881 -0.0052041765
-0.008551138 0.005897491 0.010121182 0.0021529135 0.009623819 -0.007127166 0.029218346 0.0072297594
-0.010648819 -0.0013342515 -0.010477941 0.015687633 0.026050972 0.0070206057 -0.0029894973 0.00608842
-0.0010539629 -0.009684179 0.010723717 -0.0070730145 -0.0012973519 -0.008500029 0.0025133928 -0.0013347097
0.0043531307 0.006080068 -0.0019727913 -0.004713448 0.007959228 -0.017176306 0.0069756685 -0.0101413205
0.0125111025 0.0046011037 0.0042021195 0.009531736 -0.013765124 0.0026860845 -0.0027070716 0.011411289
-0.010404708 -0.002460805 0.0044168034 0.015249699 0.00022807017 0.00092927704 -0.0038268224 0.0066729123
-0.0021614153 0.004458616 -0.0018137882 0.0012107413 0.0061347107 -0.0034994485 -0.004377354 0.0031204035
-0.015059928 -0.005318495 0.00027719667 -0.008680782 -0.0037212586 0.008550428 0.003722396 0.014872924
