Project Pivot Final New/models/execution.pt (torch, 367811 bytes, 38 tensors)

features.0.weight f4 [32, 28]
000000 71 35 00 3e e5 55 23 3a 6f 45 80 3d 68 2b 01 3e
       0.12520386 0.0006230756 0.062632434 0.12614214
000010 00 84 b6 3d 24 7c 1f 3e 23 bb 27 be b7 2f 1f bd
       0.08911896 0.155747 -0.1637998 -0.038863864
000020 c2 a7 c9 bd cb 72 d5 3d bc 82 15 bc c4 c1 e4 3c
       -0.098464504 0.10422286 -0.009125408 0.027924426
000030 67 87 23 be bd 37 0c 3e 87 fe b6 3d 10 c9 3a be
       -0.1596962 0.13693137 0.08935266 -0.18240762
000040 3a 64 be bc cf c1 fd 3d 05 c4 20 be cc 09 17 3e
       -0.023241151 0.12390482 -0.15699776 0.14749831
000050 4d d4 6a bb 2a 60 30 3e cd 9c 22 be 43 82 a1 bc
       -0.0035832108 0.17224184 -0.15880127 -0.019715434
000060 25 68 26 bc de 61 ed bd d6 3a fc bd 1a 17 26 3e
       -0.010156666 -0.11590932 -0.123159096 0.1621975
000070 e2 8a b1 bd 5e 28 dc 3d 91 45 c0 3d 12 a3 a2 3d
       -0.08669068 0.10749887 0.09388269 0.079412594
000080 9b 76 0b bd cb e4 12 be 93 e4 09 3e 6d 2e 08 be
       -0.034048658 -0.1434509 0.134661 -0.1329896
000090 ec dc 0c 3e 6e c3 0b be b4 95 20 be 18 0a 8a bd
       0.1375615 -0.1364877 -0.15682107 -0.067402065
0000a0 45 72 d1 3d 1b 37 31 3c 6b 20 31 bc 98 a2 33 bd
       0.10226873 0.010816361 -0.010810952 -0.043856233
0000b0 70 ad 80 3d 41 a9 cf 3d 2f b5 95 3d 2c 5d 93 bc
       0.062830806 0.101397045 0.07309949 -0.017988764
0000c0 6d 3d 3f 3e f2 3e 15 3e fe 7c 1e be 0b f6 e9 3d
       0.18675776 0.14574793 -0.15477368 0.11423882
0000d0 27 2b 48 bd f6 d3 b5 bd b1 0f 35 be 9b ff f5 bc
       -0.04886928 -0.08878319 -0.17681767 -0.030029109
0000e0 5e ee f5 bd d9 0c 21 be f3 f8 32 3d 6d 13 a6 bd
       -0.120083556 -0.15727557 0.043694448 -0.08109174
0000f0 b5 02 2d be 0d ba 6a bd 0d 75 f5 bd 9a b7 0a 3e
       -0.16895564 -0.057306338 -0.11985216 0.13546601
000100 af 3d 2e be 4e d9 eb bd 23 d7 9b 3c 76 62 f2 bd
       -0.17015718 -0.11516057 0.019023484 -0.11835186
000110 d3 b3 80 3d 34 df d9 3d 34 d8 2f 3d 8e cc 05 bc
       0.06284299 0.10638276 0.042930797 -0.008166445
000120 be ad 15 3b b5 be 1f be 58 54 9f 3d 35 36 17 3e
       0.0022839154 -0.15600093 0.07779759 0.14766772
000130 77 26 28 3e 1e 1a a2 3d 2d c6 31 be 01 2e 1f bc
       0.16420923 0.07915138 -0.17360754 -0.009715558
000140 a7 59 99 bd 0d 41 29 3e 40 ea a9 bd e1 52 30 3e
       -0.07487803 0.16528721 -0.08296633 0.17219116
000150 66 9d 12 3d c6 16 45 bd 31 13 0b 3e a5 f4 00 be
       0.035794638 -0.04811742 0.1358154 -0.12593324
000160 b7 ff 9e 3d 3f 8c 86 3d a7 51 39 3e 24 fb 88 bd
       0.077636175 0.065697186 0.18097554 -0.06688526
000170 f5 34 14 be 9a 17 37 be 0e 03 f8 bd 60 15 e7 bd
       -0.14473327 -0.17880097 -0.12109958 -0.11283374
000180 1a 83 a7 bc 56 aa 17 be 23 e1 90 bd d8 1c 3f 3c
       -0.020448256 -0.14811072 -0.070741914 0.011664592
000190 ba f4 be 3d 94 36 b4 bd d6 9e 0d 3d 52 91 08 3e
       0.09324022 -0.087994725 0.034575306 0.13336685
0001a0 e3 49 79 3d b1 4c 03 3d f8 c9 9c 3d 64 c5 52 3d
       0.06086148 0.03205556 0.0765571 0.051457778
0001b0 3c 69 0d 3d 4a e6 93 3d fd f5 4a 3d d3 83 3a bc
       0.034524187 0.072216585 0.049551 -0.011383968
0001c0 bd 67 ea 3d 25 91 0a 3d ae c0 f2 bd 37 33 eb bd
       0.11445568 0.033829827 -0.11853157 -0.11484378
0001d0 4c a3 d4 bc 5d e3 e7 3d 35 ce 38 be b3 3b 99 3d
       -0.025956772 0.11322663 -0.18047412 0.0748209
0001e0 f2 e4 e7 bd 7d 84 20 be ba fd 24 3e 4c 7c 7a bd
       -0.11322965 -0.1567554 0.16112414 -0.061153695
0001f0 c9 ea 08 be bb 91 33 3e ef a6 31 be 50 03 80 bd
       -0.13370813 0.1753606 -0.17348836 -0.06250632
000200 fa ba d2 bd 03 e8 c3 3b ce d4 9e bd 46 36 aa 3d
       -0.10289569 0.0059785857 -0.07755433 0.08311133
000210 69 46 7a 3d f3 da cc 3a 6c f6 96 bd a6 06 3e be
       0.061102305 0.0015629217 -0.0737122 -0.18557224
000220 6e 54 8c 3c 6e 97 9c bc b4 b9 40 bd 07 7a 13 bd
       0.017130103 -0.019115176 -0.0470521 -0.036005046
000230 c4 a7 c7 bc 81 79 40 be cc f8 2e bd 00 90 3f 3e
       -0.02437199 -0.1879635 -0.04271774 0.18707275
000240 41 89 27 be f1 43 c5 bd b5 da c9 3d 32 ce c3 3d
       -0.16360952 -0.096320994 0.09856168 0.09560813
000250 25 ae dd bc 71 04 1e bc c6 e9 cd 3d ee e7 35 be
       -0.027060578 -0.009644614 0.10054354 -0.17764255
000260 d0 a9 27 3e cf 07 0a bc 71 31 23 be 43 ab fc 3d
       0.16373372 -0.008424713 -0.15936829 0.12337353
000270 5c e5 c3 3d 86 04 fd bd 03 38 87 3d e8 6a 27 be
       0.09565231 -0.123543784 0.0660248 -0.16349375
000280 3a f7 88 3c 20 b5 37 be a1 12 57 bd 4c 2b 23 3e
       0.01671945 -0.17940187 -0.052508 0.15934485
000290 ec 30 1f 3e 71 11 3e 3e e8 02 5b bd 5b 48 35 be
       0.15546006 0.18561341 -0.05346957 -0.17703383
0002a0 6f 0d b8 3d 27 90 05 3e 7b 8f 09 be 12 dd e4 3c
       0.08986937 0.13043271 -0.1343364 0.027937446
0002b0 68 28 7d bc e1 99 52 bd 8f 32 5a 3d 43 87 0d 3d
       -0.015451528 -0.05141628 0.053270873 0.034552824
0002c0 f6 9f 15 3e 93 8e 66 3d a8 ac c2 bb e0 60 b4 3c
       0.14611802 0.056288313 -0.0059409924 0.02201885
0002d0 04 76 1e be 6d eb 10 3e a0 23 1e 3e d1 cf c1 3d
       -0.15474707 0.14152308 0.15443277 0.09463466
0002e0 40 11 29 be 5a a9 03 3e 32 b9 04 be 4e 09 a3 3d
       -0.16510487 0.12857571 -0.12961271 0.07960759
0002f0 7e 37 4b bd 2f d3 11 be 73 12 32 be 66 b9 db 3c
       -0.04961347 -0.14240716 -0.1738985 0.026821803
000300 b3 09 69 bd f0 05 27 be b4 a8 04 be fc 22 87 bc
       -0.056894016 -0.16310859 -0.1295498 -0.016496174
000310 46 17 df bd 27 28 ec 3c ef e1 16 be 00 7f 5d bc
       -0.10893111 0.02882774 -0.14734624 -0.013519049
000320 77 a3 3d 3e 25 ed 14 3e a9 6f 54 3c 6f cd a3 bc
       0.18519388 0.14543588 0.012966075 -0.01999542
000330 04 4c 37 3e 34 dd f2 3d cf 71 3d bb be f2 1c ba
       0.17900091 0.118585974 -0.0028906947 -0.0005987099
000340 e0 08 ca bd 22 18 3b bd da 80 67 bd bb c6 1d be
       -0.09864974 -0.04567731 -0.056519367 -0.15407841
000350 ce 0a 6c 3d ff ef fa 3d 12 c8 0a 3d 60 f9 e9 bd
       0.05762749 0.12252807 0.03388221 -0.11424518
000360 c8 d7 e0 bd 67 95 24 3e de f8 fd bc da 2b 42 bd
       -0.10978657 0.16072617 -0.031002458 -0.0474051
000370 73 55 29 be 00 75 64 3d 2e 9c 22 3e 87 83 1f be
       -0.16536503 0.055775642 0.1587989 -0.15577517
000380 95 2e 1c 3e e6 8e d0 3d 80 fe ae bc fd 90 40 bd
       0.15252145 0.10183506 -0.02136159 -0.04701327
000390 c9 84 49 bd b0 92 48 3d 61 a9 31 3e c2 e5 27 bd
       -0.0491989 0.048968017 0.17349769 -0.0409906
0003a0 a6 d4 72 3d f8 ec 7a 3d 92 63 0a 3c 1b 1d 42 bd
       0.05928483 0.061261147 0.008446591 -0.04739104
0003b0 89 d3 0a be 88 87 10 3e c7 28 08 3e bc 3e d3 3c
       -0.13557257 0.14114201 0.13296805 0.02578675
0003c0 06 20 1f be e7 77 19 3d 7f 8e bd 3d e4 f5 38 3e
       -0.1553956 0.037467863 0.092556946 0.1806255
0003d0 86 0a e0 bd 92 cb 25 be 2b fe 9c 3d b7 19 9a 3d
       -0.10939507 -0.16190937 0.07665666 0.07524436
0003e0 1a 08 e4 3d 52 09 00 b9 20 f6 17 3e 65 84 10 be
       0.11134358 -0.00012210503 0.14839983 -0.14113005
0003f0 b5 b7 83 3d 38 68 07 3e a2 be b9 3c 29 28 1a 3d
       0.06431524 0.1322335 0.022673909 0.037635956

features.0.bias f4 [32]
000000 b3 38 28 3e 3c c3 ee 3c 00 88 02 3e 86 ab 1a be
       0.16427879 0.02914583 0.12747192 -0.15104493
000010 d9 93 40 3e ba bd ed 3d e4 0a 85 3d 22 1e 75 bd
       0.188064 0.11608453 0.06496218 -0.05984319
000020 c7 6f 92 3d ea 53 0d 3e da 43 4c bd bc 50 30 be
       0.07150226 0.13801542 -0.049869396 -0.17218298
000030 75 52 50 bd e9 02 26 3e 51 3a 39 3e 00 ff 36 3e
       -0.050859887 0.16212048 0.18088652 0.17870712
000040 66 1f 21 3e 2a 37 8e bd 13 b4 fc 3c 3d 5b 81 bd
       0.15734634 -0.069441155 0.030847585 -0.063162304
000050 be ec 95 3d 48 c9 1e be 36 07 53 3d e4 80 18 be
       0.073205456 -0.1550647 0.05152055 -0.14892918
000060 cc 2b 0c 3d 01 66 11 be e8 61 e0 bd 0c 38 39 bd
       0.034221455 -0.14199068 -0.10956174 -0.045219466
000070 ee 17 08 bb 80 02 68 bd d0 16 02 be 1c 2c 80 3d
       -0.0020766216 -0.05664301 -0.12704015 0.06258413

features.1.weight f4 [32]
000000 1a 50 81 3f c4 f3 80 3f 74 9e 7f 3f 59 92 80 3f
       1.010257 1.0074391 0.99851155 1.0044662
000010 e9 2f 7e 3f 74 54 7e 3f 25 68 7e 3f e9 06 81 3f
       0.99291855 0.99347615 0.9937766 1.0080234
000020 f3 76 7f 3f af 01 80 3f 12 11 81 3f c8 47 7d 3f
       0.9979088 1.0000514 1.0083334 0.98937654
000030 05 5b 80 3f 9e d6 80 3f 86 53 7e 3f f9 60 7f 3f
       1.0027777 1.0065496 0.99346197 0.99757344
000040 f4 bf 80 3f 7a d9 7e 3f 0c 48 7e 3f d9 62 7e 3f
       1.005858 0.9955059 0.99328685 0.9936958
000050 3b cf 80 3f 19 9c 7f 3f 56 8f 80 3f 59 0d 80 3f
       1.0063242 0.9984756 1.0043743 1.0004073
000060 8a 09 81 3f 38 3d 80 3f 86 cc 7f 3f 8b 74 7f 3f
       1.0081036 1.0018682 0.99921453 0.99787205
000070 f9 7c 80 3f 17 99 80 3f 71 93 80 3f 0c 6e 7f 3f
       1.0038139 1.0046719 1.0044996 0.99777293

features.1.bias f4 [32]
000000 64 b4 1f 3c 08 73 49 3b f9 63 71 ba d4 c0 fd 3b
       0.009747598 0.003073873 -0.00092083175 0.007743934
000010 6e 64 89 bb 24 9c 03 bc 64 13 a8 bb 5a 28 33 3b
       -0.0041928804 -0.008032832 -0.0051292647 0.0027337284
000020 a1 c8 b1 bb fe 57 8c 3b 9e b4 49 3c 29 8d 30 bc
       -0.005425528 0.0042829504 0.012311129 -0.010775843
000030 a1 68 5d 3b 2c e4 ae 3b 82 86 62 bb 67 15 20 bb
       0.0033784288 0.005337259 -0.0034565036 -0.002442682
000040 3b a6 e3 3b b2 76 8b bb f5 48 2f bb 7a 74 a0 bb
       0.0069473065 -0.004256093 -0.0026746367 -0.0048966976
000050 fb 17 20 3b 2c 85 b4 ba f0 a8 b8 3a 04 26 77 3a
       0.0024428356 -0.0013772598 0.0014088433 0.0009427967
000060 31 19 01 3c da d7 0c bb 29 99 eb ba 7b d2 fb b8
       0.007879541 -0.0021490962 -0.0017974722 -0.00012007818
000070 bb d0 d9 3b 4e 64 bd 3b 2e 83 31 3b 3f 15 2f bb
       0.006647197 0.0057797795 0.0027086246 -0.0026715545

features.1.running_mean f4 [32]
000000 7f 8e b2 be 20 f5 55 3e 5f 99 75 3f d6 ba 84 3f
       -0.3487434 0.20894289 0.9593715 1.0369518
000010 7c 43 83 be 4e 5c 29 3f f9 bf 12 bf ad 15 13 bd
       -0.25637424 0.6615647 -0.5732418 -0.035909344
000020 1f fc ee 3e a8 39 e4 be 4b 2d 49 bf 21 d1 90 3d
       0.46676728 -0.44575238 -0.78584737 0.07071138
000030 e1 3f b1 be d4 11 44 3f 1d 79 14 3f 7b af 9b be
       -0.34619048 0.76589704 0.57997304 -0.30407318
000040 fa 62 44 3f 29 88 fd 3e af 84 6b be 4c 8b 3c bf
       0.76713526 0.49517944 -0.22999834 -0.7365005
000050 a9 1a d7 3e 6a 9b 0a bf 6a 8e 2d 3e 54 3c a7 3e
       0.42012528 -0.54143393 0.16948858 0.32663214
000060 86 e3 f7 bd 34 8c 17 bd 9b d0 81 3f 46 69 5c 3f
       -0.121039435 -0.036998942 1.0141786 0.86098135
000070 f0 a0 5e 3f 73 cf 2a 3e 77 0f 1d 3f 2a b5 bf 3e
       0.8696432 0.16680698 0.6135172 0.37442905

features.1.running_var f4 [32]
000000 de 44 a1 3c 6d 54 00 3c fd 9f e9 3b b0 7e 15 3d
       0.019686159 0.007832629 0.007129668 0.03649777
000010 47 59 14 3c 2d 33 03 3c 51 88 9a 3c 0c 12 df 3a
       0.0090544885 0.008007807 0.018863829 0.0017018928
000020 09 3e a3 3b 84 8a d7 3c 0c 2e c7 3c 91 63 b4 3b
       0.0049817604 0.026311167 0.024313949 0.0055050333
000030 53 94 56 3c 2e 39 7d 3c 96 87 8e 3b 85 12 88 3b
       0.013096887 0.015455527 0.004349659 0.0041525983
000040 8e 4c f0 3c f9 21 16 3c 80 f5 eb 3b 3f e8 ce 3b
       0.02933338 0.009163373 0.0072008967 0.006314307
000050 69 b2 f0 3b 63 f1 95 3c d3 e3 ee 3c a6 2d 5c 3c
       0.007345487 0.018303579 0.02916137 0.013438618
000060 15 04 6e 3c d2 41 83 3b 70 4e 27 3c 13 3c 00 3c
       0.01452734 0.004005649 0.010211572 0.007826823
000070 29 a8 51 3c 51 da ab 3c 0b e8 28 3c 2c c7 31 3c
       0.01279644 0.020978125 0.01030923 0.010850709

features.3.weight f4 [64, 32]
000000 c7 68 dc 3d 48 4b 31 3d 36 d8 8a 3d 99 44 3a 3e
       0.10762172 0.043284684 0.0677952 0.1819023
000010 77 ef 9c 3d 4e e5 92 3d be 52 08 3c 17 6a 71 3c
       0.07662862 0.07172643 0.0083205085 0.014734766
000020 bb 72 d0 3c 2f 55 9a 3d f3 35 c0 3c 20 74 94 3d
       0.025445333 0.07535779 0.023463225 0.072487116
000030 9d ed 18 be 04 54 f5 3d d4 40 0e be 3a 61 d6 bd
       -0.14934392 0.11978915 -0.13891917 -0.10467763
000040 2b d2 0c be 2a 59 9a 3d 16 6d 3e bd 58 23 21 3e
       -0.13752048 0.07536538 -0.04649075 0.15736139
000050 92 fa dc 3d 13 c6 f4 3d fc 44 90 bd cc 7d 77 3d
       0.1078998 0.11951842 -0.07044408 0.060422704
000060 ca 05 95 3c 29 4f 71 3c 72 7d ec bc 94 12 23 be
       0.018191237 0.014728346 -0.02886841 -0.15925056
000070 68 8b 1d 3b 0b f1 0f be c1 21 e3 bc 15 90 36 3e
       0.0024039391 -0.14056794 -0.027726056 0.178284
000080 27 b9 26 be 7a df eb bd 44 00 d6 3d 6d b6 20 3e
       -0.16281568 -0.11517234 0.104492694 0.1569459
000090 5c 46 de bd 44 7d cd 3d 04 7c 01 bd bc c7 e6 3d
       -0.10853264 0.10033658 -0.03161241 0.11268565
0000a0 e6 a6 fd bd 91 17 2c 3d a6 e7 02 3d 67 5d 98 bd
       -0.12385349 0.042014662 0.0319592 -0.0743969
0000b0 7c 5d 30 be f4 b6 26 be 9c 7b ad 3c 0f 89 00 be
       -0.17223161 -0.16280729 0.021177106 -0.12552284
0000c0 7c 92 04 3e cb 14 85 3d 70 50 07 be 00 f5 0a be
       0.12946504 0.064981066 -0.13214278 -0.13570023
0000d0 0d 87 f5 bd d4 6e ba bd 00 8c 4c 3d ed 8e 12 be
       -0.119886495 -0.0910317 0.049938202 -0.14312334
0000e0 14 96 36 3d b8 57 70 bd c3 bd 3b be a1 88 a7 3d
       0.04457672 -0.058677405 -0.18334107 0.08180357
0000f0 8f da cc 3d f0 5c c6 3d ff 02 b6 bb 40 20 a8 bc
       0.10002624 0.09685695 -0.0055545564 -0.02052319
000100 5d 56 30 3e 45 71 c4 bd 4e 51 34 3e 66 cf 23 be
       0.17220445 -0.09591917 0.1760914 -0.15997085
000110 31 83 ed 3c ee 16 0b 3d 38 21 e9 3d de 8b 93 bc
       0.028993221 0.033957414 0.11383289 -0.01801103
000120 1a 94 77 3d 1d 4f a3 3b fd 22 a5 3d 67 03 97 3d
       0.060443975 0.0049837963 0.08063314 0.07373696
000130 55 af 7e bd a5 21 ee 3d 16 e0 2e be 6e 6d 3d 3d
       -0.06217893 0.11627511 -0.1707767 0.04624694
000140 05 7b c2 3d 4b f0 30 3e 94 73 a1 3d a2 70 99 bd
       0.0949612 0.17279164 0.07883373 -0.07492186
000150 9e da 57 3d 58 01 ad 3d b5 59 c4 bd 42 0b 24 be
       0.052698724 0.08447522 -0.09587423 -0.1601992
000160 07 33 8b 3d 22 60 de bd 28 d5 28 be 16 f9 0f 3e
       0.06796842 -0.1085818 -0.16487563 0.14059862
000170 43 01 f4 3d de 54 13 bd e7 1d 17 be 65 36 37 3d
       0.11914303 -0.035969608 -0.147575 0.04472961
000180 f6 87 1f bd ad 62 13 3e 86 a9 98 bd 17 72 f6 bd
       -0.03894802 0.1439311 -0.07454209 -0.1203348
000190 b1 56 20 3e f8 06 34 3e 1b e1 a4 3d 01 da 30 be
       0.1565807 0.17580783 0.08050748 -0.17270662
0001a0 42 0b 08 be b8 06 b7 3d fe d5 51 bc 18 cc 9c 3d
       -0.13285545 0.089368284 -0.012807367 0.07656115
0001b0 61 e3 29 3d 05 4d d1 bd 0e e8 17 3e ec c2 01 3e
       0.04147661 -0.102197684 0.14834616 0.12672013
0001c0 16 bd 46 3b 0d 43 d4 3c 7b 46 23 3e 77 6c 38 3e
       0.0030325106 0.025910879 0.15944855 0.18010126
0001d0 bf 34 14 3d c1 d9 b7 bd 8c f8 15 3e f3 3b 88 bc
       0.036183115 -0.0897708 0.14645594 -0.016630149
0001e0 64 2f e1 bd 02 cd f3 3d fe cb 1c be 83 ef 90 bc
       -0.10995367 0.119043365 -0.15312192 -0.017692333
0001f0 40 3f df bd c2 ad b6 bd 1a 59 85 bd 92 a0 72 bc
       -0.10900736 -0.089198604 -0.065111354 -0.014808791
000200 c3 f1 15 3d 9e 58 8f bd 14 c1 03 3e b4 9e 7d 3d
       0.036607515 -0.06999324 0.12866622 0.06191893
000210 05 88 07 3e a6 4d 8e bd b4 27 2a be cd e5 1f 3e
       0.13235481 -0.06948404 -0.16616708 0.15615006
000220 54 d7 e4 bd e8 35 be bc 76 24 68 3d 75 a9 dc bd
       -0.11173883 -0.023219064 0.056675397 -0.10774509
000230 72 23 f0 bd d2 d8 fb bd 40 8b 2d 3e 36 74 01 be
       -0.11725511 -0.122972146 0.16947651 -0.12641987
000240 90 9c f1 bb 08 da 26 3d 7d 71 19 be 5c 86 96 3d
       -0.0073734 0.040735275 -0.14984699 0.07349846
000250 2e 2c 24 be 53 41 bd bd b3 ec 38 bd 3c 4a e0 3c
       -0.16032478 -0.09240975 -0.04514761 0.027379148
000260 c4 82 71 bd 89 02 89 3d 04 92 81 bd 90 56 24 3d
       -0.0589626 0.06689937 -0.063266784 0.040121615
000270 2a ba 69 3d 61 a0 34 be eb f3 64 bd 42 aa e6 bc
       0.057062306 -0.17639305 -0.05589668 -0.028157357
000280 75 ea 6f 3d dc 09 11 3e e3 b8 c9 3b d8 0d 2c be
       0.058573205 0.14163917 0.0061560734 -0.16802156
000290 51 2e b5 3b da bc 9f 3d 77 be 07 be 81 11 cb 3d
       0.005529203 0.077996925 -0.1325625 0.09915448
0002a0 2e e4 b8 bd d4 fd b9 bd 1e 96 28 be 25 4a 3d bd
       -0.09027897 -0.09081617 -0.16463515 -0.046213288
0002b0 f9 83 b6 bd 79 94 71 bd 63 82 16 bd 72 d0 0c 3e
       -0.089118905 -0.058979485 -0.03674544 0.1375139
0002c0 1d 8e fc bd 75 f0 e3 3c 10 a0 cd bd d4 46 07 bd
       -0.123317935 0.02782462 -0.10040295 -0.03302653
0002d0 67 2e 05 be a3 8c 08 be ba df 81 bd d3 f7 0f be
       -0.13005982 -0.13334899 -0.063415006 -0.14059381
0002e0 27 b6 b2 bc 39 f4 38 3d 1d 7c 33 be 42 a0 47 bd
       -0.021815373 0.045154784 -0.17527814 -0.048736818
0002f0 b4 4b df bc ea 8e ea bd 63 c8 51 bd f5 01 b3 bd
       -0.027257778 -0.1145304 -0.051216494 -0.08740608
000300 e6 86 65 bd 0d 49 f8 bd b5 a2 01 be bd ed cf 3d
       -0.056036852 -0.12123308 -0.12659724 0.10152767
000310 6b 65 40 3e 70 52 05 3e 08 24 3b 3e ea 1e 97 3d
       0.18788688 0.13019729 0.18275464 0.07378943
000320 71 ad f0 bd 96 f0 e2 3d 9b d3 1d be 7e 8c a7 3d
       -0.11751831 0.110810444 -0.15412752 0.08181094
000330 a4 6a 32 be e2 4a 46 3c a4 fc ff 3c 51 6d e0 bc
       -0.17423493 0.012102814 0.031248398 -0.027395876
000340 e2 6f 91 bc 9e 7d 10 be 02 ec c4 3d c7 03 80 bb
       -0.017753545 -0.14110419 0.096153274 -0.0039067003
000350 96 2e 08 3d 12 a2 1d be 8c 3e 21 be cd 29 90 bc
       0.033247553 -0.15393856 -0.15746516 -0.017598057
000360 27 1d 27 3e ec 09 6c 3d 82 eb fc 3d 15 7d 2c 3e
       0.16319714 0.05762665 0.12349607 0.1684459
000370 b2 e2 0a be 12 b1 be bd fb 54 f7 bc f5 d1 95 bd
       -0.1356304 -0.09311117 -0.030191889 -0.07315437
000380 95 a6 a4 bd 46 27 fb 3d 08 ba 9f bd 5c a7 05 bd
       -0.080395855 0.1226335 -0.077991545 -0.03263031
000390 62 ca 5c 3c 93 f6 00 bd 12 a5 2f 3e 9f a5 20 be
       0.013475986 -0.03148515 0.17152813 -0.1568818
0003a0 4a 24 2f 3e 8f 88 a2 3d 97 e6 23 3e d8 62 0c 3e
       0.17103687 0.07936203 0.16005932 0.13709581
0003b0 4b 82 e9 3d 29 5d 09 bc 93 15 23 be e4 f1 1d 3e
       0.114018045 -0.0083840275 -0.15926199 0.15424305
0003c0 a3 75 c8 bd 27 41 ab bd aa 3b b2 3d 75 ec 48 3d
       -0.097880624 -0.08362036 0.08702786 0.049053628
0003d0 ac f8 8c 3d 2e f9 cf bd 9b a2 16 3d 63 1d 81 3d
       0.06883368 -0.10154949 0.036776166 0.06304433
0003e0 30 13 e4 3d 97 1b b7 bd 5f 03 36 be 86 83 54 3d
       0.11136472 -0.08940809 -0.17774723 0.051883243
0003f0 73 f6 da 3d aa 0a f9 3c 13 b8 2b bd 4d a4 df 3c
       0.10691538 0.030400593 -0.041923594 0.027300024

features.3.bias f4 [64]
000000 82 8a c1 bd 54 62 bc 3d 6e 4e 1b be 40 f8 31 3e
       -0.094502464 0.09198442 -0.15166637 0.17379856
000010 b6 a1 fc 3d 49 1e ca 3c e1 01 aa bd 61 6c 54 bc
       0.123355314 0.024672644 -0.083011396 -0.012965293
000020 4b 88 2c 3e a8 8b 21 3e a0 eb 1e 3d e3 02 2c be
       0.16848867 0.15775931 0.03879893 -0.16797976
000030 ee 4c 26 bd de 25 f6 b8 43 09 1d 3b 5a d2 80 bc
       -0.04060071 -0.000117372474 0.002396182 -0.015725303
000040 bb 64 6c bd 19 76 9f bd 6c 32 4c bc c7 e0 0c 3e
       -0.05771325 -0.07786197 -0.012463193 0.13757621
000050 0a e6 02 be b8 43 87 bd 47 7f 2b 3c b2 03 2a bc
       -0.12783065 -0.06604713 0.010467357 -0.010376858
000060 67 de f0 bd f7 97 ad 3c ba 54 86 3d e2 d6 06 be
       -0.1176117 0.021190627 0.06559129 -0.13167909
000070 01 28 3e bd d7 05 f1 bd 78 69 45 bd 6b 35 d3 bd
       -0.04642487 -0.11768692 -0.048196286 -0.10312923
000080 bb de 8e 3d 19 63 ff 3d 3a c4 c7 bd 12 99 ae 3c
       0.06976076 0.12470073 -0.09754224 0.021313224
000090 cd 2a f1 bd a0 1f 09 3e 84 12 07 3e cd a6 f0 bd
       -0.11775742 0.1339097 0.13190657 -0.11750565
0000a0 a1 64 14 3e 95 72 23 bd 78 d9 80 39 fe 88 b9 3d
       0.14491512 -0.039904196 0.0002457609 0.09059332
0000b0 19 9f ca bd 15 b7 25 be a8 89 d7 bd f9 3b 24 be
       -0.09893627 -0.16183122 -0.10524303 -0.16038503
0000c0 61 8f e6 bd 3d d0 60 3d 5a be 0d bd a3 3e ca 3c
       -0.11257816 0.05488609 -0.03460536 0.02468807
0000d0 97 48 99 bd 9f 8e 21 3e a6 a8 bb 3d f7 74 6d bb
       -0.074845485 0.15777062 0.091630265 -0.0036233047
0000e0 aa 2e 22 3e 99 7c e2 bd fb 95 00 be 24 72 dc bd
       0.15838113 -0.11058921 -0.12557213 -0.10763958
0000f0 b4 8f 30 3e c9 91 ba bd b1 3f c8 3d e4 58 d9 3d
       0.17242318 -0.091098376 0.09777773 0.10612658

features.4.weight f4 [64]
000000 9d 16 81 3f 2a 39 80 3f 33 e2 7d 3f 3f 0d 81 3f
       1.0085026 1.0017445 0.9917328 1.0082167
000010 ae 2e 7f 3f ba 23 7f 3f e2 be 81 3f d8 4e 80 3f
       0.996806 0.9966389 1.0136378 1.0024061
000020 1b 9b 7e 3f 2c ed 7f 3f 2d 85 7f 3f 28 1d 80 3f
       0.9945542 0.9997127 0.99812585 1.0008898
000030 8a 0d 80 3f 13 6c 81 3f eb 6a 80 3f 7a d0 80 3f
       1.0004132 1.0111107 1.0032629 1.0063622
000040 b2 0a 81 3f cd 21 80 3f 9e 73 80 3f 3d 68 7e 3f
       1.0081389 1.0010315 1.0035284 0.99377805
000050 25 23 7f 3f a4 f9 80 3f 3e 7c 80 3f 9b 9c 7f 3f
       0.99663 1.0076184 1.0037916 0.99848336
000060 cd 92 7f 3f 01 bd 7e 3f f3 85 7e 3f 2c f0 7e 3f
       0.99833375 0.9950715 0.9942314 0.99585223
000070 a2 77 7e 3f 34 58 80 3f df 33 80 3f c6 16 80 3f
       0.99401295 1.0026917 1.001583 1.000695
000080 c9 64 81 3f 7a 4f 80 3f 4c d9 80 3f c7 00 7f 3f
       1.0108882 1.0024254 1.0066314 0.9961056
000090 e3 26 7e 3f be 3b 80 3f 47 e9 80 3f ae a7 7c 3f
       0.99278086 1.0018232 1.007119 0.9869336
0000a0 42 e2 7e 3f 18 1c 7e 3f 08 6c 80 3f d8 e1 7f 3f
       0.9956399 0.9926162 1.0032969 0.99953985
0000b0 7c 5e 7f 3f c7 d9 80 3f 22 2c 80 3f af d4 7f 3f
       0.99753547 1.006646 1.0013468 0.99933904
0000c0 94 a6 81 3f 0b 56 7f 3f 53 aa 7e 3f b1 37 7f 3f
       1.0128961 0.99740666 0.99478644 0.99694353
0000d0 cb c0 7f 3f 77 31 7d 3f 09 ce 80 3f c9 8d 7f 3f
       0.99903554 0.989036 1.0062877 0.9982572
0000e0 52 11 7f 3f 72 74 80 3f 55 51 7d 3f 4b 5b 80 3f
       0.99635804 1.0035536 0.9895223 1.002786
0000f0 6a de 80 3f 12 c1 80 3f 47 ff 7e 3f a6 56 80 3f
       1.0067875 1.005892 0.9960827 1.0026443

features.4.bias f4 [64]
000000 d4 40 ce 3b e7 d3 0c 3b 48 39 0f 3a 51 ec 1f 3a
       0.006294349 0.0021488608 0.00054635527 0.00061005825
000010 e9 10 53 bb a4 fc 28 bb cd 98 53 3c 23 66 86 3b
       -0.0032206124 -0.0025785351 0.0129148485 0.004101531
000020 78 65 3d bb d1 5f 17 bb 89 28 a2 bb 10 7f ab 3b
       -0.0028899591 -0.0023097883 -0.00494868 0.005233653
000030 e8 42 74 3a 55 0a 36 3c df fe 9f 3b 4c 0b 92 ba
       0.0009317831 0.011110862 0.004882678 -0.0011142283
000040 ef 3d cb 3b b9 9e 8f 3a 55 14 28 3b 23 58 06 3a
       0.0062024514 0.0010957337 0.0025646884 0.0005124828
000050 3c 33 13 bc a6 d4 76 3c a4 09 66 3b b6 a6 f1 ba
       -0.008984383 0.015065348 0.003510096 -0.0018436525
000060 6b a6 09 bb 15 30 b8 bb ad f8 91 3a 2b 87 a4 bb
       -0.0021003734 -0.005620966 0.0011136733 -0.005020996
000070 88 d9 85 bb 79 f3 8f 3b f6 e4 99 3a 10 74 b8 3a
       -0.0040847696 0.004393038 0.0011741209 0.0014072675
000080 93 e1 80 3b 00 0d 23 3b b3 a0 1d 3c 59 18 58 bb
       0.0039331405 0.0024879575 0.009620833 -0.0032973497
000090 5b e4 21 bc 69 ff 82 3b cb 6d da 3b 80 3f 4c bc
       -0.009881104 0.0039977324 0.0066659204 -0.012466311
0000a0 69 50 52 bb bf 00 fb bb b1 5f 47 3b 15 21 d2 3b
       -0.0032091385 -0.007660001 0.0030422027 0.006412635
0000b0 f5 6b bd bb 1e db da 3b 0d fe ae 3a e4 72 22 bb
       -0.0057806917 0.006678953 0.001335086 -0.0024787718
0000c0 60 2a 3c 3c d9 85 0f bc 9f 60 0e bc b8 b6 85 bb
       0.011484712 -0.008759939 -0.008690028 -0.0040806197
0000d0 8b 84 97 bb 97 61 26 bc f1 0b 58 3b 1c 68 cb bb
       -0.0046239547 -0.010155103 0.0032966102 -0.006207479
0000e0 88 e5 ac ba 21 58 65 3b 50 9f 36 bc 82 19 8a 3b
       -0.0013190964 0.0034995156 -0.0111463815 0.0042144665
0000f0 65 3b 11 3c cc 3c 00 3c bc b4 0e bc 74 a8 4f 3b
       0.008864258 0.007826995 -0.008710083 0.00316861

features.4.running_mean f4 [64]
000000 19 bd 2a 3e bb 3b 69 be 98 0e d1 3c 72 b0 a1 3e
       0.16673698 -0.22776692 0.025519654 0.3157993
000010 92 4a 29 be ae eb 21 bf 0d 24 e8 bd 9a b7 78 3e
       -0.16532353 -0.63250244 -0.11335001 0.24288788
000020 a2 ca c7 3e d6 9d 53 be 11 36 86 be 1c 1d 2d 3d
       0.39021784 -0.20665678 -0.26213124 0.04226409
000030 c8 29 66 3d 8a ca 3d 3d 58 25 db 3e 80 de 61 bd
       0.05619219 0.046335734 0.4280193 -0.055143833
000040 c0 d7 88 be 3d ef 80 bd 06 df 31 3e a9 e6 20 be
       -0.26727104 -0.06295631 0.17370233 -0.1571299
000050 66 28 41 bc b9 5b 35 be 06 ef 53 3e c5 0a 0b 3e
       -0.011789417 -0.1771077 0.20696649 0.13578327
000060 ed 9e 3e bb d8 7c 2b bc 87 35 83 bd 23 d3 6a be
       -0.0029086426 -0.010466777 -0.06406694 -0.22932105
000070 ad 12 77 3e 48 b6 58 be 62 d8 97 be da 98 9f 3c
       0.24128218 -0.21163285 -0.29657274 0.019482065
000080 d4 18 10 3f f0 49 41 be af a6 d5 be 40 47 00 be
       0.56287885 -0.18875861 -0.41728732 -0.1252718
000090 5a 8e e6 bd 7a d1 02 3e 76 17 21 bd 36 af 66 3d
       -0.1125762 0.12775221 -0.039329015 0.056319438
0000a0 ae 65 2f 3f 7c 33 a5 3e 7d cd ac be 8c c9 87 be
       0.68514526 0.32265842 -0.33750525 -0.26520956
0000b0 41 86 8f be fd 96 31 be 22 5b b1 be 72 b5 f8 be
       -0.28032115 -0.17342754 -0.3463984 -0.48575932
0000c0 b0 a8 45 3e cc d8 a7 3e ea f7 0c 3e c0 dd 4b 3e
       0.1930263 0.3278259 0.13766447 0.1990881
0000d0 b6 76 93 be 8a 53 07 3f 66 cc fb 3d 99 51 9f 3e
       -0.28801507 0.52861845 0.12294845 0.31116942
0000e0 2f 2f 9c bd 05 49 b6 3d c0 18 ad bc d6 3b 87 be
       -0.07626187 0.08900646 -0.021129966 -0.2641284
0000f0 3c 72 e2 3d a0 fc 23 bf 54 3c e4 3d 86 54 85 3c
       0.11056945 -0.6405735 0.11144319 0.016275655

features.4.running_var f4 [64]
000000 9c a5 e8 3d 67 87 14 3e 99 d9 b4 3e df a3 f1 3d
       0.113597125 0.14504777 0.35322264 0.11798834
000010 53 8e be 3d 36 4e 21 3e af b4 d0 3d bc d6 02 3e
       0.0930449 0.15752491 0.10190713 0.12777227
000020 34 25 16 3e 9b c8 0f 3e 35 de fa 3d e0 57 e7 3d
       0.1466263 0.14041369 0.12249414 0.11296058
000030 0f d8 4e 3d e5 74 08 3e 6a 1d 8f 3d 89 b5 ae 3d
       0.05049902 0.13325842 0.06988032 0.08530719
000040 36 9a 87 3d 52 8c 91 3d 23 45 2b 3d 1b 4d a6 3d
       0.0662121 0.07106842 0.04181398 0.081201755
000050 d4 e0 de 3d 26 6c 85 3d ae 43 d7 3d 4c b6 68 3d
       0.10882726 0.06514768 0.10510956 0.056814477
000060 04 e0 72 3d a4 ba ff 3d 7e d8 9e 3d d2 a9 31 3e
       0.05929567 0.12486771 0.07756136 0.17349938
000070 2b d3 0f 3e 1c 80 45 3d d8 a8 30 3e 29 bc 7e 3d
       0.14045398 0.048217878 0.17251909 0.062191162
000080 a2 94 fc 3d 70 28 d7 3d 89 25 8d 3d 6d ec 3b 3e
       0.12333037 0.1050576 0.06891925 0.18351908
000090 bb da 52 3d b1 4e 04 3e 2e fd 02 3e 9b bb 2f 3e
       0.05147813 0.12920643 0.12791893 0.1716141
0000a0 72 81 13 3e 1d 18 42 3e fb 71 8e 3e 35 d6 20 3e
       0.14404848 0.18954511 0.27821335 0.15706713
0000b0 60 84 98 3d 44 68 79 3d c5 75 93 3d 86 0f ff 3d
       0.074471235 0.06089045 0.07200197 0.12454133
0000c0 df 35 5a 3e 50 d2 7e 3d 05 c5 ac 3d 6f 0c a0 3d
       0.21309613 0.06221229 0.08436016 0.078148715
0000d0 21 e0 bf 3d 13 fa 9e 3d ab d8 90 3d dc 2c 9e 3d
       0.09368921 0.077625416 0.07072576 0.077234
0000e0 64 69 d9 3d f5 12 32 3e eb aa 2b 3d 47 3d c3 3d
       0.10615805 0.17390044 0.041911047 0.09533172
0000f0 c9 4c 48 3e 37 7c 21 3e 88 85 4e 3d bf 6b 81 3e
       0.19560541 0.1577004 0.050420314 0.25277516

features.7.weight f4 [128, 64]
000000 21 2f f0 bd 64 9b ea bd 70 4e e8 3d 12 cf 06 3b
       -0.11727739 -0.1145542 0.11343086 0.00205702
000010 b3 22 af 3d 72 c3 f5 bc f7 9f ca 3d c7 92 a7 bd
       0.0855154 -0.030000422 0.09893792 -0.081822924
000020 1a f0 b0 bd b6 70 69 bd b5 c3 48 3d 91 67 d3 3d
       -0.08639546 -0.056992255 0.049014766 0.10322488
000030 e9 ed ed bd 9c ae 02 bd 8a d0 c4 bd da f6 56 3d
       -0.116176434 -0.0319048 -0.09610088 0.05248151
000040 72 7c a4 3d 04 17 09 3c d3 9c 35 bc 9e 3f bf bd
       0.080315486 0.008367304 -0.011084753 -0.09338306
000050 b5 73 9a bd df 77 f3 bd 75 78 a5 bd 05 9b f6 bd
       -0.075416006 -0.11888098 -0.08079616 -0.120412864
000060 c4 96 91 3a c0 a8 d0 bd 86 68 64 3d eb 10 29 3a
       0.0011107554 -0.101884365 0.055763744 0.00064493594
000070 3a 44 9f 3d be e7 ed bc b8 5f e9 bd e4 99 05 3d
       0.07776685 -0.029041167 -0.1139521 0.032617465
000080 68 5f 44 3d f1 1a 57 3d a9 e5 35 3d 23 04 a6 bd
       0.04794255 0.052515928 0.044408474 -0.08106258
000090 78 1c ad 3c 4c 4a 87 bd 08 2c fd 3d ce bd a5 3d
       0.021131739 -0.06605968 0.12361914 0.08092843
0000a0 2b b6 f4 bd 49 d7 fd bd c4 24 0a 3d 0c a2 00 be
       -0.11948808 -0.12394578 0.03372647 -0.12561816
0000b0 18 cf d1 3d c5 69 58 bb 29 4e 34 bd b0 a7 b4 3d
       0.10244578 -0.0033022028 -0.04401985 0.08821046
0000c0 23 6b cb bd 76 26 65 3d e5 72 73 3d be 63 04 bd
       -0.09932544 0.055944882 0.059435744 -0.032321684
0000d0 01 88 df 3c 84 7b 11 bc af e3 97 bc 3d be dd 3d
       0.027286531 -0.008879546 -0.018541185 0.10827301
0000e0 f6 8f f8 bd 97 fe e1 3d 5c 6c 90 bd 53 5f f9 3d
       -0.12136833 0.11034887 -0.07051918 0.12176385
0000f0 d9 a2 cf 3d e7 be 05 be 11 b7 2e 3d fc 7f 9d 3d
       0.101384826 -0.13061105 0.042655054 0.07690427
000100 1b f9 04 3c 5a 82 70 bd 3c 4a e0 3c dd 1f ec 3d
       0.008116032 -0.058718063 0.027379148 0.11529515
000110 66 4c 88 3d 22 6f e8 bd 37 dd 9f bd e6 fb b6 bd
       0.06655197 -0.11349322 -0.07805865 -0.089347646
000120 50 75 b5 3d 43 b7 d8 3d 8e 1c 9d 3d 0a 30 fe bd
       0.08860266 0.105818294 0.07671462 -0.124115065
000130 e4 18 ea bd bd d8 f8 bd 63 e5 6d bd d8 38 bd 3c
       -0.11430529 -0.121507145 -0.05808009 0.023098394
000140 43 e3 0a 3e 4f 0a a0 3c df 1e 7a 3a 23 8d 20 3d
       0.13563256 0.019536166 0.00095413433 0.0391971
000150 d4 ae fa bd d6 9d 00 3d 0b d0 a3 bd 2e e7 f2 bd
       -0.12240377 0.031400524 -0.079986654 -0.118605
000160 24 a1 b7 bd 6d 45 a3 3d aa 09 28 3d 28 e7 b8 bd
       -0.08966282 0.07972226 0.04102484 -0.090284646
000170 09 18 64 bd 14 b8 b7 bd 4c 00 cc 3d 69 1a b3 bd
       -0.055686984 -0.08970657 0.09960994 -0.08745272
000180 42 ac 1f 3c 43 e3 8d 3d 95 cb a3 3c 0c a4 32 3c
       0.009745659 0.06928112 0.019994536 0.01090337
000190 6f 43 ec bd a3 04 c0 bd 67 c2 08 bd 99 5a 79 3d
       -0.115362994 -0.093758844 -0.03338852 0.060877416
0001a0 65 97 29 bd 1c e0 33 3d 10 58 62 bd 22 7e 39 3b
       -0.041404147 0.0439149 -0.055259764 0.002830394
0001b0 88 cc 31 bd 5d 2a c8 bd 59 63 b7 3c dd e1 91 3d
       -0.043407947 -0.09773705 0.02238624 0.07123158
0001c0 13 78 b5 bd d2 e7 e7 bd 3a fe 6a bb c0 61 66 3d
       -0.08860793 -0.11323513 -0.0035857097 0.056245565
0001d0 9f 14 fc 3d 52 a0 ff 3c 9b 21 c4 3d d1 e0 d8 bd
       0.12308621 0.031204376 0.09576722 -0.10589755
0001e0 68 99 cb 3d 61 ab 1d 3d 7c 29 8c bd 9b 9d 43 bd
       0.09941369 0.038493518 -0.0684385 -0.047757726
0001f0 37 23 d1 bd b9 51 01 bd 92 bc 2e 3c 12 d6 8d bd
       -0.10211795 -0.031572077 0.010665076 -0.06925596
000200 a8 3f 95 bc 93 5d a6 3d 10 4e 63 bd 84 30 e8 bd
       -0.01821883 0.081233166 -0.055494368 -0.113373786
000210 63 9b e6 3d 9e a0 78 bd cb 11 8a 3d de 87 26 3d
       0.112601064 -0.06070005 0.06741675 0.040656917
000220 08 5c 07 bc 7b 09 fa bc bf 26 ef bd cd c1 01 3d
       -0.008261688 -0.030522099 -0.11677312 0.031678963
000230 c8 d5 90 3d 36 bb bf 3d be 59 f3 3d fd 3a 60 3d
       0.070720255 0.093618795 0.11882351 0.054743756
000240 b6 6a 30 3d 56 bc 02 3e 33 55 fc 3d 9b 4a 18 bd
       0.043070517 0.12767157 0.12320938 -0.037180524
000250 81 6a 05 3d 68 07 6a bc 6c c7 93 bd 92 43 5c bd
       0.032572273 -0.014283992 -0.07215771 -0.053775378
000260 7d af d0 3d d8 82 94 3d d6 a0 f8 3c ab f8 ad 3d
       0.10189722 0.07251519 0.03035013 0.08494695
000270 4e c0 8e bd 88 de d5 bd 70 7a 95 3d 8a 63 cd bc
       -0.06970273 -0.10442835 0.07298744 -0.025071878
000280 87 18 fa 3d 12 b5 b7 bd b6 96 b1 3d e6 b2 51 bc
       0.122117095 -0.08970083 0.08671324 -0.012799
000290 0c fc 95 bd a7 8b b4 3d 28 98 f8 bd 37 bc a3 bd
       -0.07323465 0.08815699 -0.121383965 -0.079948835
0002a0 f7 b3 cd bd d5 f3 ec bb d4 94 12 bd 8f 5c e8 bd
       -0.10044091 -0.0072312155 -0.035786465 -0.11345779
0002b0 68 02 e7 3d 14 62 ea bd e8 b3 ac 3d c9 e4 e5 bc
       0.11279756 -0.11444488 0.08432752 -0.028063195
0002c0 f7 c4 ac 3d b4 3a 0b 3d 39 42 cd 3d 05 ce a3 bd
       0.084360056 0.03399153 0.100223966 -0.079982795
0002d0 59 ad a0 bd 4a f3 03 3e c9 9f 2e bd 3f 9f 6f bd
       -0.078455634 0.12885776 -0.04263285 -0.05850148
0002e0 14 92 df bd 85 6c b5 3d 28 b6 53 3d 0a 40 8a bd
       -0.10916534 0.08858589 0.05168739 -0.06750496
0002f0 03 6a a0 3d 5e 9e d2 bd 49 13 10 bd 06 22 48 3b
       0.0783272 -0.102841124 -0.03517464 0.0030537858
000300 ec 68 c0 bd 4d a0 07 bd 2a 99 97 3c 10 02 5f 3d
       -0.09395012 -0.03311186 0.018505652 0.054445326
000310 a8 fa b0 bd 70 6a 0c be 2d cf 1c bc ff e9 98 bc
       -0.08641559 -0.13712478 -0.009570879 -0.018666266
000320 fd 3f dc bd a6 00 84 bd c0 d1 66 3d 9b 60 08 bd
       -0.10754392 -0.06445436 0.056352377 -0.033295255
000330 55 c6 03 bd 1c 23 c3 3d 79 ae 88 bc f5 92 cc 37
       -0.032171566 0.09528181 -0.016684758 2.4387127e-05
000340 c1 ed f7 bd b9 fa 30 3d c0 02 31 bd 15 71 b4 bc
       -0.12105895 0.043207858 -0.043215513 -0.022026578
000350 07 10 d1 3d d1 2f 3a 3b ba ae 00 3d 4c 18 50 3d
       0.10208135 0.0028409848 0.031416632 0.05080442
000360 78 da e1 bd 02 1d 03 3e 0c ce a2 3d 24 e9 a1 3d
       -0.11027998 0.12804034 0.079494566 0.07905796
000370 a1 51 9b bd 95 e0 e7 3c f2 51 90 bd 10 9a f2 3d
       -0.07583929 0.028305331 -0.0704688 0.11845791
000380 60 2b 47 3c d6 73 02 3d 04 90 aa bc 20 83 8e 3d
       0.0121563375 0.03184875 -0.020820625 0.06958604
000390 aa b3 f7 3c e0 13 49 3c 64 68 27 3d 56 a0 cb 3d
       0.030237038 0.012272805 0.04087104 0.09942691
0003a0 bc 50 f1 bd a6 fb 7b 3d 5c 69 5d 3d 3b 98 d6 bd
       -0.11782977 0.061519288 0.054055557 -0.104782544
0003b0 fa b5 5b 3d f1 1c b8 bd 89 20 66 3d 0e d1 85 3d
       0.053640343 -0.08989895 0.05618337 0.06534015
0003c0 5f f6 b4 bc 44 61 b6 bd 43 87 35 3d 7f f7 bf bd
       -0.022090135 -0.08905271 0.04431845 -0.09373378
0003d0 6e e6 b2 3d 73 b9 5a bd 7b c1 8f 3d 15 47 07 be
       0.08735357 -0.053399514 0.07019325 -0.1321071
0003e0 08 75 e2 bd 0a ef 77 3d 72 61 61 3d e5 a4 bd bc
       -0.11057478 0.0605307 0.05502457 -0.023149917
0003f0 6b 42 80 bd 86 7e 20 3d e9 af ef 3d 92 e7 19 bd
       -0.06262668 0.039183162 0.11703474 -0.03757436

features.7.bias f4 [128]
000000 bb 25 7f bc ad 16 54 3d a4 cd 82 3d 34 c8 f1 bd
       -0.0155729605 0.051779438 0.06386879 -0.11805764
000010 43 39 90 3d 68 21 7e 3d 6a 9c 31 bd ad 2b b9 3d
       0.07042172 0.062043577 -0.04336206 0.090415336
000020 69 42 20 bd a9 6c ca bd 8a d9 46 bd c3 fd e5 3d
       -0.039125834 -0.098840065 -0.048547305 0.11230042
000030 7b 93 d6 3c 0c 51 75 bd f3 16 c2 3d d2 0a a1 3d
       0.026193371 -0.059891745 0.094770335 0.07863392
000040 05 c7 10 3d 13 d4 3b 3d 5a f6 d0 3d cc 87 92 3d
       0.03534605 0.045856547 0.10203238 0.071548074
000050 29 5d e3 bd e2 b5 48 3d df e6 cd bd 69 cc b7 3c
       -0.11101753 0.049001582 -0.10053801 0.022436338
000060 74 6f 53 bc 6f 57 b7 3d 6a b6 f7 3d cb c2 e4 3d
       -0.01290499 0.089522235 0.120953396 0.11169966
000070 73 9e dc 3d e2 7e 15 bd 67 2a 92 3d 8e d3 bc bc
       0.10772409 -0.036497958 0.07136994 -0.023050096
000080 8e 97 64 bc 13 fb cf bd 3d 0c 2f bd 33 2a 46 3d
       -0.013952149 -0.101553105 -0.04273628 0.048380088
000090 41 11 6c bd 77 cf 3b 3b d3 bc e5 3d 6b 94 65 3d
       -0.057633642 0.0028657594 0.11217656 0.056049746
0000a0 fb de 34 3c ef 78 82 bd f8 dd 71 3b 11 45 30 3d
       0.011039491 -0.063707225 0.0036905985 0.043034617
0000b0 da 99 c6 3d af a3 fb bd a7 06 3c 3d 13 b1 ea 3d
       0.096973136 -0.122870795 0.04590478 0.114595555
0000c0 6c 15 2c 3d f3 04 ba bd 1d 1f cb bd 26 13 bb 3d
       0.042012617 -0.09082975 -0.09918044 0.09134512
0000d0 05 a5 60 bd f3 30 65 bd 21 0b c9 bd ba 72 07 3d
       -0.054844875 -0.055954885 -0.09816576 0.033068396
0000e0 21 60 b5 3d aa 87 e7 bd 5e 4e 97 3d 93 ba 6c 3d
       0.08856226 -0.11305173 0.07387994 0.05779512
0000f0 aa b6 48 3d 5e 01 f7 bd d5 4a a5 3d 62 98 64 bd
       0.049002327 -0.12060808 0.08070914 -0.055809386
000100 0c 6b e6 3d b9 64 b0 3d 89 d3 5f 3c e5 cb 3b bc
       0.11250886 0.08612961 0.013661274 -0.011462186
000110 73 19 9b bd 1d 9a fe 3d 1a d2 7d 3c e0 34 ae bd
       -0.075732134 0.124317385 0.015491987 -0.08506179
000120 1c 03 ee bd 1a 46 86 3d 51 79 fb 3d eb ca eb bc
       -0.11621687 0.065563396 0.12278999 -0.028783282
000130 c7 d6 f6 bd 58 9c b2 bd 10 54 93 3d a1 59 ae bd
       -0.12052684 -0.087212265 0.07193768 -0.08513189
000140 da 66 d2 bd 56 27 92 bd 89 6a e5 bd fc fb ca bd
       -0.10273524 -0.07136409 -0.112019606 -0.099113435
000150 31 a7 7b 3d d1 32 3d bd 7d aa a5 bd d9 48 04 3d
       0.061438743 -0.04619104 -0.08089159 0.032296035
000160 36 71 07 3d da 21 93 bd 90 b5 7a bd e2 c6 ee 3c
       0.03306695 -0.07184191 -0.061208308 0.02914757
000170 aa ff 85 bc 30 d2 fe 3d 2d 97 dd bd e4 8b 80 3d
       -0.016357262 0.12442434 -0.1081985 0.06276682
000180 ad 05 71 3d 29 00 bc 3b 38 9e eb 3d 60 cc 23 bd
       0.058843303 0.005737324 0.11504787 -0.03998983
000190 11 7f 4c bd d1 be dc bd 41 bd 99 bc 60 cb a8 bc
       -0.049925867 -0.10778583 -0.018767001 -0.02060479
0001a0 9a f0 d1 bd f6 9e d7 bd e3 ee 87 bd 2d f3 07 bd
       -0.10250969 -0.10528366 -0.06637361 -0.033190895
0001b0 33 15 1b 3c a9 b3 d8 bd e6 b6 df bd 35 3f 85 bd
       0.0094655035 -0.105811425 -0.10923557 -0.065061964
0001c0 ed ba ca bd f0 0d 7d bd 71 c8 41 3d 7c 68 9d bd
       -0.098989345 -0.06178087 0.047310296 -0.076859444
0001d0 25 61 14 bc 7c 37 e6 3d db 73 f7 3d b1 8b c2 bd
       -0.009056364 0.112410516 0.120826446 -0.094993
0001e0 8e 85 a9 3d 96 48 e6 bd 5c bb 37 bd c4 2d 7e bd
       0.08277427 -0.112443134 -0.044856414 -0.062055364
0001f0 82 ac a9 3d d0 6d 97 3c 10 c2 f3 3b ef 3c 0e bc
       0.082848564 0.01848498 0.0074389055 -0.00868152

features.8.weight f4 [128]
000000 aa cf 7e 3f 01 7c 7f 3f 22 b4 7d 3f e8 01 81 3f
       0.9953562 0.9979859 0.99102986 1.0078707
000010 da 3f 7d 3f 75 98 7d 3f e4 c8 7d 3f 47 fd 80 3f
       0.98925555 0.99060756 0.9913466 1.0077294
000020 d2 0c 7d 3f c5 bd 7e 3f 11 e3 80 3f f7 e8 80 3f
       0.9884769 0.99508315 1.0069295 1.0071095
000030 32 f4 80 3f 02 0a 80 3f 79 94 7d 3f 18 43 7f 3f
       1.0074522 1.0003054 0.99054676 0.9971175
000040 ca 79 80 3f c2 91 80 3f ae d3 80 3f f5 6f 7d 3f
       1.0037167 1.0044482 1.00646 0.9899896
000050 f2 e1 7d 3f 4b d8 7e 3f 4a f9 80 3f f2 af 80 3f
       0.9917289 0.99548787 1.0076077 1.0053694
000060 29 a8 7f 3f 60 27 80 3f 74 9a 7d 3f a5 6c 7f 3f
       0.9986597 1.0012016 0.990638 0.99775153
000070 94 6a 7e 3f 4a d9 7e 3f c3 b3 7f 3f ea e8 80 3f
       0.99381375 0.99550307 0.9988367 1.007108
000080 48 4a 80 3f e6 6a 80 3f 72 8a 7f 3f 2a d2 80 3f
       1.0022669 1.0032623 0.99820626 1.0064137
000090 ac c9 7e 3f 27 f0 80 3f 79 f0 80 3f 22 7b 81 3f
       0.99526477 1.0073289 1.0073386 1.0115702
0000a0 a6 87 7e 3f 0a 37 80 3f 8c fa 7f 3f 42 b8 80 3f
       0.99425733 1.0016797 0.9999168 1.0056231
0000b0 20 fa 7d 3f 89 76 7f 3f 31 c0 7d 3f df d7 7f 3f
       0.99209785 0.99790245 0.99121386 0.9993877
0000c0 3d 21 81 3f d0 db 7b 3f b7 24 80 3f 45 65 7e 3f
       1.0088269 0.9838228 1.0011204 0.99373275
0000d0 6b db 7e 3f 34 06 80 3f 36 e2 7d 3f db 3e 7f 3f
       0.99553555 1.0001893 0.99173295 0.99705285
0000e0 01 62 80 3f 01 24 7f 3f 97 c0 7f 3f 8c de 80 3f
       1.0029908 0.9966431 0.99903244 1.0067916
0000f0 b4 4d 80 3f 0e 05 81 3f 4d cb 80 3f c8 01 7e 3f
       1.0023713 1.0079668 1.0062042 0.9922147
000100 f8 55 80 3f fe fa 7e 3f 7d f5 7d 3f 39 da 7f 3f
       1.0026236 0.99601734 0.9920271 0.99942356
000110 d2 6f 7f 3f 62 06 7e 3f 89 d7 7f 3f 73 3c 80 3f
       0.9978 0.9922849 0.99938256 1.0018448
000120 a4 fd 7f 3f 53 14 7f 3f 35 e7 80 3f 50 2e 7f 3f
       0.999964 0.9964039 1.0070559 0.9968004
000130 2a 13 7f 3f 5d e3 7d 3f 05 32 7e 3f 3f 49 7e 3f
       0.9963862 0.99175054 0.99295074 0.99330515
000140 80 d8 7f 3f 14 dd 80 3f 0e df 81 3f ad 8d 80 3f
       0.9993973 1.0067468 1.0146196 1.0043236
000150 9c 68 7f 3f 99 25 80 3f ea 97 81 3f 06 49 80 3f
       0.99768996 1.0011474 1.0124485 1.0022285
000160 f9 ec 80 3f 0f 6d 80 3f a0 cd 7f 3f 14 1c 80 3f
       1.0072318 1.0033282 0.99923134 1.0008569
000170 5a 08 81 3f de 50 80 3f 93 fd 7d 3f d6 21 80 3f
       1.0080674 1.0024679 0.9921505 1.0010326
000180 67 9f 7d 3f 51 41 7e 3f a7 8f 7f 3f 2e f5 80 3f
       0.99071354 0.99318415 0.9982857 1.0074823
000190 32 7f 80 3f 98 01 7f 3f 6f d1 7e 3f 78 e4 7d 3f
       1.0038817 0.99611807 0.9953832 0.9917674
0001a0 2b 6c 7f 3f dd 0a 80 3f 3a a2 7e 3f 57 cb 7e 3f
       0.99774426 1.0003315 0.9946629 0.9952902
0001b0 6a 2c 81 3f 47 78 7f 3f 04 d8 80 3f 9f 36 7e 3f
       1.0091679 0.99792904 1.0065923 0.99302095
0001c0 25 c7 80 3f 0b 74 81 3f f3 d2 81 3f 12 35 80 3f
       1.0060774 1.0113539 1.0142502 1.0016196
0001d0 b5 71 7f 3f b3 7e 7e 3f 4f 4c 81 3f 74 02 7e 3f
       0.9978288 0.9941208 1.0101413 0.99222493
0001e0 d9 7d 7e 3f 71 66 80 3f f2 12 81 3f f8 ab 80 3f
       0.9941078 1.0031263 1.0083907 1.0052481
0001f0 96 73 7e 3f 88 41 7e 3f e5 0b 7f 3f d6 21 81 3f
       0.9939512 0.9931874 0.99627525 1.0088451

features.8.bias f4 [128]
000000 73 2b 92 bb 04 da 83 3a 25 cd 34 bc 9b 50 fd 3b
       -0.004460746 0.001005948 -0.011035238 0.007730556
000010 0b 22 22 bc e1 df 81 bb a0 0e 10 bc ac 81 2f 3c
       -0.009895812 -0.003963456 -0.008792549 0.0107120685
000020 51 a4 fd bb 48 95 a1 bb bc 65 90 3b c8 bf c6 3b
       -0.0077405353 -0.004931126 0.004406659 0.0060653426
000030 11 32 a1 3b 95 cf 7d 3b b5 26 17 bc 41 90 2a bc
       0.0049192985 0.0038728465 -0.009225537 -0.010410369
000040 09 fa 0d 3b cb 70 3b 3b 60 96 2d 3b fd 64 47 bc
       0.0021663925 0.0028601165 0.0026487336 -0.012170074
000050 0f c0 5e bb 2d 10 0f bc 4b bf 3e 3c 00 78 90 3b
       -0.0033988988 -0.008731884 0.0116422875 0.0044088364
000060 e6 de c9 ba 99 b7 83 3b 11 58 09 bc a6 b3 13 3a
       -0.0015401512 0.0040196893 -0.008382813 0.00056343747
000070 b8 8e bf bb 15 83 1a 3b 2d 1a 07 bb 48 04 00 3c
       -0.005845871 0.0023576666 -0.0020614967 0.007813521
000080 46 a9 98 3b e1 23 43 3b 0b 1e 16 bb c3 ea 6e 3b
       0.004658851 0.0029776024 -0.002290609 0.0036455847
000090 4e 13 09 bb 26 b0 10 3c 24 5f 1f 3c ff 9f 08 3c
       -0.0020916048 0.00883106 0.009727273 0.008338927
0000a0 5f 3d 10 38 04 15 a0 ba 9c 2c b8 ba ad 6d ec 3b
       3.438943e-05 -0.0012213294 -0.001405138 0.007215223
0000b0 55 92 1e bc f2 9d 1e 3a e6 94 0f bb 45 fb 51 ba
       -0.009678443 0.00060507574 -0.0021908819 -0.00080101594
0000c0 55 01 22 3c 25 9b 86 bb f8 9b 40 3b 06 34 1e bc
       0.009888013 -0.00410785 0.002938984 -0.009655958
0000d0 9f 01 9c bb 11 df 70 3b c4 6c ac bb 6c 09 39 bb
       -0.0047609354 0.0036754052 -0.0052619893 -0.0028234376
0000e0 1a 5b dc 3b 2c 3b 00 ba a6 15 12 ba 48 cf 92 3a
       0.0067247273 -0.000489163 -0.0005572684 0.0011200691
0000f0 02 18 c2 3b de fc 64 3c 53 93 c2 3b 18 6d 01 bc
       0.005923272 0.013976304 0.0059379726 -0.007899545
000100 80 5d 4d bb ed 51 39 3b bf 07 c1 bb c5 13 59 bb
       -0.0031336248 0.0028277591 -0.005890816 -0.0033123356
000110 70 c5 9f bb c9 b9 b7 bb 84 b9 3d ba 2d 14 dc 3a
       -0.0048758313 -0.005606864 -0.0007237422 0.0016790681
000120 02 c4 00 bb ca 76 8d bb dc 45 6d 3b 68 b7 25 bc
       -0.001964808 -0.0043171393 0.003620497 -0.010114528
000130 eb aa f2 39 43 fc a6 bb fc 97 d3 bb 28 e6 a5 bb
       0.0004628518 -0.00509599 -0.006457327 -0.005062837
000140 aa 39 52 bb 16 36 95 3b 9a b4 45 3c 1a ec b1 3b
       -0.0032077827 0.0045535667 0.012066985 0.005429757
000150 c2 82 0a bb cc 97 f4 3a 88 5b 75 3c 6e 68 f2 3b
       -0.0021135067 0.0018660962 0.014975436 0.007397703
000160 a5 02 60 3b 52 c6 85 3b 41 10 88 ba 21 c6 a8 3b
       0.0034181264 0.0040824795 -0.0010380821 0.005150572
000170 c4 a8 bf 3b d7 45 fb 39 19 32 dc bb 07 f5 27 3b
       0.005848976 0.00047926485 -0.0067198393 0.0025628225
000180 1a 53 07 bc 09 2b cf bb 34 f6 81 bb 81 50 7c 3b
       -0.008259559 -0.006322269 -0.0039661173 0.0038500133
000190 4b a0 9a 3a 0c b2 9c bb f1 b0 ea bb 1b cd 79 bb
       0.0011797039 -0.004781967 -0.0071622063 -0.0038116637
0001a0 02 5b 48 bb 65 1f e5 3b 8e 97 7f bb e4 e7 9c ba
       -0.0030571823 0.006992268 -0.0039000246 -0.0011970964
0001b0 68 94 2e 3c 95 d6 ee 38 23 e9 fc 3b f7 ec 29 bb
       0.0106555 0.000113886934 0.0077182218 -0.0025928596
0001c0 6e c9 aa 3b 50 ac 26 3c 23 3c 82 3c 15 15 55 bb
       0.0052120006 0.010172918 0.015897816 -0.0032513787
0001d0 4d 52 02 ba 5e 91 b2 ba 79 42 3f 3c a8 71 f7 bb
       -0.000497137 -0.0013623645 0.011673563 -0.0075513907
0001e0 2e c4 bc bb 78 66 a3 3a 44 c8 20 3c 00 25 93 3b
       -0.005760691 0.0012466451 0.009813372 0.0044904947
0001f0 41 5a fb ba 56 11 a0 bb c0 7a 45 bb 19 86 eb 3b
       -0.0019176678 -0.004884879 -0.003013298 0.0071876165

features.8.running_mean f4 [128]
000000 25 77 46 be 34 4d ad be a7 7a 58 3e 02 73 23 be
       -0.19381388 -0.33847964 0.21140538 -0.15961841
000010 fc 90 c2 3d 5e 51 25 3e 8d 39 83 bd b6 6d b4 3e
       0.0950031 0.1614432 -0.06407461 0.35239953
000020 f9 90 73 be 84 11 2e be ca 25 e0 3d 5e 2e 91 3e
       -0.23785771 -0.16998869 0.10944708 0.28355688
000030 18 48 a0 3d 03 77 4f be 92 26 84 be ea 5e 8e bd
       0.07826251 -0.20260243 -0.25810677 -0.06951697
000040 9a 67 f6 3e 65 0b 96 3d a0 53 04 3e 25 ed da be
       0.48125917 0.07326392 0.12922525 -0.42759052
000050 b6 99 23 3e cc b7 59 be af 99 e8 be 0b 82 82 3e
       0.15976605 -0.21261519 -0.4542975 0.2548984
000060 78 e4 eb be ed 2b 76 be 6b a8 04 bd a5 f7 b2 3e
       -0.46072745 -0.24040194 -0.03238718 0.34954563
000070 b4 c4 1f be bb 4d ae 3d 8c 73 85 bc fb 08 89 3c
       -0.1560238 0.0851092 -0.016290449 0.016727915
000080 01 68 29 be be 97 17 3e f4 25 66 bc 71 28 1d 3f
       -0.1654358 0.14803979 -0.014047135 0.61389834
000090 84 72 e4 be 22 46 0f 3f ea 87 81 be 30 2f be 3c
       -0.44618618 0.5596639 -0.25299007 0.02321586
0000a0 1c be 2d bc 61 aa 08 bd 7c a1 9d 3e c4 d1 9d 3c
       -0.010604408 -0.03336561 0.30787265 0.019265063
0000b0 0a bd 85 3e f5 8a d5 be b6 4d e6 3d 4a bc 4d be
       0.26120788 -0.41707578 0.11245291 -0.20091358
0000c0 30 de a8 3d df 9b 49 be 25 db 90 bd 65 73 4d 3e
       0.08245504 -0.19688366 -0.070730485 0.20063551
0000d0 9a 94 5c 3e 4a 8b 41 be af a1 2c 3e 74 8f 0f 3e
       0.21541062 -0.18900791 0.16858552 0.14019567
0000e0 88 9e 06 3e 3a aa 4e be ec af 60 bd 1f c7 29 3d
       0.13146412 -0.20182124 -0.054855272 0.041449662
0000f0 f2 04 8c 3e c2 b6 06 be 26 a9 17 3d 90 e1 25 be
       0.27347523 -0.13155654 0.037026547 -0.16199327
000100 af cf 9a bc d9 dd 86 3e 82 50 5c 3b 2a d5 d3 be
       -0.01889786 0.2634113 0.0033617322 -0.4137357
000110 52 da 38 bd 0d cc 54 3e 60 0c 29 be 14 65 02 be
       -0.04513008 0.20780964 -0.16508627 -0.1273387
000120 53 50 21 3d 8b ca c2 3e 00 94 fe 3e 6a 0e f7 3d
       0.039383244 0.38045153 0.4972229 0.12063296
000130 9f 77 2d 3c 1d 2b 6e be 41 09 46 be 40 db 89 3c
       0.010587602 -0.23258634 -0.19339468 0.01682818
000140 6a 5c b2 be ed 5c a5 be 67 92 c7 be d7 91 02 bf
       -0.3483613 -0.3229746 -0.38978884 -0.51003784
000150 75 20 62 be 62 ac c7 be b8 ff 2b bf 89 29 54 3e
       -0.22082694 -0.38998705 -0.6718707 0.2071897
000160 cf 4d 7e 3e ba 16 58 be 79 1e e8 bd b1 ff be 3d
       0.24834369 -0.2110242 -0.11333937 0.09326113
000170 46 f6 3c 3e 40 9c 13 3f f8 f2 d1 be e8 fc 96 3e
       0.18453321 0.57660294 -0.41005683 0.29489827
000180 7d 84 29 be b3 56 e2 3e 0e 69 a6 3e de 4d 25 be
       -0.16554447 0.4420677 0.32502025 -0.16142985
000190 16 bc 70 bd df 77 32 be b2 df 83 3e e7 ed e8 3d
       -0.058773123 -0.1742854 0.25756603 0.11373501
0001a0 b9 20 8c be 19 a3 e3 3d 43 0b 9e bd 2d b1 bc be
       -0.27368715 0.11115093 -0.07716992 -0.36853924
0001b0 6e 77 33 be 25 b4 47 3e 19 03 99 be 16 b5 32 bd
       -0.17526028 0.19502313 -0.29885176 -0.04362973
0001c0 9c e4 4b 3e ec c8 cf bd 8b 81 27 3e 34 02 22 3d
       0.19911426 -0.10145745 0.1635801 0.039552882
0001d0 77 31 58 3e bf 22 e9 3c 35 d4 79 3d 51 24 a5 be
       0.2111262 0.028458951 0.060993392 -0.3225427
0001e0 6f 25 4b 3e 7d 55 fe bc cc b5 c3 be 61 bd 94 3e
       0.19838499 -0.031046623 -0.38224638 0.29050735
0001f0 7c de 44 3f 18 fb 17 bf 0e 06 22 be 47 b4 1c be
       0.76901984 -0.59367514 -0.15822622 -0.15303145
