Project Pivot Final New/models/execution.onnx (onnx, 360240 bytes, 38 tensors)

features.0.weight f4 [32, 28]
0.06553228 0.15933038 0.13045968 -0.184205 0.0054701064 -0.110362515 0.116435066 0.12396667
-0.12152183 -0.16248533 0.13816859 -0.07229902 -0.022867406 -0.050104756 -0.013583959 0.09641641
0.048146464 0.021844126 0.091168664 -0.13267504 0.12504059 -0.024627754 0.038194757 0.17342535
0.1808691 -0.17925306 0.14525306 -0.17694099 0.015500743 -0.1862429 0.14903177 -0.05274741
0.059235916 0.11052763 0.100892626 0.13782445 -0.1854324 0.044526134 0.0653901 0.07362671
0.07966221 -0.119075425 0.13423364 -0.026834998 0.022480534 0.20003992 0.037708975 0.184285
-0.180779 -0.037536748 -0.17346317 0.01261561 -0.012756193 -0.13903289 0.1289612 -0.12902685
-0.11757313 -0.014541255 -0.0074076336 -0.08316847 -0.0099868225 0.0111885285 0.1414042 -0.17468084
0.025611764 -0.002760856 -0.15080759 -0.030120743 0.019446129 0.061520882 0.1771463 0.13547467
0.1254755 0.115669906 -0.026765864 -0.12274863 -0.18356316 0.09879044 0.03413191 -0.053424463
0.054904398 0.05026863 -0.08871626 0.0471947 -0.105057366 0.11714206 -0.043991778 -0.07672147
0.07231831 -0.18100025 -0.18646064 0.13843706 0.012323262 0.1789135 0.122864895 -0.12960018
-0.021823933 0.03374426 -0.09637076 0.044491205 0.06474877 -0.11562287 -0.04034454 0.13917208
0.15641122 -0.19505173 0.07778941 0.075592056 0.04487871 -0.1305909 -0.09683798 0.005675082
-0.0389429 -0.11291682 -0.122819886 0.1536144 -0.15309766 -0.13099268 -0.16382167 0.13678898
-0.037898034 -0.065433875 0.060408846 0.16923279 -0.11397529 -0.05732371 -0.07568569 0.13618934
-0.20150378 0.062364016 -0.046178013 0.102515325 0.09886046 0.1255948 -0.17227735 -0.1178355
0.14296602 -0.019207146 0.09667535 0.1480052 -0.001810597 0.0759919 0.0029784127 -0.015138138
-0.105598405 -0.1507805 0.09991717 -0.0020389361 -0.15358597 -0.01091615 -0.17735943 0.08142707
-0.014129735 0.17928845 0.07266832 -0.05785191 -0.18012773 0.15935977 -0.14475341 -0.15765017
0.031686567 0.1517394 0.090995625 -0.008219212 0.1013861 -0.021727266 0.18171383 -0.04235049
0.11330292 -0.10479038 -0.1265881 0.039894264 -0.17624061 0.1420374 0.15000117 -0.16013694
0.0056654806 -0.13944128 0.040304724 0.04424199 -0.18680708 -0.07000122 0.054651976 0.08055057
-0.09751622 0.15239564 0.09412804 0.12117438 -0.16542871 0.1215954 0.12849315 -0.05464491
0.0048158476 -0.04933506 -0.07213796 0.0036746361 -0.14231518 -0.080302835 0.00066274375 0.033744764
0.10265746 0.13088438 0.14713928 -0.14162005 0.06227176 -0.082386635 -0.10899887 -0.044581544
-0.12973753 -0.04383545 -0.14964393 0.12247997 -0.1736281 -0.035997786 -0.055974074 -0.04935215
-0.15212534 -0.06913641 0.12965319 -0.13597499 -0.022999257 0.13913059 0.05118197 0.04897291
0.12241069 0.090462536 1.4971767e-05 -0.10341652 -0.13288325 0.15235692 0.1439781 -0.06256642
0.08092132 -0.027271392 0.117640756 -0.09810592 -0.018418055 -0.09909063 -0.13725324 -0.03979209
0.02161212 -0.01711453 -0.0184772 0.09433256 -0.042413533 -0.073113516 0.12157907 -0.013171826
0.119078256 -0.028368063 -0.13332447 -0.122114204 -0.13124457 -0.018494142 0.0864895 0.10021188
00000000: ca35 863d 8127 233e 3997 053e 3ca0 3cbe
00000010: 943e b33b be05 e2bd 8275 ee3d 3de2 fd3d
00000020: 70e0 f8bd 8e62 26be 117c 0d3e 8211 94bd
00000030: 6d54 bbbc a53a 4dbd 418f 5ebc f775 c53d
00000040: 3a35 453d 74f2 b23c a3b6 ba3d f7db 07be
00000050: a40a 003e 25c0 c9bc 1b72 1c3d 6a96 313e
00000060: c035 393e 1d8e 37be 38bd 143e 0530 35be
00000070: d4f6 7d3c 75b6 3ebe c99b 183e ab0d 58bd
00000080: 5ca1 723d 4f5c e23d cba0 ce3d da21 0d3e
00000090: fee1 3dbe 0961 363d 3feb 853d 9ac9 963d
000000a0: f125 a33d d1dd f3bd 8b74 093e 12d5 dbbc
000000b0: 1929 b83c 44d7 4c3e ba74 1a3d 35b5 3c3e
000000c0: 211e 39be 22c0 19bd 54a0 31be b4b1 4e3c
000000d0: 5aff 50bc a35e 0ebe 680e 043e 9d1f 04be
000000e0: 2eca f0bd 723e 6ebc bcbb f2bb 3b54 aabd
000000f0: c59f 23bc 1750 373c 43cc 103e 89df 32be
00000100: c3cf d13c 7aef 34bb 4e6d 1abe c7bf f6bc
00000110: 7d4d 9f3c 52fd 7b3d d765 353e dfb9 0a3e
00000120: a67c 003e 58e4 ec3d 1644 dbbc a263 fbbd
00000130: fbf7 3bbe a452 ca3d e7cd 0b3d 9cd3 5abd
00000140: 6fe3 603d 7be6 4d3d dfb0 b5bd 3b4f 413d
00000150: 5128 d7bd 2de8 ef3d b930 34bd 2520 9dbd
00000160: 9f1b 943d 2158 39be 8aef 3ebe 72c2 0d3e
00000170: 82e7 493c 1a35 373e 97a0 fb3d e9b5 04be
00000180: 1bc8 b2bc 6c37 0a3d 085e c5bd 693c 363d
00000190: 019b 843d afcb ecbd 5140 25bd 2083 0e3e
000001a0: 432a 203e a4bb 47be 0e50 9f3d 02d0 9a3d
000001b0: bdd2 373d 9fb9 05be fe52 c6bd 0af6 b93b
000001c0: 9782 1fbd ef40 e7bd fe88 fbbd 184d 1d3e
000001d0: a2c5 1cbe f222 06be dec0 27be 6912 0c3e
000001e0: f83a 1bbd 3202 86bd 446f 773d 5c4b 2d3e
000001f0: e06b e9bd 44cc 6abd 1901 9bbd 3875 0b3e
00000200: 0257 4ebe 6971 7f3d 2825 3dbd 8ef3 d13d
00000210: 5a77 ca3d ec9b 003e 7969 30be bd53 f1bd
00000220: af65 123e 4e58 9dbc bafd c53d ad8e 173e
00000230: 8e51 edba a4a1 9b3d 7931 433b f405 78bc
00000240: fa43 d8bd 3466 1abe 60a1 cc3d ac9f 05bb
00000250: a445 1dbe a7d9 32bc b69d 35be 3cc3 a63d
00000260: 6780 67bc 6497 373e 21d3 943d 20f6 6cbd
00000270: 6773 38be 352f 233e 3d3a 14be 0c6f 21be
00000280: c6c9 013d 9361 1b3e ea5b ba3d e0a9 06bc
00000290: 84a3 cf3d 61fd b1bc 3113 3a3e b577 2dbd
000002a0: 5c0b e83d 579c d6bd 50a0 01be 2b68 233d
000002b0: 6b78 34be 4172 113e e899 193e f0fa 23be
000002c0: 7fa5 b93b b2c9 0ebe 9116 253d 1737 353d
000002d0: 5b4a 3fbe cd5c 8fbd c0da 5f3d b2f7 a43d
000002e0: 95b6 c7bd 9a0d 1c3e 34c6 c03d 462a f83d
000002f0: 2566 29be 0207 f93d b593 033e 57d3 5fbd
00000300: 42ce 9d3b 8f13 4abd 11bd 93bd 2ad2 703b
00000310: 12bb 11be d075 a4bd fbbb 2d3a f337 0a3d
00000320: 133e d23d 8e06 063e aeab 163e d904 11be
00000330: ac10 7f3d 53ba a8bd cd3a dfbd 239b 36bd
00000340: ead9 04be cd8c 33bd 423c 19be c7d6 fa3d
00000350: 91cb 31be 6a72 13bd 1245 65bd 7b25 4abd
00000360: bfc6 1bbe 6497 8dbd cec3 043e 073d 0bbe
00000370: f068 bcbc 4078 0e3e 2fa4 513d d197 483d
00000380: 75b2 fa3d 6c44 b93d 402f 7b37 0acc d3bd
00000390: 8c12 08be 7403 1c3e ff6e 133e d322 80bd
000003a0: 14ba a53d 4168 dfbc a3ed f03d c2eb c8bd
000003b0: 76e1 96bc 07f0 cabd 1d8c 0cbe 08fd 22bd
000003c0: e70b b13c c533 8cbc 7f5d 97bc 6e31 c13d
000003d0: d0b9 2dbd 8abc 95bd 73fe f83d a4ce 57bc
000003e0: 4ddf f33d 2464 e8bc 3686 08be 0317 fabd
000003f0: fa64 06be 0781 97bc 6821 b13d e33b cd3d

features.0.bias f4 [32]
-0.0882687 -0.08750011 -0.04955155 0.095027864 -0.11948629 -0.018822929 0.08307079 -0.11640336
0.17427783 0.14335951 -0.19342986 0.10921057 -0.10991058 -0.13452888 -0.09307335 -0.03568195
-0.062390674 0.18185826 0.027763192 0.15144798 0.16645622 -0.038213022 0.0465949 -0.17076077
0.062439624 -0.09640949 -0.1707547 -0.18826973 0.18061653 0.006200184 -0.014916628 0.030201621
00000000: 38c6 b4bd 4233 b3bd 91f6 4abd f89d c23d
00000010: 3ab5 f4bd 8b32 9abc 0521 aa3d e364 eebd
00000020: e375 323e d6cc 123e 7a12 46be cba9 df3d
00000030: cc18 e1bd f0c1 09be 3e9d bebd 3d27 12bd
00000040: 5d8d 7fbd 0d39 3a3e a26f e33c 2e15 1b3e
00000050: 8073 2a3e 4285 1cbd 4bda 3e3d e9db 2ebe
00000060: b1c0 7f3d 5772 c5bd 52da 2ebe c8c9 40be
00000070: 8af3 383e ea2a cb3b df64 74bc 6469 f73c

features.1.weight f4 [32]
1.0142915 0.9996886 1.0085275 1.0013908 1.0109142 0.9999904 1.0022479 0.98746747
0.9948409 1.0000604 0.9874149 0.9961439 0.9973115 0.9911528 1.0036384 0.9951083
1.0092893 1.0018739 0.9937359 0.9992996 0.99435437 0.991034 1.0002476 0.9984185
1.0064777 0.9876422 1.0083969 1.003068 0.9965498 0.9962824 1.0108957 0.9972271
00000000: 4ed4 813f 98eb 7f3f 6e17 813f 932d 803f
00000010: a365 813f 5fff 7f3f a949 803f abca 7c3f
00000020: e5ad 7e3f fb01 803f 39c7 7c3f 4903 7f3f
00000030: ce4f 7f3f 31bc 7d3f 3977 803f 6bbf 7e3f
00000040: 6430 813f 673d 803f 7a65 7e3f 19d2 7f3f
00000050: 028e 7e3f 67b4 7d3f 1d08 803f 5b98 7f3f
00000060: 43d4 803f 1fd6 7c3f 2613 813f 8864 803f
00000070: e31d 7f3f 5d0c 7f3f 0865 813f 464a 7f3f

features.1.bias f4 [32]
0.01421145 0.0069197933 -0.00071721594 0.011726324 0.0177517 0.004636271 0.0018797932 -0.009208715
-0.0063921725 0.0003055765 -0.0069114496 -0.007818286 -0.004463616 0.001186893 0.0009925095 -0.000853303
0.0041108024 -0.0014039332 -0.010819829 0.00865489 -0.002603007 0.001191846 0.0069785547 -0.011482876
0.0074121295 -0.010864126 0.009350624 0.0005128684 -0.0012905407 -0.009175159 0.009372437 0.00075421063
00000000: 24d7 683c 6fbf e23b 8c03 3cba c51f 403c
00000010: 036c 913c dceb 973b 6563 f63a 26e0 16bc
00000020: 6e75 d1bb c935 a039 7179 e2bb 4518 00bc
00000030: 8643 92bb 8591 9b3a 1817 823a 32b0 5fba
00000040: e9b3 863b 2e04 b8ba a745 31bc 3dcd 0d3c
00000050: 3697 2abb b737 9c3a 5cac e43b ac22 3cbc
00000060: 73e1 f23b 72ff 31bc 5c33 193c 0472 063a
00000070: 5c27 a9ba 6853 16bc da8e 193c 38b6 453a

features.1.running_mean f4 [32]
0.21532804 0.39724374 0.1937423 -0.38880447 -0.18289316 -0.00062738947 0.9333733 0.10758744
0.26671487 1.0226805 0.53555495 -0.15330736 0.047357865 0.12241405 0.31034267 -0.7655883
0.054165803 0.8811596 -0.9406787 0.20652167 0.8005707 -0.4430201 0.12058604 -0.09949373
0.86785364 -0.020558972 0.30086118 -0.5390594 -0.8899091 0.18796733 -1.141105 0.02264801
00000000: f47e 5c3e 8863 cb3e 6264 463e 6111 c7be
00000010: 5848 3bbe 6577 24ba 8df1 6e3f ce56 dc3d
00000020: da8e 883e 32e7 823f 211a 093f 9bfc 1cbe
00000030: 52fa 413d 38b4 fa3d 3ce5 9e3e 98fd 43bf
00000040: f6dc 5d3d ad93 613f 52d0 70bf 6b7a 533e
00000050: 34f2 4c3f 88d3 e2be d0f5 f63d 5ec3 cbbd
00000060: a82b 5e3f 4a6b a8bc 7a0a 9a3e ccff 09bf
00000070: 15d1 63bf 827a 403e bb0f 92bf 5288 b93c

features.1.running_var f4 [32]
0.0351786 0.012189973 0.006373329 0.0049948646 0.023078721 0.011947257 0.00695011 0.0027476817
0.00845294 0.011512475 0.0034592352 0.011214649 0.0094522545 0.015245993 0.01707063 0.002457656
0.018428152 0.01726783 0.009071642 0.010047924 0.025582926 0.007899086 0.009114037 0.002710287
0.017493859 0.0026870763 0.0273689 0.006006652 0.011298989 0.01761526 0.006075176 0.017392918
00000000: 7017 103d 74b8 473c 5cd7 d03b f6ab a33b
00000010: 960f bd3c 6ebe 433c c0bd e33b 7312 343b
00000020: 337e 0a3c d29e 3c3c 56b4 623b a6bd 373c
00000030: a1dd 1a3c 54ca 793c b5d7 8b3c a010 213b
00000040: a3f6 963c 4475 8d3c 39a1 143c 0ca0 243c
00000050: 4993 d13c 2b6b 013c 0b53 153c 129f 313b
00000060: 484f 8f3c a919 303b be34 e03c 73d3 c43b
00000070: 651f 393c e14d 903c 4512 c73b 987b 8e3c

features.3.weight f4 [64, 32]
0.11120722 -0.095803864 -0.0954156 -0.0044622365 -0.048012353 -0.06330803 -0.016784796 0.039259493
-0.17095828 0.02790297 -0.14829923 0.051999915 0.00847734 -0.13402422 0.12541352 -0.14926837
0.0053440193 0.13866664 0.0756138 0.13543187 0.123062916 -0.061849494 -0.054094914 0.03249839
-0.07209274 0.03641174 -0.037748978 -0.1135856 0.08060457 -0.15089795 0.09532675 0.070053585
-0.011769543 0.1652339 0.16376726 -0.09327431 0.06960587 -0.1328148 0.15995672 0.10759576
0.16822185 -0.09870028 0.020476852 0.06934243 0.09640937 0.10639289 -0.055149913 0.15062104
0.04881318 0.1390655 0.052350808 0.16432188 0.14791073 0.013429292 0.17670533 0.1107925
0.0037927956 -0.1361719 0.032087527 -0.1267928 0.005305938 -0.1509286 0.1302815 -0.061407756
-0.014828715 0.074013375 -0.042684387 0.008042206 0.070944905 -0.12745781 0.021848375 0.110295564
-0.16379371 -0.014407603 -0.13935158 0.026437767 0.07438616 -0.09416416 0.037698973 -0.13690367
-0.17924291 0.1359954 0.08106461 -0.16841938 0.004897263 -0.08647487 0.12459237 0.18180612
-0.10653416 -0.15986045 0.12708995 -0.121571384 0.16319215 -0.16073275 -0.15075405 0.017647918
-0.040420953 -0.09745221 0.0063395584 -0.015080442 -0.15088628 -0.060523562 -0.0014840078 0.10935594
-0.090465754 -0.03619525 -0.0027881372 -0.036602587 -0.09210086 -0.03501875 0.058633342 0.027722329
-0.17857 0.15237959 -0.12519513 -0.015473976 0.16967984 -0.045498576 0.046951834 -0.11411998
0.05084054 -0.032384533 0.037551057 -0.13780844 -0.12529065 0.17012745 0.16708755 0.083940126
0.17170075 -0.057527583 0.15804255 0.08080901 -0.08770629 -0.0045701237 0.17979765 -0.011974673
-0.06734505 -0.12379733 -0.009437423 0.080846675 -0.1514282 0.12182996 0.03438409 0.035676442
-0.12482364 -0.013117599 0.1071759 -0.1568072 0.1501453 0.14214629 -0.136637 0.028785
-0.15880188 0.04011211 -0.1135062 -0.15003048 0.15667713 -0.11337626 0.14324461 0.02463339
-0.19673291 -0.0026378054 -0.052496217 0.14655267 -0.06928515 0.112327926 -0.14644817 -0.08615087
0.0033811752 0.03490171 -0.17622331 0.01281464 -0.061142813 0.12307154 -0.07934377 -0.16474654
0.117379636 -0.102993555 0.0714489 0.055945933 0.078839876 0.14531271 -0.102004 -0.11571247
-0.08885085 0.16736972 -0.014921614 0.14520642 -0.0919911 -0.10136033 -0.18982956 -0.07857769
0.02283989 0.06170847 0.14269665 -0.009006979 -0.11967985 0.0994127 0.10555813 -0.09153894
0.09701966 -0.1182169 0.07952957 0.039104007 0.056905217 0.14345191 -0.027608251 0.047971852
-0.08679624 -0.054793138 -0.0050099175 0.17461607 0.16293646 0.14657274 0.1592761 0.08278872
0.0026583928 0.090836816 0.05550892 -0.0906806 -0.09563684 0.0707857 -0.113277294 -0.043714393
0.08721567 -0.1932077 -0.13324122 -0.013921613 0.110788524 0.11370276 0.10584011 0.04049466
0.1617002 -0.16807538 0.14090444 0.13564974 -0.17162322 0.098465554 -0.13320117 0.120919935
-0.056926116 -0.029481228 -0.062437642 -0.15541668 0.062291224 -0.07375583 -0.086806566 0.05801762
0.06220657 -0.10060473 0.05832674 -0.10508065 -0.025000364 -0.03736376 -0.172609 -0.0789315
00000000: 9cc0 e33d d134 c4bd 4169 c3bd f437 92bb
00000010: 9aa8 44bd a4a7 81bd 4580 89bc 90ce 203d
00000020: b00f 2fbe c594 e43c c1db 17be ddfd 543d
00000030: 8be4 0a3c a53d 09be 676c 003e cfd9 18be
00000040: e21c af3b a1fe 0d3e 68db 9a3d a7ae 0a3e
00000050: 6908 fc3d e555 7dbd a192 5dbd 081d 053d
00000060: 5ca5 93bd 7a24 153d ac9e 1abd 919f e8bd
00000070: 0214 a53d fe84 1abe ac3a c33d 4178 8f3d
00000080: 0bd5 40bc 1333 293e 9bb2 273e 9a06 bfbd
00000090: 868d 8e3d 9a00 08be b2cb 233e 2a5b dc3d
000000a0: 5942 2c3e 5f23 cabd 12bf a73c 6703 8e3d
000000b0: 4772 c53d 84e4 d93d e0e4 61bd 673c 1a3e
000000c0: 54f0 473d 3067 0e3e cd6d 563d ff43 283e
000000d0: e975 173e 8806 5c3c 3ef2 343e 2ee7 e23d
000000e0: 8d90 783b a670 0bbe 366e 033d f9d5 01be
000000f0: 6fdd ad3b 078d 1abe 8368 053e b386 7bbd
00000100: 23f4 72bc 5394 973d d3d5 2ebd 75c3 033c
00000110: 904b 913d 4d84 02be 5dfb b23c a4e2 e13d
00000120: 8ab9 27be de0d 6cbc 2eb2 0ebe 0494 d83c
00000130: c557 983d 24d9 c0bd 3d6a 1a3d 7a30 0cbe
00000140: 748b 37be 6142 0b3e 3405 a63d 2176 2cbe
00000150: 3879 a03b bd19 b1bd 492a ff3d 622b 3a3e
00000160: 952e dabd 75b2 23be de23 023e 6bfa f8bd
00000170: d81b 273e 2097 24be 455f 1abe 5e92 903c
00000180: 7190 25bd 0695 c7bd 12bc cf3b f513 77bc
00000190: ef81 1abe 8ee7 77bd 0a83 c2ba 02f6 df3d
000001a0: 1c46 b9bd 7841 14bd 2eb9 36bb 98ec 15bd
000001b0: 609f bcbd d26f 0fbd 8429 703d f019 e33c
000001c0: 0edb 36be 6509 1c3e 2733 00be 8f86 7dbc
000001d0: 8dc0 2d3e b75c 3abd 9150 403d bcb7 e9bd
000001e0: 2c3e 503d a5a5 04bd 23cf 193d a81d 0dbe
000001f0: 314c 00be e435 2e3e 0019 2b3e cde8 ab3d
00000200: 52d2 2f3e 0ba2 6bbd e8d5 213e 327f a53d
00000210: 5b9f b3bd fac0 95bb e01c 383e 6b31 44bc
00000220: 34ec 89bd 7489 fdbd 6c9f 1abc f192 a53d
00000230: fe0f 1bbe fc81 f93d 55d6 0c3d 7621 123d
00000240: 89a3 ffbd 33eb 56bc 0a7f db3d 1192 20be
00000250: b1bf 193e cc8e 113e 92ea 0bbe 85ce eb3c
00000260: f69c 22be 994c 243d f075 e8bd 97a1 19be
00000270: f86f 203e d031 e8bd b7ae 123e f7cb c93c
00000280: 5a74 49be 08df 2cbb 4606 57bd e711 163e
00000290: 5fe5 8dbd 2f0c e63d 82f6 15be de6f b0bd
000002a0: b596 5d3b 18f5 0e3d e273 34be 7ff4 513c
000002b0: e370 7abd ee0c fc3d fd7e a2bd 51b3 28be
000002c0: bc64 f03d 49ee d2bd cd53 923d 9027 653d
000002d0: cd76 a13d dbcc 143e 79e7 d0bd a9fa ecbd
000002e0: 6ff7 b5bd f862 2b3e c979 74bc feb0 143e
000002f0: d465 bcbd 0196 cfbd ae62 42be 57ed a0bd
00000300: b91a bb3c 05c2 7c3d 121f 123e 0292 13bc
00000310: b61a f5bd e398 cb3d dc2e d83d c578 bbbd
00000320: 3eb2 c63d b41b f2bd 66e0 a23d 862b 203d
00000330: 7215 693d 0fe5 123e b32a e2bc 227e 443d
00000340: 3ac2 b1bd c56e 60bd 3c2a a4bb 8ece 323e
00000350: d1d8 263e 2a17 163e 4619 233e 228d a93d
00000360: 6e38 2e3b a708 ba3d 525d 633d c0b6 b9bd
00000370: 3fdd c3bd 18f8 903d edfd e7bd dd0d 33bd
00000380: 219e b23d 3dd8 45be 6370 08be 7a17 64bc
00000390: 18e5 e23d fedc e83d b3c2 d83d bbdd 253d
000003a0: bd94 253e f41b 2cbe 4149 103e c4e7 0a3e
000003b0: ffbd 2fbe 4fa8 c93d e365 08be dfa4 f73d
000003c0: 5c2b 69bd 9e82 f1bc 9dbe 7fbd 8d25 1fbe
000003d0: 1525 7f3d 4c0d 97bd a4c7 b1bd e2a3 6d3d
000003e0: 51cc 7e3d da09 cebd 05e8 6e3d 8634 d7bd
000003f0: 90cd ccbc be0a 19bd 6ac0 30be d7a6 a1bd

features.3.bias f4 [64]
-0.041939173 -0.027132226 -0.13183846 0.10737769 -0.13924444 -0.05280361 -0.08224863 0.052175317
0.11133576 0.17369455 -0.11943333 0.07974939 0.030873934 -0.108763106 -0.16838056 0.109518476
0.007920406 -0.013875569 -0.16705357 0.13644801 -0.021166734 -0.011867202 0.042883426 0.012506508
0.17416719 -0.12059954 0.093574375 -0.013459963 -0.12322876 0.0918775 -0.0060980986 -0.099919125
-0.1282448 -0.17852001 0.080311045 -0.1708345 -0.14718272 -0.04971731 -0.025435397 0.0604684
0.16889443 0.019623622 0.04659326 -0.15256774 -0.106915936 0.017246207 0.07201506 -0.11154703
-0.020990374 -0.100239344 -0.072273135 -0.16716698 0.06440053 -0.16615564 0.054525476 0.1090837
0.114264086 -0.02537128 0.16338007 -0.07109342 0.047664892 -0.14042652 -0.07392464 -0.13989697
00000000: 69c8 2bbd 6744 debc a900 07be d6e8 db3d
00000010: 1896 0ebe 9948 58bd f871 a8bd c9b5 553d
00000020: 0104 e43d fcdc 313e 7699 f4bd a653 a33d
00000030: 55eb fc3c 31bf debd f46b 2cbe 394b e03d
00000040: 97c4 013c 5b56 63bc 1710 2bbe 07b9 0b3e
00000050: dc65 adbc a76e 42bc 88a6 2f3d 19e8 4c3c
00000060: e258 323e e4fc f6bd eca3 bf3d 2d87 5cbc
00000070: 5c5f fcbd 452a bc3d 8fd2 c7bb 66a2 ccbd
00000080: 9b52 03be f3cd 36be 1e7a a43d 3def 2ebe
00000090: 11b7 16be 61a4 4bbd e55d d0bc b7ad 773d
000000a0: a9f2 2c3e b8c1 a03c 93d8 3e3d b83a 1cbe
000000b0: bef6 dabd eb47 8d3c a27c 933d c572 e4bd
000000c0: 01f4 abbc 494a cdbd f003 94bd d22d 2bbe
000000d0: 6de4 833d b424 2abe 1b56 5f3d 4667 df3d
000000e0: 4a03 ea3d 6ed7 cfbc 1b4d 273e 6d99 91bd
000000f0: 433c 433d f8cb 0fbe cd65 97bd 2741 0fbe

features.4.weight f4 [64]
0.9973411 0.9957154 0.9942131 1.0123012 1.009402 0.99048615 0.992889 1.0047139
0.9989952 1.0113213 1.0009555 0.99110407 0.99931514 1.0113524 0.99690205 0.9968116
1.0001229 0.99581975 1.0065873 1.0182793 0.9974031 0.9974312 0.99756277 0.99872595
1.0089731 0.995943 1.0013167 0.99530417 1.0051805 1.0092231 1.0005913 1.0085169
0.99194443 0.9998805 0.99666417 0.9913879 0.997215 1.0026902 1.0034604 0.987757
0.99539185 0.9961004 0.9885765 0.9899243 0.998722 1.0000175 1.0005075 0.99033123
1.0078841 1.0194852 1.0035111 1.0082388 0.9879362 0.98644704 1.0050151 0.9819811
1.0021862 1.001941 1.0126028 1.0010626 1.006956 1.0104191 1.0039197 0.9942775
00000000: bf51 7f3f 34e7 7e3f c084 7e3f 1693 813f
00000010: 1634 813f 8090 7d3f f92d 7e3f 779a 803f
00000020: 26be 7f3f fa72 813f 4f1f 803f ffb8 7d3f
00000030: 1ed3 7f3f ff73 813f f934 7f3f 0c2f 7f3f
00000040: 0704 803f 0bee 7e3f dad7 803f fa56 823f
00000050: cf55 7f3f a757 7f3f 4660 7f3f 81ac 7f3f
00000060: 0826 813f 1ff6 7e3f 252b 803f 41cc 7e3f
00000070: c1a9 803f 392e 813f 6013 803f 1517 813f
00000080: 12f0 7d3f 2bf8 7f3f 6225 7f3f 99cb 7d3f
00000090: 7b49 7f3f 2758 803f 6471 803f a5dd 7c3f
000000a0: 00d2 7e3f 7000 7f3f 5913 7d3f ae6b 7d3f
000000b0: 3fac 7f3f 9300 803f a110 803f 5986 7d3f
000000c0: 5902 813f 7e7e 823f 0d73 803f f80d 813f
000000d0: 63e9 7c3f cb87 7c3f 56a4 803f 1d63 7b3f
000000e0: a347 803f 9a3f 803f f89c 813f d222 803f
000000f0: efe3 803f 6a55 813f 7180 803f f888 7e3f

features.4.bias f4 [64]
-0.00093809003 -0.0029314766 -0.0031465506 0.0070066033 0.009924101 -0.0053966767 -0.006534984 0.005560272
-0.0010796014 0.010135522 0.0059713805 -0.011762316 0.0019767538 0.010816679 -0.0021725611 -0.0035339978
0.00026493848 -0.00042168688 0.0077226665 0.012410581 -0.00032331177 0.0027030283 -0.00031376164 0.0013067706
0.009718139 -0.0027293023 0.0012457686 -0.0027801644 -0.0031975396 0.003606041 0.0018332276 0.009226567
-0.0062947413 0.0006988758 0.0013272591 -0.004171677 -0.003767791 -0.0010879929 0.003836572 -0.0078107542
-0.005711067 -0.004127682 -0.010942833 -0.00029128074 0.0013509615 0.0021822774 -6.913894e-05 -0.0027532163
0.010811495 0.016060192 0.0048282165 0.009924188 -0.011180379 -0.014197969 0.0030679645 -0.015806012
-0.004778724 0.0034250512 0.010910187 -0.0058125155 0.011213026 0.009364712 0.0005367133 -0.0035291465
00000000: 28ea 75ba 041e 40bb 5c36 4ebb a697 e53b
00000010: b298 223c 9bd6 b0bb 6b23 d6bb f132 b63b
00000020: 6981 8dba 760f 263c 92ab c33b bbb6 40bc
00000030: 6d8c 013b 7138 313c 8761 0ebb a59a 67bb
00000040: 71e7 8a39 db15 ddb9 6c0e fd3b c055 4b3c
00000050: 2c82 a9b9 4a25 313b 6080 a4b9 f247 ab3a
00000060: d438 1f3c 18de 32bb 0f49 a33a 6b33 36bb
00000070: d08d 51bb 5453 6c3b e948 f03a 072b 173c
00000080: 1e44 cebb c334 373a 6df7 ad3a 90b2 88bb
00000090: 0bed 76bb fc9a 8eba ff6e 7b3b 5bf1 ffbb
000000a0: e723 bbbb 8241 87bb 9149 33bc 0ab7 98b9
000000b0: bf12 b13a 8a04 0f3b b0fe 90b8 4e6f 34bb
000000c0: b222 313c aa90 833c 0436 9e3b 1099 223c
000000d0: e92d 37bc 999e 68bc e70f 493b 9c7b 81bc
000000e0: d896 9cbb d376 603b a4c0 323c ea76 bebb
000000f0: d7b6 373c 736e 193c 38b2 0c3a 4149 67bb

features.4.running_mean f4 [64]
-0.13108742 0.5590156 -0.37472028 -0.029384566 -0.06972326 -0.35995623 0.31404066 -0.13368246
-0.018723603 0.07611059 -0.27483505 -0.3041336 -0.027200975 -0.09775843 -0.08640698 0.3321505
-0.023566928 -0.18591346 -0.25663114 0.34649572 0.18660052 -0.092813864 -0.103217706 -0.23024113
0.48520413 -0.21188435 0.31593713 0.10144923 -0.24221094 0.018419497 -0.42791814 0.09733409
-0.24870218 -0.4460967 0.037711985 -0.032283135 0.19403858 0.17275319 0.39681333 -0.31733096
0.027185395 0.35524976 0.21511863 -0.40530598 0.1369076 0.08297069 0.41172057 0.13735825
-0.003078369 -0.29436934 0.1468 -0.19580445 -0.08847704 -0.032524146 0.3431046 0.22669363
-0.22838068 0.2656098 -0.06367935 -0.17916104 -0.38278574 -0.1278851 0.0349967 0.25524068
00000000: c83b 06be a51b 0f3f 56db bfbe e7b7 f0bc
00000010: 12cb 8ebd 2f4c b8be f0c9 a03e 0ee4 08be
00000020: 3e62 99bc dedf 9b3d 2eb7 8cbe 66b7 9bbe
00000030: 94d4 debc 9235 c8bd 25f6 b0bd a10f aa3e
00000040: 6e0f c1bc 1960 3ebe 2865 83be e367 b13e
00000050: 3514 3f3e 3215 bebd ce63 d3bd 55c4 6bbe
00000060: ad6c f83e 36f8 58be 83c2 a13e 9dc4 cf3d
00000070: 2506 78be 7ce4 963c 1618 dbbe 1857 c73d
00000080: c9ab 7ebe c966 e4be e277 1a3d 523b 04bd
00000090: 0db2 463e 36e6 303e 1e2b cb3e 3479 a2be
000000a0: e8b3 de3c 4ce3 b53e 0f48 5c3e 4484 cfbe
000000b0: 8231 0c3e 8aec a93d 0acd d23e a4a7 0c3e
000000c0: 76be 49bb 94b7 96be bd52 163e f680 48be
000000d0: 7333 b5bd 0a38 05bd 68ab af3e 6022 683e
000000e0: a0dc 69be 02fe 873e 526a 82bd fe75 37be
000000f0: 7efc c3be 50f4 02be b358 0f3d e8ae 823e

features.4.running_var f4 [64]
0.101991594 0.06188296 0.09933715 0.11770711 0.06468389 0.1767881 0.23373608 0.12128348
0.1701175 0.09701922 0.04827562 0.082181826 0.07678857 0.12782334 0.3141595 0.12472629
0.17695616 0.10304313 0.07743961 0.14271514 0.07848386 0.070082776 0.21447964 0.22369531
0.12289684 0.10263119 0.1585522 0.14501144 0.19270012 0.20399041 0.10311401 0.30017757
0.039099682 0.06423934 0.059956506 0.1352817 0.25854203 0.09083589 0.044431098 0.087531574
0.21462214 0.06088204 0.05180375 0.21405165 0.17069262 0.17092966 0.13462326 0.07282194
0.1620158 0.22008237 0.12235837 0.16323836 0.1577102 0.03919667 0.1667551 0.2417963
0.10933258 0.071757086 0.13319713 0.0818702 0.08669584 0.22978953 0.100055285 0.06952623
00000000: f8e0 d03d fd78 7d3d 4771 cb3d 6d10 f13d
00000010: fd78 843d f107 353e 8358 6f3e 7963 f83d
00000020: 4833 2e3e 03b2 c63d a8bc 453d f24e a83d
00000030: 5343 9d3d 1fe4 023e 84d9 a03e 7f70 ff3d
00000040: ff33 353e 4708 d33d a998 9e3d eb23 123e
00000050: 25bc a03d 8f87 8f3d 8da0 5b3e 6210 653e
00000060: 57b1 fb3d 4d30 d23d 825b 223e e17d 143e
00000070: 2e53 453e dde2 503e 702d d33d e0b0 993e
00000080: fd26 203d ea8f 833d f494 753d 4987 0a3e
00000090: 9f5f 843e 2b08 ba3d 62fd 353d c143 b33d
000000a0: e8c5 5b3e 725f 793d 2b30 543d 5b30 5b3e
000000b0: 0cca 2e3e 2f08 2f3e aeda 093e ab23 953d
000000c0: 78e7 253e 465d 613e 0697 fa3d f527 273e
000000d0: c87e 213e b08c 203d d9c1 2a3e 7399 773e
000000e0: c2e9 df3d 61f5 923d d464 083e 90ab a73d
000000f0: 978d b13d f24d 6b3e c9e9 cc3d c563 8e3d

features.7.weight f4 [128, 64]
-0.08404815 0.009720011 0.09547349 -0.039237205 0.06474295 0.099741034 -0.072566494 -0.08670024
-0.09957752 -0.10979529 -0.115242235 0.023320843 0.09802177 -0.10504969 -0.017194683 -0.07742864
-0.063006565 -0.014702318 0.077685334 -0.0548319 0.010530471 0.028129252 0.068800285 0.080693096
-0.0054248953 -0.018704932 -0.10934337 -0.06964263 0.09484322 -0.08002334 0.08944524 -0.0105169695
0.085488476 0.016137278 0.06097375 0.05907086 -0.114097044 0.013128785 -0.0973432 0.07813114
0.11310247 -0.106984675 0.034312636 -0.08779541 -0.013750838 -0.104379855 0.045454532 0.10522395
0.1300618 -0.023657814 -0.055540733 -0.08052735 -0.04195108 -0.030190818 -0.05015518 -0.016811613
-0.08499087 0.11099314 0.11817265 0.007218541 0.116643295 -0.05275111 0.10392674 -0.062491152
-0.0085231345 -0.018024316 -0.13296172 0.0991692 0.10069429 -0.068463616 0.009810646 -0.11469128
-0.06161583 -0.01305888 -0.069112554 -0.05133759 0.12161905 -0.10410733 -0.12114344 0.096225806
-0.06702702 -0.02248994 -0.039454915 -0.11176371 -0.02093143 -0.09160332 0.05990833 -0.03982654
1.6329745e-05 -0.11676762 -0.07336559 0.11888898 -0.11251648 -0.05659087 -0.06547042 -0.025583029
-0.07407503 -0.10013401 -0.07159609 -0.03402139 -0.045853075 -0.08043802 -0.010257501 -0.035412837
-0.042006098 0.032225743 -0.070802994 -0.055185985 -0.029393563 -0.123575665 0.07263749 0.09827739
0.089856826 0.038838565 -0.0639321 -0.016967915 0.08275139 0.05850489 0.0133823175 0.009631523
0.1033507 -0.09911094 0.086938135 -0.05097796 -0.029069971 -0.009421021 0.05657125 -0.09358788
0.062907204 -0.03177456 0.1123 -0.1177317 -0.0023947386 -0.05397707 -0.10410599 0.06520555
0.037666317 -0.097662225 -0.027051859 -0.0767785 -0.022636537 0.00020623226 0.09895982 0.09923306
-0.028626187 0.0027395498 -0.09043677 0.049415454 -0.022060556 0.06735879 -0.13022397 0.04904673
0.07280545 0.08493586 -0.13213085 -0.08194894 0.087202325 0.0654104 -0.11807353 0.07058339
-0.078593515 0.016025769 -0.0832368 -0.038996845 -0.08171591 0.10872922 0.0978421 0.04223817
0.06811251 -0.034586564 -0.02922839 -0.054456115 0.1286059 0.07514907 0.055876255 0.10402634
0.08914487 -0.046893828 -0.060887687 0.02852335 0.09000157 -0.09352783 0.12651256 -0.09265293
-0.10331443 0.10193755 -0.013152126 0.023487207 0.1217725 0.003378062 0.0036324477 -0.025226915
-0.10238068 0.06601347 -0.089190766 -0.0979388 -0.003862577 -0.008240757 -0.009700915 0.073874295
0.06963933 -0.01839884 0.08872139 -0.11931667 -0.057584625 -0.0051922314 -0.11553704 0.01392097
0.09385547 0.033137612 0.11324757 0.047661643 0.09745868 -0.006430986 -0.050070208 -0.12528011
-0.11225627 0.11840956 0.09475248 0.053609245 -0.063116096 -0.115024306 -0.04766598 -0.021735152
0.023927594 0.080376886 0.11656754 0.006983684 -0.009091144 0.06014511 0.05677526 -0.08456749
0.01795934 -0.06582302 0.11721734 -0.035376277 -0.016448785 -0.12141251 0.12206663 -0.11824751
0.052304823 0.054300137 -0.03015694 -0.015700784 0.057099227 -0.09072167 -0.106471464 0.04274591
-0.09922636 -0.10350725 0.10060985 0.09902089 0.028566342 0.06999618 -0.009234286 -0.040439297
00000000: 7021 acbd ae40 1f3c 9b87 c33d 31b7 20bd
00000010: f497 843d 0745 cc3d be9d 94bd e58f b1bd
00000020: 4cef cbbd 5adc e0bd 1f04 ecbd 5a0b bf3c
00000030: a3bf c83d 4b24 d7bd dddb 8cbc e892 9ebd
00000040: 9609 81bd fee1 70bc 7d19 9f3d 6a97 60bd
00000050: ff87 2c3c 516f e63c 2ae7 8c3d 6c42 a53d
00000060: 52c3 b1bb 163b 99bc 6bef dfbd cca0 8ebd
00000070: 2a3d c23d 47e3 a3bd 112f b73d 5e4f 2cbc
00000080: 9514 af3d 5332 843c 9cbf 793d 49f4 713d
00000090: b6ab e9bd 1e1a 573c df5b c7bd 3803 a03d
000000a0: 45a2 e73d c81a dbbd 688b 0c3d 14ce b3bd
000000b0: 324b 61bc 1bc5 d5bd 882e 3a3d a87f d73d
000000c0: ec2e 053e 08ce c1bc ae7e 63bd 86eb a4bd
000000d0: e5d4 2bbd bc52 f7bc 856f 4dbd 82b8 89bc
000000e0: b10f aebd 5f50 e33d 8104 f23d 8389 ec3b
000000f0: aee2 ee3d 8c11 58bd 8bd7 d43d b9f6 7fbd
00000100: 9ea4 0bbc bba7 93bc 1e27 08be 3919 cb3d
00000110: cf38 ce3d a736 8cbd d5bc 203c 43e3 eabd
00000120: e160 7cbd eaf4 55bc e28a 8dbd 5d47 52bd
00000130: 6913 f93d 3936 d5bd 0d1a f8bd 0912 c53d
00000140: 7645 89bd d33c b8bc 7a9b 21bd 5fe4 e4bd
00000150: 6478 abbc 859a bbbd 7062 753d 2721 23bd
00000160: dcfb 8837 dd23 efbd b340 96bd 117c f33d
00000170: 0a6f e6bd d4cb 67bd 5b15 86bd 8093 d1bc
00000180: a6b4 97bd 0f13 cdbd f9a0 92bd 035a 0bbd
00000190: 6fd0 3bbd b0bc a4bd 140f 28bc 0d0d 11bd
000001a0: 960e 2cbd 24ff 033d 2901 91bd b30a 62bd
000001b0: c5ca f0bc 3d15 fdbd f7c2 943d a845 c93d
000001c0: db06 b83d 3015 1f3d d5ee 82bd 4c00 8bbc
000001d0: 9079 a93d d3a2 6f3d 8241 5b3c 89cd 1d3c
000001e0: 88a9 d33d adfa cabd 9f0c b23d 44ce 50bd
000001f0: 2624 eebc a05a 1abc 41b7 673d 01ab bfbd
00000200: 7ed5 803d 0b26 02bd 8bfd e53d 511d f1bd
00000210: 0cf1 1cbb 0f17 5dbd 8535 d5bd 7d8a 853d
00000220: ff47 1a3d 2203 c8bd dc9b ddbc 0c3e 9dbd
00000230: 4270 b9bc 0d40 5839 72ab ca3d b43a cb3d
00000240: 7781 eabc 058a 333b ea36 b9bd dc67 4a3d
00000250: 57b8 b4bc 68f3 893d 6f59 05be 39e5 483d
00000260: 061b 953d daf2 ad3d 4f4d 07be d9d4 a7bd
00000270: 2297 b23d e3f5 853d 89d0 f1bd 068e 903d
00000280: a3f5 a0bd 7948 833c 0e78 aabd 28bb 1fbd
00000290: ac5a a7bd 6dad de3d 7061 c83d ee01 2d3d
000002a0: 927e 8b3d a4aa 0dbd 6070 efbc 600d 5fbd
000002b0: 44b1 033e c1e7 993d 80de 643d c30b d53d
000002c0: 9691 b63d be13 40bd 5e65 79bd cda9 e93c
000002d0: be52 b83d 858b bfbd 828c 013e d2c0 bdbd
000002e0: 8496 d3bd a2c4 d03d 047c 57bc 3e68 c03c
000002f0: dc63 f93d 7a62 5d3b 5c0e 6e3b ada8 cebc
00000300: f6ac d1bd 1232 873d a6a9 b6bd 2394 c8bd
00000310: 4a23 7dbb 3d04 07bc 96f0 1ebc 684b 973d
00000320: 119f 8e3d 2ab9 96bc 8fb3 b53d 4c5c f4bd
00000330: dbdd 6bbd 9823 aabb af9e ecbd c814 643c
00000340: 4c37 c03d 4ebb 073d 58ee e73d db38 433d
00000350: 6b98 c73d 05bb d2bb 6b16 4dbd 6e49 00be
00000360: 9ee6 e5bd b680 f23d 970d c23d 5e95 5b3d
00000370: 0343 81bd dd91 ebbd 673d 43bd eb0d b2bc
00000380: cd03 c43c a39c a43d f6ba ee3d 63d7 e43b
00000390: 06f3 14bc b85a 763d 2d8d 683d b831 adbd
000003a0: 771f 933c 38ce 86bd a50f f03d b7e6 10bd
000003b0: 9abf 86bc 1fa7 f8bd 12fe f93d c02b f2bd
000003c0: 953d 563d d269 5e3d b00b f7bc ee9e 80bc
000003d0: e1e0 693d 48cc b9bd b60d dabd 5616 2f3d
000003e0: 3137 cbbd 9cfb d3bd 890c ce3d 77cb ca3d
000003f0: f603 ea3c 285a 8f3d 674b 17bc ada3 25bd

features.7.bias f4 [128]
0.030871607 -0.055591643 0.10856431 0.020249201 0.10954352 -0.11712553 -0.07557737 -0.034304623
-0.029955659 -0.057017554 0.05387989 0.037168857 -0.12516837 0.078343265 -0.113821596 0.067947
0.040205367 -0.03700393 0.10271165 0.027105952 0.07561072 -0.12015641 0.09543097 0.095963605
-0.030711927 -0.08807459 0.06804253 0.117089204 -0.106623374 -0.070716195 -0.054815065 -0.00293434
0.07011024 -0.0146944355 -0.047386993 0.08853739 0.035974633 0.025406402 0.06094449 0.107131295
-0.0123447 0.10428688 -0.00740662 0.010927032 -0.10092455 -0.12127916 -0.054876197 -0.015575712
-0.089568764 -0.085808285 0.004149202 -0.05845252 0.03629339 -0.071828 0.11316758 0.014667685
0.12480013 -0.06972516 -0.080541834 0.075880006 0.071037985 -0.01988121 0.09398384 0.05206112
0.05852518 0.011043789 -0.037087392 -0.04078223 0.062830836 -0.03741541 0.02171085 0.09560168
-0.08286807 -0.100199655 0.03687372 0.0669861 -0.051086675 -0.06898168 -0.11626646 0.09719478
0.08665123 -0.10569614 -0.07599584 -0.03339024 -0.11913385 -0.017252048 0.021243745 0.1122506
0.10423331 -0.08407443 0.01592383 0.11623433 -0.035623424 -0.07300221 -0.08145 -0.08445169
-0.07745792 -0.023825746 -0.1090211 -0.07275763 0.10047513 0.03467924 -0.0034388213 0.061346255
0.04462683 -0.07478733 0.044335652 -0.028115481 -0.04326178 0.05155377 -0.08983861 -0.09993846
0.070357576 0.103623874 -0.10805846 0.09666943 -0.024107842 0.049180064 0.068183705 -0.0024440242
0.017968109 -0.112815246 0.052314404 -0.07505468 -0.08634807 -0.118412204 -0.106501095 0.08149012
00000000: 74e6 fc3c 10b4 63bd f756 de3d a7e1 a53c
00000010: 5a58 e03d 83df efbd 4fc8 9abd 0183 0cbd
00000020: 9265 f5bc 3d8b 69bd 29b1 5c3d 5f3e 183d
00000030: 232c 00be 6f72 a03d 4c1b e9bd cc27 8b3d
00000040: 62ae 243d 6f91 17bd 7c5a d23d 4d0d de3c
00000050: cbd9 9a3d 9014 f6bd 5071 c33d 9188 c43d
00000060: 9497 fbbc 7360 b4bd e259 8b3d 77cc ef3d
00000070: 5b5d dabd a7d3 90bd c385 60bd 0e4e 40bb
00000080: f595 8f3d eec0 70bc dd18 42bd 1753 b53d
00000090: 235a 133d 1621 d03c eea0 793d a767 db3d
000000a0: 6d41 4abc 5c94 d53d 3bb3 f2bb 4b07 333c
000000b0: 88b1 cebd 3561 f8bd ddc5 60bd 4531 7fbc
000000c0: d46f b7bd 41bc afbd 07f6 873b e96b 6fbd
000000d0: 61a8 143d 8f1a 93bd 67c4 e73d bb50 703c
000000e0: 3697 ff3d 11cc 8ebd 1ef3 a4bd fa66 9b3d
000000f0: 5d7c 913d ebdd a2bc 997a c03d 0a3e 553d
00000100: 19b8 6f3d 02f1 343c f3e8 17bd 450b 27bd
00000110: 74ad 803d e740 19bd f4da b13c d0ca c33d
00000120: bcb6 a9bd 7a35 cdbd e608 173d 0230 893d
00000130: 4340 51bd 4446 8dbd 1c1d eebd 0f0e c73d
00000140: 3376 b13d 3877 d8bd b5a3 9bbd 34c4 08bd
00000150: 73fc f3bd 2b54 8dbc 5d07 ae3c a4e3 e53d
00000160: 4678 d53d 372f acbd b172 823c 440c ee3d
00000170: dee9 11bd 2f82 95bd 42cf a6bd 02f5 acbd
00000180: 42a2 9ebd 362e c3bc 7446 dfbd f401 95bd
00000190: e8c5 cd3d d20b 0e3d d95d 61bb 3646 7b3d
000001a0: 9fca 363d 1a2a 99bd 4d99 353d 7052 e6bc
000001b0: 4433 31bd 0c2a 533d 4efd b7bd 89ac ccbd
000001c0: a217 903d c138 d43d c14d ddbd 9ffa c53d
000001d0: cf7d c5bc 0971 493d e6a3 8b3d ec2b 20bb
000001e0: db31 933c ae0b e7bd a147 563d 45b6 99bd
000001f0: 42d7 b0bd 1982 f2bd 3f1d dabd 4be4 a63d

features.8.weight f4 [128]
0.99827725 1.0031623 0.9991023 0.9955741 0.99231225 1.0028913 1.0029151 0.9972267
1.0050588 0.99342287 0.9980472 1.0015382 1.0024493 1.0047191 1.0007718 0.9933371
1.0001371 0.99033576 0.9880564 1.0108018 0.9913247 0.99614114 0.994487 0.9981332
0.9951502 0.98500764 0.995811 1.0026039 1.0053059 1.002603 1.0016356 0.9857442
0.98979026 1.0140119 0.9994357 0.997437 0.98818713 0.9878996 0.9940767 1.0017613
0.9956042 1.0014737 1.0176375 0.9936899 0.9981055 0.99517965 1.0038092 1.0039978
1.0033175 0.99200404 1.0035995 0.99436766 0.99444634 1.0004038 1.0001382 0.9950965
1.0047494 1.0037874 1.0066383 0.9951224 1.0080395 0.9968562 1.0028703 1.0006673
1.0118129 1.0028653 1.0011559 0.99825275 1.0152249 0.9903649 0.9980389 0.99833584
0.9959953 0.9901799 1.0046687 1.0020084 1.0058492 1.0034596 0.9984168 1.0173035
0.9996046 1.0049261 0.9947415 0.99744415 0.99900895 0.99363494 0.99740523 1.0155201
0.9988259 0.9962617 1.0156974 0.9928523 1.0154513 1.0053974 1.0097486 1.0035492
0.99769336 0.99123484 0.9985927 1.0094583 1.0090561 0.99470973 0.99378973 1.0216542
0.9899324 0.9957465 0.999205 1.0099831 0.98732364 1.011094 1.0021445 1.0029672
1.0039549 1.0058311 0.99909633 1.0043925 1.0048227 0.9900815 1.0023239 1.0085602
1.0041381 0.9986612 0.98785365 1.0001073 0.998195 1.0044434 1.0061228 0.9989847
00000000: 198f 7f3f 9f67 803f 2bc5 7f3f f2dd 7e3f
00000010: 2d08 7e3f be5e 803f 865f 803f 404a 7f3f
00000020: c4a5 803f f650 7e3f 0580 7f3f 6732 803f
00000030: 4250 803f a39a 803f 4a19 803f 574b 7e3f
00000040: 7e04 803f a586 7d3f 44f1 7c3f f461 813f
00000050: 75c7 7d3f 1b03 7f3f b396 7e3f a885 7f3f
00000060: 2ac2 7e3f 7629 7c3f 78ed 7e3f 5355 803f
00000070: ddad 803f 4c55 803f 9835 803f bb59 7c3f
00000080: e562 7d3f 24cb 813f 05db 7f3f 0858 7f3f
00000090: d5f9 7c3f fde6 7c3f d07b 7e3f b739 803f
000000a0: ebdf 7e3f 4a30 803f f241 823f 7662 7e3f
000000b0: d883 7f3f 18c4 7e3f d27c 803f 0083 803f
000000c0: b56c 803f faf3 7d3f f375 803f e18e 7e3f
000000d0: 0994 7e3f 3b0d 803f 8704 803f a5be 7e3f
000000e0: a19b 803f 1b7c 803f 86d9 803f 57c0 7e3f
000000f0: 7007 813f f831 7f3f 0e5e 803f de15 803f
00000100: 1683 813f e45d 803f e025 803f 7e8d 7f3f
00000110: e4f2 813f 8e88 7d3f 7a7f 7f3f f092 7f3f
00000120: 8cf9 7e3f 6e7c 7d3f fc98 803f d041 803f
00000130: abbf 803f 5d71 803f 3e98 7f3f 0037 823f
00000140: 16e6 7f3f 6ba1 803f 61a7 7e3f 8058 7f3f
00000150: 0dbf 7f3f dc5e 7e3f f355 7f3f 90fc 813f
00000160: 0eb3 7f3f 020b 7f3f 5f02 823f 912b 7e3f
00000170: 4ffa 813f ddb0 803f 713f 813f 4d74 803f
00000180: d568 7f3f 91c1 7d3f c5a3 7f3f ee35 813f
00000190: c028 813f 4ca5 7e3f 0169 7e3f 91c5 823f
000001a0: 366c 7d3f 3ee9 7e3f e6cb 7f3f 2047 813f
000001b0: 3ec1 7c3f 876b 813f 4546 803f 3b61 803f
000001c0: 9881 803f 13bf 803f c7c4 7f3f ef8f 803f
000001d0: 089e 803f fb75 7d3f 264c 803f 8018 813f
000001e0: 9987 803f 43a8 7f3f fae3 7c3f 8403 803f
000001f0: b589 7f3f 9a91 803f a2c8 803f 76bd 7f3f

features.8.bias f4 [128]
0.0020582408 -0.0019473879 0.00016870028 -0.0045891595 -0.0043789023 0.005757257 0.0015391314 -0.0024588115
0.003411912 -0.0069767227 -0.0022522002 0.008604262 3.8012862e-05 0.0061242757 0.0039814035 -0.007818958
0.0025695013 -0.004095805 -0.007260417 0.010383714 0.0041430555 0.0010679784 -0.0011951884 0.00013366583
-0.004844789 -0.0019641023 0.0034304627 0.009041727 0.0052474616 -0.0023297197 0.008746544 -0.012153952
-0.009930212 0.013903552 -0.0007761892 -0.0044688657 -0.006937237 -0.01368791 -0.005445947 0.005532921
-0.0009635686 0.0035478822 0.011212765 -0.0025098 -0.002335052 -0.0054344838 -0.003864628 0.010767643
0.006427493 -0.012240806 0.0022140832 -0.0059421817 -0.01028604 -0.00018310544 -0.0030648638 -0.0062735584
0.003086956 0.00020970583 0.0072159767 -0.000489355 0.0065164547 0.008275743 -0.001318955 -0.0015886797
0.01180539 0.0007230253 -0.005232314 -0.003002185 0.014263117 -0.010319861 -0.0075203856 0.00047423714
-0.0055827363 -0.009130088 0.0014620188 0.0041898517 0.01049407 0.0036302768 0.001032282 0.015572645
-0.00074337714 0.005728785 -0.0027684476 0.0015988352 6.93944e-05 -0.0068075 -0.00035280202 0.016271843
0.0044391085 -0.00523374 0.013593091 -0.0135528995 0.017591633 0.006627617 0.007464953 0.0066477843
-0.0019022028 -0.0050165025 -0.00084571895 0.01173638 0.013376478 -0.005646338 -0.0028712468 0.01717441
-0.009428682 -0.0080560325 0.0019126132 0.0112858685 -0.011671142 0.0066271075 0.003498178 0.0068678567
0.0049282904 0.009709399 0.0035460338 -0.007135148 0.0043180366 -0.005875553 0.00089670357 0.010824852
0.0034556529 -0.0040379944 -0.0040324135 0.0018196787 -0.0066931034 0.005812361 0.006814519 0.00074057915
00000000: 8de3 063b 7f3f ffba 23e5 3039 a960 96bb
00000010: e57c 8fbb 5fa7 bc3b aebc c93a 0324 21bb
00000020: 629a 5f3b fe9c e4bb a699 13bb e4f8 0c3c
00000030: 0070 1f38 26ae c83b 6f76 823b 161b 00bc
00000040: 1465 283b 1a36 86bb cbe8 edbb 7420 2a3c
00000050: 78c2 873b 69fb 8b3a dea7 9cba a628 0c39
00000060: 09c1 9ebb 2bb8 00bb 9dd1 603b c023 143c
00000070: e6f2 ab3b 36ae 18bb aa4d 0f3c 5f21 47bc
00000080: 54b2 22bc b9cb 633c 2d79 4bba 906f 92bb
00000090: c351 e3bb 4143 60bc ea73 b2bb 814d b53b
000000a0: fe97 7cba 9683 683b bfb5 373c 757b 24bb
000000b0: ac07 19bb c113 b2bb b345 7dbb c56a 303c
000000c0: b89d d23b a98d 48bc 271a 113b a2b6 c2bb
000000d0: c786 28bc feff 3fb9 e2db 48bb 6c92 cdbb
000000e0: 874e 4a3b 7be4 5b39 0074 ec3b 0f48 00ba
000000f0: fc87 d53b fb96 073c c9e0 acba 3f3b d0ba
00000100: 656b 413c 6889 3d3a d573 abbb 4ec0 44bb
00000110: d9af 693c a214 29bc 916d f6bb 08a3 f839
00000120: 63ef b6bb 5d96 15bc 36a1 bf3a 064b 893b
00000130: 52ef 2b3c f0e9 6d3b a34d 873a 6824 7f3c
00000140: 32df 42ba 88b8 bb3b d86e 35bb 0290 d13a
00000150: d687 9138 7311 dfbb 49f8 b8b9 874c 853c
00000160: f175 913b cb7f abbb 8eb5 5e3c fb0c 5ebc
00000170: 541c 903c 7b2c d93b 919c f43b a8d5 d93b
00000180: 5653 f9ba 7961 a4bb 3db3 5dba f249 403c
00000190: 0429 5b3c eb04 b9bb 872b 3cbb 59b1 8c3c
000001a0: c27a 1abc 73fd 03bc a6b0 fa3a 5de8 383c
000001b0: 5138 3fbc 3528 d93b b041 653b c20b e13b
000001c0: 7f7d a13b 2c14 1f3c 9364 683b f6cd e9bb
000001d0: 517e 8d3b b687 c0bb c210 6b3a b85a 313c
000001e0: 3c78 623b 2751 84bb 5622 84bb 4982 ee3a
000001f0: d251 dbbb 9e75 be3b 544c df3b 6d23 423a

features.8.running_mean f4 [128]
-0.07009983 -0.6179661 0.21985899 -0.017802788 0.40986416 0.24456534 -0.198584 -0.2766365
0.027317591 0.109461196 -0.0039836885 -0.08585867 -0.25867593 0.31916845 -0.17665346 -0.26257858
0.11701698 0.12030181 0.10592652 -0.33354503 -0.044809207 -0.024585154 -0.19327958 0.41187787
-0.41193664 0.3444909 0.22174054 0.1391555 -0.087693766 -0.004561262 -0.041922726 0.12367897
-0.016674193 0.11353548 -0.40187564 0.4724058 -0.093937255 -0.23432295 -0.18146831 0.15672116
0.4156463 0.15867749 -0.16479826 -0.23276201 -0.115861885 -0.17109405 0.122892536 -0.24867676
-0.3555561 0.3327108 -0.33937985 0.027083967 0.12673232 0.32048905 0.30174765 -0.065294445
0.16098918 -0.06911681 -0.37521812 -0.2581607 -0.108554296 0.09036104 -0.12249107 -0.077614516
0.099260606 0.022184161 -0.030220658 0.062744536 -0.15996996 0.020914882 0.25834146 0.26807663
0.23101278 -0.32323807 -0.083357655 0.26864728 -0.13705821 -0.07114315 -0.33260718 -0.06568196
0.23506509 0.3481288 -0.22449706 -0.28132182 -0.12529314 0.057125047 -0.5462428 0.025109299
0.11090107 -0.7941034 0.21912968 0.3610214 -0.014721595 0.008777446 -0.43221337 0.108324245
-0.09048574 -0.084691145 -0.23024017 0.32013574 -0.04550298 0.3828045 -0.14002563 0.23774351
-0.057830334 -0.050870515 0.078413114 -0.3914496 0.09165037 -0.0028391108 0.023701712 -0.46299726
-0.31619546 0.13931033 -0.47993678 0.39091834 0.07206385 -0.37673914 0.20031472 -0.31675333
0.20145741 0.12446845 0.30402282 0.13366294 -0.091853194 -0.25118777 -0.062107105 0.23434386
00000000: 8090 8fbd 0733 1ebf b722 613e 27d7 91bc
00000010: b7d9 d13e 566f 7a3e 9b59 4bbe 4da3 8dbe
00000020: 24c9 df3c 312d e03d 9a89 82bb acd6 afbd
00000030: 2c71 84be 0c6a a33e a5e4 34be b370 86be
00000040: 99a6 ef3d cc60 f63d 01f0 d83d 6ac6 aabe
00000050: dc89 37bd ce66 c9bc 15eb 45be a8e1 d23e
00000060: 5ce9 d2be 1c61 b03e f40f 633e c87e 0e3e
00000070: ca98 b3bd a476 95bb 2ab7 2bbd 664b fd3d
00000080: 5198 88bc 4a85 e83d a5c2 cdbe 2cdf f13e
00000090: 2d62 c0bd 5bf2 6fbe d4d2 39be 837b 203e
000000a0: 98cf d43e 5a7c 223e e0c0 28be 2a59 6ebe
000000b0: ff48 edbd 4733 2fbe 15af fb3d 1fa5 7ebe
000000c0: 730b b6be 1259 aa3e 32c3 adbe 32df dd3c
000000d0: 1ec6 013e 2417 a43e ab7e 9a3e 18b9 85bd
000000e0: 59da 243e 1d8d 8dbd 971c c0be a42d 84be
000000f0: b751 debd 350f b93d 99dc fabd 5cf4 9ebd
00000100: 2549 cb3d 8fbb b53c 5091 f7bc 3580 803d
00000110: 2acf 23be b055 ab3c 5545 843e 5741 893e
00000120: 9d8e 6c3e 767f a5be 6bb7 aabd 238c 893e
00000130: fd58 0cbe 80b3 91bd 7d4b aabe 4384 86bd
00000140: e7b4 703e f03d b23e 8fe2 65be 6a09 90be
00000150: d84c 00be f4fb 693d 91d6 0bbf 04b2 cd3c
00000160: 1a20 e33d 5c4a 4bbf 8863 603e ccd7 b83e
00000170: d832 71bc 47cf 0f3c 124b ddbe 1ad9 dd3d
00000180: 9650 b9bd 8d72 adbd 14c4 6bbe d5e8 a33e
00000190: 5561 3abd f4fe c33e e162 0fbe 0973 733e
000001a0: 80df 6cbd 9a5d 50bd 0e97 a03d 156c c8be
000001b0: 30b3 bb3d 6010 3abb 182a c23c fa0d edbe
000001c0: 5fe4 a1be 5ea7 0e3e 46ba f5be 7326 c83e
000001d0: 3696 933d f4e3 c0be 4d1f 4d3e 7e2d a2be
000001e0: da4a 4e3e 51e9 fe3d e1a8 9b3e f0de 083e
000001f0: 871d bcbd af9b 80be 0564 7ebd d6f7 6f3e

features.8.running_var f4 [128]
0.34802756 0.16857697 0.14190124 0.13255318 0.3708808 0.30974138 0.15531534 0.1303796
0.107955724 0.13081126 0.07948119 0.17265418 0.17101689 0.18258417 0.19013329 0.29656693
0.1638889 0.21291338 0.19626774 0.25802493 0.20109756 0.15057334 0.28716466 0.17353971
0.1609074 0.12668632 0.2811441 0.1447195 0.24539696 0.11695541 0.098556444 0.15183166
0.13058236 0.22471303 0.40537795 0.12213303 0.23712625 0.16161528 0.31498125 0.26037
0.098426014 0.18936415 0.14671963 0.26369658 0.21328227 0.14601818 0.21323463 0.15007122
0.15313016 0.13067615 0.12931821 0.19073099 0.1590142 0.14429036 0.17512338 0.28552082
0.11938577 0.21039043 0.32290423 0.1730654 0.46058434 0.17037411 0.2751324 0.12860423
0.2573461 0.18496914 0.28198445 0.15538242 0.49906403 0.17007923 0.24338248 0.19308688
0.15246071 0.16454776 0.18411039 0.32772684 0.14553252 0.18165949 0.28023565 0.24522129
0.1453817 0.23452918 0.092155635 0.16046695 0.23221947 0.13086602 0.20383318 0.17273033
0.13122745 0.18768808 0.22092238 0.14446636 0.2944204 0.18434016 0.2184354 0.13779154
0.1512425 0.21789412 0.17168958 0.2102827 0.174546 0.15466861 0.096890815 0.29863355
0.11275685 0.27288353 0.12613365 0.44823906 0.09966163 0.23331852 0.17677121 0.15931265
0.28203556 0.19137006 0.1578049 0.28513134 0.28752854 0.07504937 0.22372526 0.17669111
0.11524828 0.102020614 0.14007226 0.1494079 0.29104692 0.14215992 0.20554465 0.23288608
00000000: ab30 b23e 719f 2c3e 8f4e 113e 05bc 073e
00000010: 17e4 bd3e 6c96 9e3e fc0a 1f3e 3b82 053e
00000020: e417 dd3d 63f3 053e 09c7 a23d 42cc 303e
00000030: 0d1f 2f3e 58f7 3a3e 4db2 423e 9fd7 973e
00000040: 7ed2 273e f705 5a3e 69fa 483e d81b 843e
00000050: 85ec 4d3e e62f 1a3e 3f07 933e 65b4 313e
00000060: e9c4 243e 0fba 013e 1ff2 8f3e 5931 143e
00000070: 5749 7b3e 5186 ef3d f6d7 c93d c279 1b3e
00000080: 62b7 053e 2c1b 663e b38d cf3e e220 fa3d
00000090: 39d1 723e 7a7e 253e 3945 a13e 374f 853e
000000a0: 9493 c93d ade8 413e ac3d 163e 3d03 873e
000000b0: ab66 5a3e ca85 153e 2e5a 5a3e 45ac 193e
000000c0: 27ce 1c3e f8cf 053e fe6b 043e fc4e 433e
000000d0: 9ed4 223e dac0 133e 8b53 333e c92f 923e
000000e0: 8780 f43d 9770 573e b453 a53e 0e38 313e
000000f0: b6d1 eb3e 8d76 2e3e 27de 8c3e d4b0 033e
00000100: dec2 833e 8d68 3d3e 4460 903e 921c 1f3e
00000110: 5285 ff3e 4029 2e3e 4239 793e 91b8 453e
00000120: a91e 1c3e 357f 283e 6f87 3c3e d0cb a73e
00000130: 7a06 153e f204 3a3e 0c7b 8f3e 4a1b 7b3e
00000140: f1de 143e 6b28 703e 18bc bc3d 7351 243e
00000150: f1ca 6d3e be01 063e a5b9 503e 38e0 303e
00000160: 7d60 063e 4e31 403e 7a39 623e fdee 133e
00000170: 45be 963e abc3 3c3e 88ad 5f3e 3a19 0d3e
00000180: 50df 1a3e a31f 5f3e 65cf 2f3e 5954 573e
00000190: 30bc 323e 7361 1e3e b16e c63d 7fe6 983e
000001a0: 10ed e63d 64b7 8b3e 2e29 013e 977f e53e
000001b0: 661b cc3d 0deb 6e3e 8303 353e db22 233e
000001c0: f766 903e 83f6 433e 9c97 213e bcfc 913e
000001d0: f136 933e 7cb3 993d 3c18 653e 84ee 343e
000001e0: 4a07 ec3d 2ff0 d03d 1a6f 0f3e 62fe 183e
000001f0: 1a04 953e 5f92 113e 4c7a 523e b079 6e3e
