Project Pivot Final New/models/stance.pt (torch, 365293 bytes, 38 tensors)

features.0.weight f4 [32, 28]
000000 6e 1a eb 3d d5 fc 0d 3d 71 3c 8d bb 93 eb c9 bd
       0.114796504 0.034664948 -0.0043101837 -0.09859385
000010 be cf 13 3e e5 51 1a 3e 2d 4a 7d bd d3 03 91 bd
       0.14434716 0.15070303 -0.061838318 -0.070808075
000020 3c e9 16 3e f8 25 37 3c 2d 17 b0 bd 85 d7 58 3b
       0.1473741 0.011178486 -0.085981704 0.0033087444
000030 06 bf e3 3d 20 c8 15 3e ff 9e 4a bd e5 a8 1d 3e
       0.11120419 0.14627123 -0.049468037 0.1539646
000040 9f 5b 88 bb 94 08 2f 3e 5f 3c bf bd 93 84 da 3d
       -0.0041613127 0.17093116 -0.09337687 0.10669818
000050 0b f0 60 3d 23 13 1d bd 42 82 2b 3d 77 a7 08 3e
       0.054916423 -0.03834833 0.04187227 0.13345133
000060 95 73 ce 3c f9 36 33 3d 0e bd 00 be 6e 16 4a bd
       0.025201598 0.043753598 -0.12572119 -0.049337797
000070 b2 db 1f 3e a6 53 b2 3d 58 46 d9 bd 0b e2 38 be
       0.15611151 0.08707361 -0.1060912 -0.18054979
000080 78 2e 13 be 10 5b a9 3d 09 7d 3c be 81 c2 81 3d
       -0.14373195 0.08269322 -0.18407072 0.06335927
000090 45 0a 01 3e d1 7c 1c be 78 07 b9 bd 66 a1 07 be
       0.12601574 -0.15281989 -0.09034628 -0.13245162
0000a0 8c a1 40 3d 74 57 1d bd 8b 46 97 bc a1 64 98 bd
       0.047029063 -0.03841348 -0.018466255 -0.074410684
0000b0 06 6d bc bd b2 e7 08 be a4 46 79 37 b7 1e ef bd
       -0.09200482 -0.13369635 1.4858004e-05 -0.1167578
0000c0 b8 0c f9 3d df d4 18 be 87 f7 06 3d 31 c2 88 bd
       0.12160629 -0.14924954 0.032950904 -0.06677664
0000d0 38 6b 17 3c 6b fc 3c bd 87 2e c9 bd 1a 26 50 bd
       0.009241872 -0.046139162 -0.098233275 -0.050817586
0000e0 92 a3 dc bd cc bd ed bd f1 73 2e bd 34 04 e3 3d
       -0.10773386 -0.116084665 -0.04259104 0.11084786
0000f0 0b 61 73 bd f3 0e 1f bd d2 e3 16 3e 7d c1 e2 3d
       -0.05941872 -0.038832616 0.14735344 0.11072061
000100 cf f0 22 be 36 64 13 3e ee 80 89 3d 4d bf 12 be
       -0.15912174 0.14393696 0.067140445 -0.14330788
000110 ff 5a e3 bd af 41 e8 3d ee ec d9 bd 04 45 a6 bd
       -0.111013405 0.11340653 -0.10640894 -0.081186324
000120 2e 04 09 be c2 9c c8 3b 3f 11 41 3e f9 c2 0f 3e
       -0.133805 0.0061222026 0.18854235 0.1403922
000130 83 a5 d7 bc 8b fa 2a 3e 1e aa 26 be 28 3a 7c bd
       -0.02632404 0.16697137 -0.16275832 -0.0615789
000140 07 51 2d 3e 81 07 32 bb bb fe 2f 3d fc a9 5c bd
       0.1692544 -0.0027165117 0.04296754 -0.053873047
000150 72 e4 0c bd 65 32 4f 3e 44 ca b6 3d bf d5 55 bd
       -0.03439755 0.20234068 0.08925298 -0.052205797
000160 79 01 02 3e 12 cf cf bd 83 c1 ec 3d 2e 52 fb 3d
       0.12695874 -0.101469174 0.11560347 0.12271534
000170 3c 10 3f be 69 c1 19 be 9f 49 6a 3d bb ef 14 3e
       -0.18658537 -0.15015186 0.057199117 0.14544575
000180 a2 0b 93 3c 9e 45 08 be 22 fa e6 3c 30 89 3f 3e
       0.017949883 -0.13307807 0.028195444 0.18704677
000190 ef 11 b9 bd 9f 77 59 bd ed 77 1a 3d ea 7d 2c 3d
       -0.09036624 -0.053092595 0.037712026 0.04211227
0001a0 3b 45 6f bd f4 00 d1 bd 31 9d 2b 3d 79 92 03 bd
       -0.058415633 -0.1020526 0.041897956 -0.03212211
0001b0 c5 1d 38 be 14 2f 39 3e ed 47 41 3d e0 1a 2d 3e
       -0.17980106 0.18084365 0.047187734 0.16904783
0001c0 c6 d1 3f 3e 6c 80 cc 3d 80 c6 0f be bf 73 9b 3d
       0.18732366 0.09985432 -0.14040565 0.07590436
0001d0 10 9e 8a 3d 52 74 21 be e6 e2 7b bd 34 8e 8b 3d
       0.06768429 -0.15767029 -0.061495684 0.068142325
0001e0 3c f7 47 3e ee 8e d8 3d a7 0e 40 3c aa d8 24 be
       0.19527906 0.10574137 0.011722243 -0.16098276
0001f0 3b a7 ba bd 12 8d 07 3e 55 56 3a 3e bf 87 8d 3d
       -0.09113928 0.13237408 0.18196996 0.06910657
000200 1e d6 04 be ff ec b1 ba 68 86 14 bd ef d0 cc bd
       -0.12972304 -0.0013574659 -0.036260992 -0.100007884
000210 11 fd 3a be 59 9c ba bd 2f 68 f2 bd f8 ea 49 be
       -0.182606 -0.09111852 -0.11836278 -0.1971854
000220 b2 b3 21 3e 1b 43 30 bc 90 1b 0e 3e a9 8c 1e bd
       0.15791205 -0.010758187 0.13877702 -0.038708363
000230 ef d3 cd 3d ef 14 5f bd e7 2b 3b 3e 9a 61 f1 bd
       0.10050189 -0.054463323 0.18278466 -0.11786194
000240 ae c2 2c be 0a eb ff bd b8 0d 13 bd 4d 49 34 3e
       -0.1687114 -0.12496002 -0.035901755 0.17606087
000250 b8 86 35 bd 76 ad ab 3d ea d5 89 bd 5c 18 1e 3e
       -0.04431793 0.083826944 -0.06730254 0.1543898
000260 fe c5 87 3d 1b 5b 72 bc 2a c4 d6 3d e7 58 3b 3e
       0.06629561 -0.014792229 0.10486634 0.18295632
000270 4d 90 0a be 6b 50 03 3e b9 fb de bd ab a0 a0 3d
       -0.13531609 0.12823646 -0.10887856 0.07843145
000280 9d 32 07 3d 1f 83 41 3d b8 b2 e0 bd 7a e9 65 bc
       0.033007253 0.047244187 -0.10971588 -0.014032716
000290 16 f0 74 bd 96 b1 37 be 0a ac 81 bd a7 c9 87 3c
       -0.059799276 -0.17938837 -0.06331642 0.016575648
0002a0 ba 03 85 bd 35 f6 f6 bd b1 5d 4c bd 95 65 12 3e
       -0.064948514 -0.12058679 -0.04989404 0.14296563
0002b0 93 56 5d 3c 66 11 b2 bd b7 e4 25 bb 9e 50 6f 3c
       0.01350941 -0.08694725 -0.0025313327 0.014606623
0002c0 56 9e 13 bd 68 fa 09 bd b7 c5 38 be 85 0a eb 3d
       -0.036039673 -0.03368607 -0.18044172 0.11476616
0002d0 69 ce 86 bd c7 cf da bd b6 81 0c 3e 9b 0b 30 bd
       -0.06582338 -0.10684162 0.13721356 -0.042979818
0002e0 ba 51 d3 bd e4 3f 83 3d 8e da 9a bd c8 00 39 3e
       -0.103183225 0.064086705 -0.07561217 0.18066704
0002f0 65 f3 aa 3c b1 b2 36 bd 67 28 14 be b9 bf 9a bc
       0.020868013 -0.044604007 -0.14468537 -0.018890249
000300 d5 c2 02 3e 8e 41 17 be 79 09 a6 bd 8e 91 09 3e
       0.12769635 -0.14771101 -0.081072755 0.13434431
000310 89 db 14 3e cd 6f f5 bd 17 70 ae 3c c2 0b b8 3d
       0.14536871 -0.11984215 0.021293683 0.089866176
000320 40 1b 06 3e e6 d5 2a 3e 06 32 03 3e 01 25 39 bd
       0.13096333 0.16683158 0.12812051 -0.045201305
000330 e1 06 f4 bd 88 15 13 3d 6c 14 24 be 06 88 be 3d
       -0.119153745 0.035909206 -0.16023415 0.09303288
000340 3c 8c e6 bd 87 58 2f 3e 8f ae e5 bd 54 15 cd 3d
       -0.11257216 0.17123614 -0.11214935 0.10013834
000350 69 8e 76 bd d3 82 28 bd ad ef 92 bd 49 2f 89 3c
       -0.060194407 -0.04114039 -0.07174621 0.01674618
000360 cc 5a 4b bd 92 5b a3 3d 1b 2c 2c be 76 d5 02 3e
       -0.049647138 0.0797645 -0.168137 0.12776741
000370 6a f9 2e 3e 1d a1 e8 bb e4 cf 2d be 49 f8 10 3e
       0.17087331 -0.0070992843 -0.16973835 0.14157213
000380 4d 2d c9 bd 36 4d a4 ba 07 81 47 bd 51 41 a9 3c
       -0.098230936 -0.0012535218 -0.048707034 0.020661028
000390 51 5c 93 3d 61 66 09 bd 8f 01 e5 3d 6a 71 ce 3d
       0.07195342 -0.0335449 0.11181938 0.10080226
0003a0 78 7a 0c 3e 32 3a a1 3d 76 ce c0 bd 1c 39 0b bd
       0.13718593 0.07872428 -0.09414379 -0.03399001
0003b0 9b d7 1b 3d 0b 1e 12 be e6 29 45 be a7 14 b4 bd
       0.038047414 -0.14269273 -0.19254264 -0.087930016
0003c0 53 81 f3 bb aa 09 36 3e 2d 2f 1c be 1a ce 3e bd
       -0.007431188 0.17777124 -0.15252371 -0.046583273
0003d0 c2 30 43 bc 6d f4 ca 3d 6f 10 02 be e0 ef 3c be
       -0.01191348 0.09909902 -0.12701581 -0.1845088
0003e0 ff b3 f3 bd 2f 2a b2 bd 5e cb 08 3e 50 8a 01 bd
       -0.11899566 -0.08699452 0.13358828 -0.031626046
0003f0 26 08 1d 3e ab 02 a3 bb c9 8d e3 3d 47 c4 2e 3e
       0.1533514 -0.0049746833 0.11111028 0.17067061

features.0.bias f4 [32]
000000 ac 0a 02 bd 89 9d be 3d 87 17 3a be 02 8b 13 be
       -0.03174846 0.09307391 -0.18173037 -0.14408496
000010 fa d4 ac 3d a1 e7 76 bd b9 6e e7 bc 6b f7 36 3e
       0.084390596 -0.060279492 -0.028251039 0.1786782
000020 00 62 83 3b b9 8d b2 bd df 94 e7 3d 74 76 b4 3d
       0.0040094852 -0.08718438 0.11307692 0.08811656
000030 b7 12 0b be 7e f4 b9 b9 79 43 ca bc 8a 2f 12 be
       -0.13581358 -0.0003546811 -0.024690377 -0.14275947
000040 de a4 cc bd bc 6c 13 3e 13 dc f2 bd 02 a1 34 3e
       -0.099923834 0.14396948 -0.11858382 0.17639545
000050 58 34 03 3d a5 a4 dd 3d 98 ce 13 3e 4d e2 2b 3d
       0.03203234 0.10822419 0.14434278 0.041963864
000060 5a 21 89 3d 7c c4 0f 3e 24 b7 de bd 0c 87 37 3e
       0.066958144 0.14039797 -0.10874775 0.1792261
000070 85 bf 03 3e 89 b0 35 be fe 0b 62 3d 23 d8 8e bd
       0.12866028 -0.17743124 0.055187218 -0.069748186

features.1.weight f4 [32]
000000 3f b1 80 3f 5d 13 80 3f 17 3e 7e 3f e2 a4 7e 3f
       1.0054091 1.0005909 0.9931349 0.9947034
000010 d2 d7 7d 3f 96 87 7d 3f ec 43 7b 3f 91 11 81 3f
       0.9915744 0.9903501 0.98150516 1.0083486
000020 6b 35 7e 3f 25 cd 7e 3f 3c 84 7f 3f 68 6d 82 3f
       0.9930026 0.99531776 0.9981115 1.0189638
000030 d0 93 80 3f b4 db 7f 3f a3 8d 7c 3f 26 f8 7f 3f
       1.0045109 0.99944615 0.9865362 0.9998802
000040 6d d4 81 3f 7b 6e 7d 3f 86 de 81 3f d7 32 7e 3f
       1.0142952 0.98996705 1.0146034 0.99296325
000050 9f c0 80 3f 7b 5f 81 3f 95 de 80 3f 24 4c 81 3f
       1.0058783 1.0107263 1.0067927 1.0101361
000060 5d 9d 81 3f ed bc 7c 3f 54 69 81 3f b9 33 7c 3f
       1.0126148 0.9872578 1.0110269 0.9851642
000070 59 69 7f 3f eb 9e 80 3f 81 24 81 3f 5c 1d 7e 3f
       0.9977012 1.0048498 1.0089265 0.9926355

features.1.bias f4 [32]
000000 cb be c7 3b 37 07 75 3c ae 87 1a 3c a9 b6 5e 3b
       0.0060957423 0.014955333 0.009431763 0.0033983386
000010 31 8a ae bb 9a c7 1a 3b 0f 2d 8c bc cb 16 63 3c
       -0.0053265323 0.0023617507 -0.01711133 0.013860415
000020 96 fd 65 bc 65 d9 26 bc 21 bd 80 3c e3 59 89 3c
       -0.01403751 -0.010183667 0.015715184 0.016766494
000030 15 a0 d8 bb ac cc 5d bb ae 60 9c 38 c9 ae 00 bb
       -0.00661088 -0.0033843918 7.456668e-05 -0.001963543
000040 83 17 d1 39 31 88 8a bc c3 29 4c 3c d7 2d 30 3b
       0.00039881104 -0.016910644 0.012461129 0.0026882791
000050 3b ed 9c 3c f3 ad bb 3c 00 01 dc 3c 20 7d 8c 3b
       0.019156089 0.022910094 0.026855946 0.004287377
000060 de d4 78 3c 00 f8 3d bc 87 ca e9 3b 4f 71 41 bc
       0.01518747 -0.011594772 0.007134739 -0.0118068
000070 6b 1a cc 3b 5d 90 d3 bb 71 3f 0c 3c c3 c3 af bb
       0.006228735 -0.0064564184 0.0085600475 -0.005363913

features.1.running_mean f4 [32]
000000 49 5d 80 3e f3 49 2d bf 53 8f a5 3e 5e c9 4a 3e
       0.2507117 -0.6769096 0.3233591 0.19803378
000010 6b 0d 70 bf 11 56 df 3c 1f f9 97 be 28 76 49 3e
       -0.93770474 0.02726272 -0.29682252 0.1967398
000020 ce 69 10 bf 8c 77 34 bf a8 76 4e bc 6e e8 57 bf
       -0.56411445 -0.70494914 -0.012601532 -0.84339035
000030 8c 45 69 3c db d5 32 bf 71 f3 56 3d e4 af dc be
       0.014237773 -0.6985757 0.052478258 -0.43102944
000040 85 0a 29 be 2c 2d 63 be 78 b7 e2 bd 0c fd 61 3f
       -0.16507919 -0.221852 -0.1107015 0.88276744
000050 2b 6a 7f be 8e 2a ad bd e0 1b 71 3f 93 d0 93 bc
       -0.24942844 -0.08455382 0.9418316 -0.018043792
000060 ef 2d ad 3e d2 05 0b 3d 93 08 d8 3e 9a 0d 4b 3f
       0.33824107 0.033941098 0.42194042 0.7931763
000070 a5 3e 1f 3f 50 3b 9d 3e ed 0f 5e bf d6 91 15 3f
       0.6220496 0.30709314 -0.8674305 0.58425653

features.1.running_var f4 [32]
000000 28 5f 86 3c 04 87 b8 3c 3d 7c 8c 3c ea e2 9e 3c
       0.016402796 0.022525318 0.017149085 0.01939531
000010 d9 f1 d5 3c 6c 55 86 3c 40 a1 50 3c df 6f 50 3d
       0.026116299 0.016398154 0.0127337575 0.05088794
000020 16 a9 f0 3b 1e bd f0 3c fc df 2a 3c 4b 49 5a 3c
       0.0073443754 0.029387053 0.010429379 0.0133231385
000030 f5 df 8d 3c 36 ec 3b 3c 6c e6 51 3c ab 53 03 3c
       0.017318705 0.011469891 0.0128112845 0.0080155535
000040 02 da 60 3c 38 80 09 3d 5f cf 76 3c 5c e4 02 3d
       0.013723852 0.033569545 0.01506409 0.03195606
000050 d0 bb af 3c be ca a2 3c bb 02 39 3c 94 86 a2 3d
       0.02145186 0.019872066 0.011292155 0.07935825
000060 4c 43 9f 3c d5 37 a8 3b e7 fb 5d 3c cb cf 20 3c
       0.01944127 0.005133609 0.013548828 0.009815167
000070 f5 1d 1c 3d 23 db 3b 3d 18 cf d4 3c 9d 5e 65 3c
       0.038114507 0.045863282 0.025977656 0.013999608

features.3.weight f4 [64, 32]
000000 1e a0 44 bd d6 20 f0 bd 4a bf bf bd 1d 58 3a 3d
       -0.048004262 -0.11725013 -0.09362657 0.045494188
000010 19 7a 7c bd 39 ba 1f 3e 46 93 0a 3e 91 3c 89 bc
       -0.06163988 0.15598382 0.13532743 -0.016752513
000020 76 e6 9d 3d ab cb c4 bd 20 5a 0a be 48 ea 27 3e
       0.077099726 -0.09609159 -0.13510942 0.16397965
000030 e5 54 f1 3d 2b 68 cc 3c 86 1e db bd 7b c5 cc b9
       0.117837705 0.024952015 -0.10699181 -0.00039057047
000040 a8 c6 dc 3d 18 7d 83 3d ee 14 de bd 5a 2e 10 be
       0.10780078 0.06420344 -0.10843836 -0.14080182
000050 65 c9 34 be f2 54 26 be 07 82 39 be a2 89 0c be
       -0.17654951 -0.16243342 -0.18116008 -0.13724378
000060 d0 2b 16 3e 68 3d b2 bd 59 c3 56 bd fd 0e 81 bc
       0.1466515 -0.087031186 -0.05243239 -0.015754217
000070 8f 42 04 be a3 64 86 bd df 6f 41 3e 27 a5 d1 bd
       -0.12916015 -0.06562164 0.18890332 -0.102365784
000080 b9 43 c6 bd b2 ab f2 bd b2 c7 be bd 73 72 8f bd
       -0.09680886 -0.118491545 -0.093154326 -0.07004251
000090 42 4a 07 be 4a e1 05 3e 9f 3a 03 3c 84 07 e8 3c
       -0.13211921 0.13074222 0.008009582 0.028323896
0000a0 d8 ae ae 3d ea a1 05 3e a1 65 c6 bd 22 b6 c1 bd
       0.085294425 0.13050047 -0.09687353 -0.09458567
0000b0 4a b4 a4 3d 33 34 fc bc 7c 3a 04 be 1c 3a a4 3c
       0.080422 -0.03078661 -0.12912935 0.02004724
0000c0 fa 5b 0e 3e 68 3a 6c bd 0d d3 c7 3d bd 4e 03 3d
       0.13902274 -0.057672888 0.097570516 0.032057513
0000d0 20 71 0d 3e 5c 42 f7 3d 39 fb 3f 3e 40 2d c0 bd
       0.13812685 0.12073204 0.18748178 -0.09383631
0000e0 df ab 34 3c 68 0d 9a 3d 59 43 19 3a b4 b2 38 3e
       0.011027305 0.07522088 0.00058465224 0.1803692
0000f0 14 ba 52 3d 8c 17 2c be c5 7e 2a be 3e 5b 54 3d
       0.05144699 -0.16805857 -0.16649921 0.051844828
000100 e2 e6 b8 3b 12 36 9b bd ce 1f 62 3c fb a4 2f be
       0.0056427578 -0.075786725 0.013801528 -0.17152779
000110 8e 4d 20 3d c0 11 16 bd 77 27 ef bd 3d d3 e0 3c
       0.039136462 -0.03663802 -0.11677449 0.027444476
000120 55 36 f3 3d 9d b6 18 3e 21 7a 14 be 60 ae fe bc
       0.118755974 0.14913411 -0.14499713 -0.031089008
000130 f3 b9 4f bd d4 cc 42 bd 1e 12 ce 3d 7f a7 c5 bd
       -0.050714444 -0.04755862 0.10062049 -0.09651088
000140 ba 48 17 be f0 3d 09 3e 52 aa c9 bd f2 ba f6 3c
       -0.14773837 0.13402534 -0.09846939 0.03011844
000150 17 b7 8e bd 63 27 40 be 58 b7 26 3e 5c 5b 4c 3b
       -0.06968515 -0.18765025 0.16280878 0.0031182384
000160 e7 14 c2 3d 47 23 91 ba b2 23 e0 bc 0a 11 a1 3d
       0.09476643 -0.0011073136 -0.02736077 0.07864578
000170 26 c7 0b 3e 9c 01 32 be f4 9f 94 3d 53 06 74 bc
       0.13650188 -0.17383426 0.07257071 -0.014894086
000180 cb 43 d8 3c e9 6e b1 3c 60 67 8e 3d ce 21 b4 3c
       0.026399514 0.021659331 0.06953311 0.021988776
000190 14 86 df bd b2 b3 c4 3d de 2a 15 3e d7 91 2a be
       -0.10914245 0.09604587 0.14567134 -0.16657196
0001a0 0e d2 e1 3c 62 df 07 3e f9 02 c9 bb 19 15 20 3d
       0.027565982 0.13268808 -0.0061343876 0.03908262
0001b0 cb 88 6d bd 7d f4 15 be 48 b9 05 3d 07 2e f8 bd
       -0.057991784 -0.14644046 0.0326474 -0.12118154
0001c0 e3 62 8e 3d 60 cf 23 be 7f de e3 bd d1 14 0a 3e
       0.06952455 -0.15997076 -0.11126422 0.13484503
0001d0 b9 18 2e bd 5b 2d a1 bd 0c c3 9b 3d 24 cd ee bd
       -0.042504046 -0.07869979 0.076055616 -0.11660221
0001e0 7e 2c 32 be c6 2b 0a be 00 c9 a6 3d 43 46 60 bd
       -0.17399785 -0.1349326 0.081438065 -0.054754507
0001f0 72 3e 2d be e5 77 08 3e 87 43 4b bd 31 37 02 3e
       -0.16918352 0.13326986 -0.049624946 0.12716366
000200 c0 e7 e6 3d 96 38 69 bd ee 0c 24 3d 97 d8 ed bd
       0.112746716 -0.05693873 0.040051393 -0.11613577
000210 eb f4 e4 3c c1 83 9d 3b d0 34 93 3d e5 a4 98 bd
       0.027948817 0.004806966 0.071878076 -0.07453326
000220 13 0b 9b 3c ac e7 16 be 4d ac 82 3d e4 51 2b be
       0.018926179 -0.14736813 0.0638052 -0.16730458
000230 b5 96 c7 bd 97 ba cf bd fa 64 f6 3d 3e 9f b1 3d
       -0.09745542 -0.10143011 0.120309785 0.08672951
000240 47 8a ab bd 6d d3 18 bc 07 cc ee 3d 6c bb 42 be
       -0.08375984 -0.009327752 0.11660009 -0.19016808
000250 68 12 81 3c cc 9a 09 bd 1e 43 df bd df 62 88 3d
       0.015755847 -0.03359489 -0.109014735 0.06659483
000260 08 15 10 3e a6 5f 4a 3d 44 04 83 3d 95 c6 aa bd
       0.14070523 0.049407624 0.06397298 -0.08338658
000270 93 52 17 3e ae 7e 35 3c 35 76 2b bd c5 2f 14 bd
       0.14777593 0.011077566 -0.041860778 -0.03617837
000280 68 1f 6e bb 43 71 16 be c6 eb 1d be 3d 6f 26 3e
       -0.0036334638 -0.14691643 -0.15421972 0.16253372
000290 3b 02 bf bd 0a 3b 25 3e 58 04 ec 3d 3e 07 0a 3e
       -0.09326597 0.16135803 0.11524266 0.13479325
0002a0 f0 2c 12 3e 36 3f df bc 4d 5a 31 be bb f1 1f be
       0.14274955 -0.027251821 -0.17319603 -0.15619557
0002b0 f3 ef b9 bd 36 25 1e be c0 29 e7 3d 84 5b 23 bd
       -0.0907897 -0.15443882 0.1128726 -0.039882198
0002c0 a8 6f 2a bd 06 b9 00 bd 61 f7 e8 3c 81 c7 17 3d
       -0.04161039 -0.031426452 0.028438272 0.037055496
0002d0 db c8 6d 3d 37 42 1f 3d c2 78 87 3d 37 77 17 3e
       0.05805288 0.038881507 0.066148296 0.1479157
0002e0 c3 ec aa bd 06 30 15 be 9a 73 16 3d 22 60 2c 3e
       -0.0834594 -0.145691 0.03673134 0.16833547
0002f0 22 9b a1 bd de 6c 22 bd a6 6a 9e 3d d7 8f d4 3d
       -0.07890917 -0.039654605 0.07735185 0.10378998
000300 0e 44 09 3e f7 2f 1d 3e 71 5c 41 3d 9f 90 3c 3d
       0.13404867 0.15350328 0.0472073 0.04603636
000310 bd 90 80 bd b2 a0 ba bd 23 1a ce bd 16 84 29 3e
       -0.06277607 -0.091126814 -0.10063579 0.16554293
000320 42 52 ed 3d cc 58 34 bb 31 d0 ac bc 3b c3 c0 bd
       0.11587955 -0.0027518747 -0.021095367 -0.09412237
000330 a7 b0 a7 bc 76 b5 15 bd ef 7e 94 3c 9f 02 24 3d
       -0.020469977 -0.036550008 0.018126933 0.040041562
000340 bd 00 87 bd ad 67 04 3c 85 75 98 bd b3 0c 1d 3e
       -0.06591938 0.008081359 -0.0744429 0.15336876
000350 89 97 c9 3d 2a da 2c 3e 59 61 1c be 70 a7 68 3d
       0.09843356 0.16880098 -0.1527151 0.056800306
000360 75 50 b8 3d 40 81 a9 bd 49 f9 ae bd 2b 7b 18 3d
       0.08999721 -0.082766056 -0.08543641 0.037226837
000370 74 03 08 be bd c6 f5 3d 49 1b 31 3e 0e 99 2c be
       -0.13282567 0.12000797 0.17295565 -0.1685526
000380 f3 37 d9 3d b9 d1 4f bd 00 22 ba bd f8 d2 f6 3d
       0.106063746 -0.050737116 -0.09088516 0.12051958
000390 01 65 fd 3d 25 d8 10 3e 7a 5f 98 bd 29 1f 1c be
       0.123727806 0.14144953 -0.07440086 -0.15246262
0003a0 2a 5a dc 3d b2 02 cb 3c 66 bb 10 bd ea 11 98 bd
       0.10759385 0.024781559 -0.035334967 -0.07425292
0003b0 1a ba 09 be e0 6e ae 3d af a0 83 bd 06 25 d9 3d
       -0.13449898 0.085172415 -0.06427132 0.10602765
0003c0 57 83 c3 bc 9a c3 b7 bc f6 63 b8 3d 84 24 83 bc
       -0.023866339 -0.022432137 0.09003441 -0.016008623
0003d0 8c 51 c7 3d a5 42 3a be c9 5e 35 bd ce 9e b4 3a
       0.09732351 -0.18189485 -0.044279847 0.0013780238
0003e0 5e aa 1d be 1e 48 20 3d 33 2c 1a be d3 84 06 be
       -0.15397021 0.039131276 -0.15055923 -0.13136606
0003f0 c0 2f ba bd c2 5c 38 be db 74 de bd 0d bf 5e bd
       -0.09091139 -0.18004134 -0.10862132 -0.05438142

features.3.bias f4 [64]
000000 1f fe 79 bd c6 2d ea bc 31 a2 0e 3e 73 74 a0 3d
       -0.061033364 -0.02858628 0.13929059 0.07834711
000010 75 21 23 3e eb 66 48 3c 23 34 20 3e 38 4a 26 be
       0.15930732 0.012231569 0.15644889 -0.1623925
000020 8e 74 b0 bc 5f 34 18 3e ab 97 fc 3d d5 ee dc 3d
       -0.021539953 0.14863728 0.12333616 0.10787741
000030 3f f3 26 be 0f e6 d2 bc d4 15 ad 3c ce 96 c0 bd
       -0.16303729 -0.025744466 0.021128573 -0.09403764
000040 ec dc 08 be f8 16 25 3e ca cb 64 3d 3c 49 f8 bd
       -0.13365525 0.16122043 0.05585841 -0.12123343
000050 28 ef e2 bd 40 f0 e4 bd af b2 16 be b4 2d cb 3d
       -0.11080772 -0.111786366 -0.147166 0.099208266
000060 ef fa f8 3d 1d be c9 bd 20 74 25 3e 7b 7d 55 bc
       0.12157237 -0.09850714 0.1615758 -0.013030405
000070 b2 18 0d 3e eb f7 ea 3d a9 b7 b2 bd 13 ed 53 3d
       0.13778952 0.11473068 -0.08726437 0.051739763
000080 52 43 92 bd 29 66 ec 3d 09 8b 68 3d 4f 68 c8 ba
       -0.071417466 0.11542923 0.05677322 -0.0015289875
000090 1e 65 85 3c 48 50 ed bd e5 bf a3 bd 71 c3 83 3d
       0.016283568 -0.11587578 -0.07995585 0.06433762
0000a0 ec 28 0e 3e da d4 02 be 4e f4 5f 3d 53 31 e9 3c
       0.13882798 -0.12776509 0.054676346 0.028465902
0000b0 d0 33 06 be f5 28 c5 bc fa 78 98 bd 42 ab 47 3c
       -0.13105702 -0.024067381 -0.074449494 0.012186827
0000c0 47 ae 09 be a6 b1 ec bd c0 4b af bd 96 08 28 be
       -0.13445388 -0.11557321 -0.0855937 -0.16409525
0000d0 d3 89 cc bd 0e 52 32 3e 45 57 a9 bd 66 63 2f be
       -0.099872254 0.17414114 -0.082685985 -0.17127761
0000e0 e8 7c bc bd 91 90 8f bd 95 11 e8 bd ef c3 f7 3d
       -0.092035115 -0.07009996 -0.113314785 0.12097918
0000f0 39 86 17 bc 77 71 93 3d c7 e5 80 bd c6 d8 7f 3d
       -0.00924831 0.07199376 -0.062938266 0.06246259

features.4.weight f4 [64]
000000 1b bd 7f 3f 63 fd 7e 3f 8f d0 80 3f 7d a5 80 3f
       0.9989793 0.9960539 1.0063647 1.0050503
000010 fb c8 7c 3f 0a c3 80 3f 4f 23 80 3f a1 c7 80 3f
       0.9874417 1.0059521 1.0010775 1.0060922
000020 43 a9 80 3f 64 a8 81 3f cf 06 80 3f 35 e8 81 3f
       1.0051655 1.0129514 1.0002078 1.0148989
000030 26 6b 7e 3f b9 a4 81 3f fe 04 82 3f 02 33 81 3f
       0.99382246 1.0128394 1.0157773 1.0093691
000040 7e 7c 7f 3f fc 78 81 3f 6a 99 7f 3f b4 91 7b 3f
       0.99799335 1.0115047 0.99843466 0.982692
000050 78 e9 80 3f 06 5d 7c 3f 9a 8c 7d 3f c4 c9 7b 3f
       1.0071249 0.9857944 0.99042666 0.98354745
000060 57 d0 7f 3f 64 16 80 3f dd ec 7f 3f 60 9a 81 3f
       0.99927276 1.0006833 0.999708 1.0125237
000070 ba 2b 80 3f d3 e9 80 3f 20 50 81 3f 2e 3d 7d 3f
       1.0013344 1.0071357 1.0102577 0.9892148
000080 8e a5 7d 3f 28 35 81 3f 91 21 80 3f 42 ab 7e 3f
       0.9908074 1.0094347 1.0010244 0.9948007
000090 12 6f 7e 3f 85 dc 80 3f f3 5b 7d 3f 01 43 82 3f
       0.9938823 1.0067297 0.9896843 1.0176698
0000a0 a5 06 7e 3f 86 ae 7e 3f 71 bf 7c 3f bc 46 80 3f
       0.9922889 0.9948505 0.98729616 1.0021586
0000b0 63 3f 7c 3f 34 ad 7d 3f 35 4a 80 3f 86 43 80 3f
       0.9853422 0.9909241 1.0022646 1.0020607
0000c0 f8 42 7d 3f ba 15 7e 3f 13 51 80 3f 8b 12 82 3f
       0.9893031 0.992519 1.0024742 1.0161909
0000d0 35 9f 7e 3f ff f0 7a 3f 32 8c 83 3f a5 61 81 3f
       0.9946168 0.9802398 1.0277159 1.0107924
0000e0 39 eb 7d 3f 86 2e 7f 3f 62 19 80 3f e8 3e 80 3f
       0.99187046 0.99680364 1.0007746 1.0019197
0000f0 02 97 79 3f 44 e2 7e 3f 43 ae 7f 3f 0c 63 80 3f
       0.97496045 0.99564004 0.9987528 1.0030227

features.4.bias f4 [64]
000000 26 71 b7 bb fb f7 30 bb c0 9d 4b 3c 87 a1 46 3c
       -0.005598205 -0.0027003277 0.012427747 0.012123472
000010 02 8a 7e bc 99 fe 9a 3b b0 6d 34 3c c3 39 27 bb
       -0.015535833 0.0047300574 0.01101248 -0.0025516606
000020 05 d2 5e 3c c2 14 18 3c fc 94 93 ba 19 84 52 3c
       0.013599877 0.009282293 -0.0011259611 0.012848877
000030 22 5e 03 ba 57 e4 48 3c fb 1f bc 3c 90 f3 17 3c
       -0.00050112803 0.012261472 0.022964468 0.009274378
000040 4b 73 80 3b 56 84 8c 3c 07 2f 14 3c fa b2 a0 bc
       0.003919994 0.017152946 0.009044415 -0.019616593
000050 c9 2e 82 3c 99 71 35 bc 1d 2a 9f bb 11 a7 ec bb
       0.01589145 -0.011074447 -0.004857315 -0.0072220643
000060 04 f4 23 bb 92 30 81 3b 52 45 84 3c b1 1f 3e 3c
       -0.002501727 0.0039425576 0.016146336 0.0116042355
000070 00 1a b9 3b e7 4c b1 3b 56 b0 69 3c 97 aa 31 bb
       0.0056488514 0.005410779 0.014263233 -0.0027109736
000080 41 b7 0a bc 2a 8e 08 3c 61 f2 03 bc 04 ab 97 bb
       -0.008466543 0.008334676 -0.008053393 -0.004628541
000090 0f 2f 7b ba 8d 35 22 3b 44 78 22 bc ae 59 b3 3b
       -0.00095819024 0.0024751157 -0.009916369 0.005473337
0000a0 f0 af 1e 3c 36 89 08 3c 29 ea 47 bc fb 4b 67 bb
       0.009685501 0.008333495 -0.012201824 -0.003529309
0000b0 78 6a eb bb f0 77 56 bc 47 a1 1c bc 05 a0 36 3c
       -0.007184323 -0.013090119 -0.009559936 0.01114655
0000c0 ba e6 ca 3a 21 3e 23 3c 91 26 92 3b 75 47 67 3c
       0.0015480139 0.009963543 0.004460164 0.014116158
0000d0 d7 c8 3c bc ac ab 1f bb ad b3 b8 3c 12 62 6b 3c
       -0.011522493 -0.00243638 0.022546614 0.0143666435
0000e0 04 f6 34 3b 72 85 0d bc be 35 70 3b fb 99 4e 3a
       0.0027612457 -0.008637773 0.0036653127 0.0007881221
0000f0 5b fd 83 bc 97 84 01 39 68 f1 1d bb 8b f0 b2 3b
       -0.01611202 0.00012351792 -0.0024100188 0.005460804

features.4.running_mean f4 [64]
000000 47 94 c0 be fa ad 9d 3d 2a b9 1a bb 94 fc be bd
       -0.37613127 0.07699199 -0.0023608902 -0.09325519
000010 70 d4 bd 3d 81 ce 91 3d 8e 4b a2 3e fb 59 f6 be
       0.09269035 0.071194656 0.3169827 -0.48115525
000020 95 00 51 bd eb d2 53 be c5 23 5c 3e f8 1b 95 3d
       -0.051025946 -0.20685928 0.2149802 0.07280725
000030 8f 4e 4f bd 72 50 02 bf 08 34 07 3e 2c f9 ba be
       -0.05061203 -0.50904 0.13203442 -0.36518228
000040 a1 5c e7 3d 0e a1 c8 bc 0c 25 c9 3d ca b0 71 be
       0.112969644 -0.02449086 0.09821519 -0.23602596
000050 69 f3 cc 3d 68 3a 35 be 59 66 9e 3e 58 d5 1f 3f
       0.10007364 -0.17698061 0.3093746 0.6243491
000060 e1 2a 83 3e d6 5c 65 3b 48 c8 85 3e c5 fd f0 be
       0.25618652 0.0034997961 0.26129365 -0.4706861
000070 ea 6c 48 bd cb 0b 39 3e 94 80 85 bd 8c 88 8b 3d
       -0.048931994 0.18070905 -0.06518665 0.068131536
000080 b6 1a b6 be 5d aa ad be 67 87 1f 3f 1f 97 30 be
       -0.35567254 -0.3391904 0.6231598 -0.17245148
000090 dd 21 82 3c 36 f0 a6 3c 10 79 35 be 6b cf 0f be
       0.015885288 0.020378213 -0.17721963 -0.14043967
0000a0 de 38 9c 3e 23 ae d0 bd 99 14 7a 3e 39 ed 3d 3e
       0.30512136 -0.10189464 0.2442192 0.18547525
0000b0 f7 e2 81 3e 66 a8 46 3e 1d cf ed bd 02 10 16 bd
       0.25368473 0.19400176 -0.11611769 -0.03663636
0000c0 8d be fe bd af 5d a4 be 93 7c 93 be c2 01 85 be
       -0.124386884 -0.32102725 -0.2880598 -0.25977904
0000d0 0c 97 68 bd b9 a8 00 3f 08 21 fd be a8 0b b9 be
       -0.056784675 0.5025745 -0.49439263 -0.36141706
0000e0 d5 b8 94 be f1 ee 93 3d 8b 26 da bd bb 9f 06 3e
       -0.29047266 0.07223309 -0.10651883 0.1314687
0000f0 df 7e 3b be b2 df 04 be 4e 3e 32 be 68 ee 71 3e
       -0.18310116 -0.12975958 -0.1740658 0.23626101

features.4.running_var f4 [64]
000000 4d 43 42 3e d6 34 f7 3d 6b d3 d9 3d fb d6 25 3e
       0.18970986 0.120706245 0.10636028 0.1619529
000010 52 c9 14 3d 64 84 ec 3d ce 56 8f 3d fc 2a 83 3d
       0.036324807 0.11548689 0.069989786 0.06404683
000020 0a 6c 65 3d 14 dd c5 3d 9c 0d ac 3e a1 9d 33 3e
       0.056011237 0.09661308 0.33604133 0.175406
000030 f1 fc b1 3d 69 fc 0b 3e 88 0c de 3d 65 7d d2 3d
       0.08690823 0.13670506 0.10842234 0.10277823
000040 34 f8 19 3e 01 9f 2c 3e f8 86 12 3e 1c 60 48 3d
       0.15036088 0.1685753 0.14309299 0.048919782
000050 5a 45 59 3e e5 ed 0c 3e 9e 2d e5 3d 8c 5f cb 3d
       0.21217862 0.13762625 0.111903414 0.099303335
000060 d0 ca bd 3d 89 36 04 3e ad 0e 4a 3e 8b fe 56 3e
       0.09267199 0.12911429 0.19732161 0.20995538
000070 5f 0a 0d 3e 65 e1 93 3d eb 80 aa 3d a7 f2 27 3e
       0.13773488 0.07220725 0.083253704 0.16401158
000080 ac 9a a7 3d 7b 0c f6 3d c7 3c 60 3e 19 3d f9 3d
       0.08183798 0.12014099 0.21898185 0.121698566
000090 c5 db ce 3d 56 63 0b 3e 79 f9 24 3e ec 02 b6 3d
       0.101005115 0.13612112 0.16110791 0.08887276
0000a0 7a e6 f1 3d 7e 71 3f 3d a1 19 5d 3d d5 de 54 3e
       0.11811538 0.046739094 0.05397952 0.20788129
0000b0 df 83 8d 3d e3 56 a5 3d 37 13 40 3e 2b 8e c8 3d
       0.06909918 0.08073213 0.1875733 0.097927414
0000c0 c1 d3 0b 3e 65 ee bb 3d 38 50 19 3d 61 4d e8 3d
       0.13654996 0.091763295 0.03743002 0.11342884
0000d0 8a 48 23 3e b9 0d 11 3e 18 78 ff 3d d3 f6 e8 3d
       0.1594564 0.14165391 0.12474078 0.11375203
0000e0 b6 76 42 3d 18 05 05 3e e1 fc dc 3d c5 a2 8e 3d
       0.047476493 0.12990224 0.1079042 0.069646396
0000f0 03 5c 11 3e 8c 1d 10 3e ae 62 e4 3d 78 ad 68 3e
       0.14195256 0.14073771 0.11151634 0.22722423

features.7.weight f4 [128, 64]
000000 30 18 b9 bd dc e2 13 3b b8 53 ba 3d 37 88 c3 3d
       -0.090378165 0.0022565639 0.09097999 0.09547465
000010 30 ef d4 3d e6 e4 0c be 04 de 98 3d 3e 0d c4 bd
       0.10397184 -0.13759193 0.07464221 -0.09572838
000020 bb ff 69 3d 01 26 e1 3d bb 95 99 3d bb f1 cc 3d
       0.05712865 0.10993577 0.07499262 0.10007044
000030 68 9c b1 bc ca a0 b8 bd 45 d7 e9 3d 70 b5 15 3c
       -0.021681026 -0.09015043 0.114180125 0.009137496
000040 2d 6d fc bc 80 93 b2 bc 1a 6a 05 be d9 7e 7a bd
       -0.030813778 -0.02179885 -0.13028756 -0.061156128
000050 fb c4 5e bd 3a 29 11 be c1 9e 82 3d c6 ad f6 bd
       -0.054387074 -0.14175883 0.06377936 -0.120448634
000060 50 21 a8 3d 0b 53 9e 3d 43 08 6f bd 9b 9b 2e bd
       0.08209479 0.07730683 -0.05835749 -0.042628866
000070 75 cb 22 bd c6 81 24 ba df 87 d8 bc 33 61 f3 3d
       -0.039744813 -0.0006275441 -0.026431976 0.11883774
000080 89 fb e4 3d a5 62 74 bd 73 32 8f 3c 6d 45 d5 3d
       0.11180789 -0.059664387 0.01748011 0.104136325
000090 e2 b5 d6 bd 39 b2 4a bd 26 0f a5 bb 19 40 4a bd
       -0.1048391 -0.049486373 -0.005037206 -0.049377535
0000a0 7a 2f cd 3d 4e d2 85 bd 29 92 1d 3d b2 ef f5 bd
       0.10018821 -0.06534253 0.038469467 -0.12008609
0000b0 bd b5 a0 3d a2 5c 4c bd ec 93 85 bd 3d f0 92 3d
       0.07847164 -0.04989303 -0.065223545 0.07174728
0000c0 48 74 ce bd 3c e0 b7 3c 68 fd 9a 3d cf 31 c9 bc
       -0.10080773 0.02244579 0.07567865 -0.024559883
0000d0 fe 2d b5 bc 22 6e cc bc 20 1a 75 3d 05 53 90 3d
       -0.022116657 -0.02495486 0.059839368 0.07047085
0000e0 a7 a3 e2 bd 42 ec 86 3d 71 92 c6 bd 58 62 ef 3d
       -0.110663705 0.06588031 -0.096959 0.116886795
0000f0 ba d4 a5 bc 74 ba 84 3d 6a 9f f7 3c ad 73 1e 3d
       -0.020243037 0.064808756 0.030227382 0.038684536
000100 f6 8a d5 bd 6a 3d ea bd 54 2c b4 3d 63 68 2c 3c
       -0.10426895 -0.11437495 0.087975174 0.010522935
000110 97 36 ca 3c 35 a8 9f bd 56 81 33 bc 7c 13 2d 3d
       0.024684234 -0.07795755 -0.010956129 0.04225491
000120 01 95 3b 3d bb df 13 bd ec b9 7f bd 2c ef e6 3d
       0.045796398 -0.036102038 -0.06243317 0.11276087
000130 81 13 c8 3d 42 95 ae bc 12 d5 86 bd f1 89 c4 3c
       0.09769345 -0.021311406 -0.06583609 0.023991557
000140 12 6c 19 bd 56 18 f0 3d 21 4c 1b bd 75 c2 fd 3c
       -0.03745658 0.11723392 -0.0379144 0.030976513
000150 75 37 d4 3d bd d4 b8 3d 6d a9 00 be 01 d9 9b 3d
       0.1036214 0.090249516 -0.12564631 0.076097496
000160 42 1c 00 3a b1 51 60 3b 5b f9 4e bc 24 e1 ed 3d
       0.0004887023 0.003422838 -0.012632693 0.11615208
000170 f9 b7 ce 3d b4 b5 e3 bd 70 7a 98 3d b0 2e 9e bd
       0.10093684 -0.111186415 0.07445228 -0.07723749
000180 66 0b 60 3d 85 79 39 3d 92 1b 16 3d c9 fb ff bd
       0.05469837 0.045281906 0.036647387 -0.12499196
000190 74 ef 86 bd 1e 54 9f 3d 43 a9 e1 3d d2 e3 57 3d
       -0.06588641 0.07779716 0.11018612 0.0527075
0001a0 af f4 a8 3d e8 f2 c4 3d 54 37 ca 3c 1a 3a af bd
       0.08249795 0.09616643 0.024684586 -0.08556004
0001b0 92 59 61 bd b8 4d 9c 3d f0 d1 f6 bd ae c9 96 bd
       -0.05501706 0.07632011 -0.12051761 -0.07362686
0001c0 2b 1e 85 bd 6f 41 da bc 32 38 b8 3c 33 ad c1 bc
       -0.06499895 -0.02664253 0.022487734 -0.023642158
0001d0 46 db 16 bd 08 22 be 3d 4b fe aa 3c eb 84 d7 3d
       -0.03683021 0.09283835 0.02087321 0.10523399
0001e0 a2 03 51 3d 89 23 55 3c c8 59 db 3d d4 01 07 3e
       0.051028855 0.0130089605 0.10710484 0.13184291
0001f0 bc 7d 92 3c 0a 9c 25 bd 80 b7 fc 3d ec 9b a1 3d
       0.01788222 -0.040432014 0.12339687 0.07891068
000200 6b ce 95 bd c7 d6 de 3d ff 06 91 3c 0c a5 9a 3c
       -0.07314762 0.10880809 0.017703531 0.018877529
000210 9d 97 ce bd b9 86 67 3d 3f 87 d9 bb 08 4c 8c bc
       -0.10087512 0.056524966 -0.006638437 -0.017126098
000220 07 ef a2 3d 29 74 e3 3d fd 13 b0 bd a0 1e b0 bc
       0.07955747 0.1110614 -0.085975625 -0.021498978
000230 67 a5 cb bb fc b6 09 3e 6a e6 02 be f1 16 39 b9
       -0.006214786 0.13448709 -0.12783208 -0.00017651521
000240 e8 ce 00 be c9 f9 65 3d 41 5f da ba c8 a7 e1 bd
       -0.12578928 0.056146417 -0.0016660468 -0.1101833
000250 cf 3f de 3d 1a d9 c2 3d a4 5d f8 3c 99 75 f0 3d
       0.10852014 0.09514065 0.030318089 0.1174118
000260 8b 6a fe bd 82 32 93 bd 87 42 a7 bd 3a f3 ab 3d
       -0.12422665 -0.07187368 -0.08166986 0.08396001
000270 5c 5a 2e 3d ef b7 88 bc 6d d3 8a bc 14 de 7e bd
       0.042566642 -0.016689269 -0.016946519 -0.06222351
000280 23 b6 29 3d 2a d7 42 bd ca 7c 9f bd da 90 c5 bc
       0.041433465 -0.047568478 -0.077874735 -0.024116922
000290 95 dd e5 3d 3b 5d ae 3c 21 ca ec 3d 0a 84 10 3e
       0.11223904 0.02128469 0.115619905 0.14112869
0002a0 be 14 f5 ba bb bd 09 3d 38 be f2 bc 77 fb 19 3d
       -0.0018698198 0.033628207 -0.029631719 0.03759333
0002b0 c5 21 c2 3d a6 d0 92 bd d8 3a c7 bd 66 2c a3 bd
       0.09479097 -0.07168703 -0.097280204 -0.07967453
0002c0 43 a5 1d bd f3 32 d8 3c 81 a3 83 3d d6 4c f9 3c
       -0.038487684 0.026391482 0.0642767 0.030432146
0002d0 27 3c c1 3d 45 37 ff 3d a9 41 05 3e 7e 35 bc bd
       0.09435301 0.12461714 0.13013329 -0.0918989
0002e0 7c 62 da bd 20 4d ad 3d 88 5d 49 3d 4a b6 dc 3d
       -0.10663316 0.08461976 0.049161464 0.107769564
0002f0 6a 79 03 3d 62 84 01 3d 40 f6 c6 bd 13 74 e7 3d
       0.03209821 0.03162039 -0.09714937 0.11301436
000300 94 37 c8 bd 6e a1 19 3d b1 80 9d 3c e1 0d 93 3d
       -0.09776226 0.037507467 0.019226404 0.071803816
000310 25 38 f7 bc a1 31 2e bd 1a e9 4c bd 26 d0 9c 3c
       -0.030178139 -0.0425278 -0.05002699 0.019142222
000320 f5 cb 92 3d a9 8f b3 3d f9 c1 39 3c d0 1e 31 3c
       0.07167808 0.087676354 0.011337751 0.010810569
000330 68 00 46 bd 73 3d 23 bd 48 e8 ca 3b 51 4b 79 3c
       -0.04834023 -0.039853524 0.006192241 0.015215711
000340 83 94 46 3d 11 fa d6 bd 51 3b a3 bd b1 6d f5 bd
       0.048481476 -0.10496915 -0.07970298 -0.119838126
000350 a9 e2 61 3d d4 ef 7c 3c 34 1e 6c 3d 98 f6 7b bd
       0.0551478 0.015438039 0.05764599 -0.061514467
000360 8e 69 f7 3d db 63 5f 3d f1 cd d6 bd 31 10 37 bd
       0.1208068 0.05453859 -0.10488499 -0.044693176
000370 b4 b1 e8 bb a1 00 1a bd 29 a0 f9 3c ae bf 72 bd
       -0.007101262 -0.037598256 0.030471878 -0.05926483
000380 f3 af c7 bd 44 0d 24 3d e4 f4 3e 3c 00 ee 27 bd
       -0.097503565 0.040051714 0.011655066 -0.04099846
000390 52 e2 36 3d a1 79 7d bd 86 41 1b bd 3a 65 c7 bd
       0.04464943 -0.061883572 -0.037904285 -0.09736104
0003a0 5b ae e8 bd 01 0b ab 3d 4d e3 ea bc 22 ef 0d 3c
       -0.11361381 0.08351708 -0.028672839 0.008662971
0003b0 06 55 c8 3d 03 47 fe bd 23 c4 98 bc 16 dc b0 3c
       0.09781842 -0.12415888 -0.018648213 0.02158932
0003c0 07 2f ca bd aa 51 ee bd ce 5d ea bd 07 ae dd bd
       -0.09872251 -0.1163667 -0.11443673 -0.10824209
0003d0 c7 59 5f 3d b7 3d 01 bd c3 41 c4 3d 47 07 5a bd
       0.054528978 -0.031552996 0.095828556 -0.053229596
0003e0 cb 13 ab 3d bd 79 ac 3d a7 a6 ab 3d ff 6e a8 3c
       0.083533846 0.08421657 0.08381396 0.02056074
0003f0 2d c1 06 3e 0a 28 35 3d b9 d1 b1 3d 7f 92 e0 bd
       0.13159628 0.044227637 0.086825795 -0.10965442

features.7.bias f4 [128]
000000 2d 1a 4d bd 5c 42 a4 bc 5b 79 a4 3c 40 90 7c bc
       -0.05007379 -0.020051174 0.020077398 -0.015415251
000010 61 d3 f6 3d fe a1 e8 3d 16 71 d0 bd 59 b6 ed 3c
       0.12052036 0.113590226 -0.101778194 0.029017614
000020 75 9a af 3d d9 ff b7 3c 6b 88 ee bc 9b 5c 4d bd
       0.08574382 0.022460865 -0.029117784 -0.050137144
000030 e2 e8 7f 3d c1 03 c4 3a ae 8b ee 3d 68 83 d1 bd
       0.062477954 0.0014954732 0.116477355 -0.10230142
000040 a5 f0 98 3d 9a ca f8 3d ef 6a b0 bd 7f 8d 46 3b
       0.07467774 0.12148018 -0.08614146 0.003029674
000050 7d 0b c2 bc 1e 59 27 3b 0a 4c 35 3d bf 01 87 3d
       -0.023687119 0.0025535296 0.04426197 0.0659213
000060 e6 0a 27 3c 25 cd 1e 3c dc 6c 89 3d bf cf 64 bd
       0.0101954695 0.009692465 0.067102164 -0.055862185
000070 6d d0 b4 bd 9a 3e 76 bd 5d c5 44 3d b1 47 6c 3d
       -0.088288166 -0.060118295 0.048039783 0.057685558
000080 51 f3 97 bd 31 10 87 3d 13 b4 ec 3c 64 10 13 3d
       -0.07419456 0.06594885 0.02889446 0.035904303
000090 d2 d8 a8 bd 49 9f 54 3d 57 76 95 bd a1 ba f0 3c
       -0.0824448 0.05190972 -0.07297962 0.029385867
0000a0 b1 9d b8 bd da a8 86 3d 66 4c a3 bd 7a 1f 9c bd
       -0.09014452 0.06575175 -0.07973556 -0.07623191
0000b0 c7 00 fd 3c 82 a3 4e 3d ab ee 96 3c e4 c3 1a bd
       0.03088416 0.050448902 0.018424353 -0.037784472
0000c0 18 ce 86 bc e2 76 47 3d 5d 3a f5 3c 27 9b ca bc
       -0.016455695 0.04869736 0.029935056 -0.024732186
0000d0 25 1b 1b bb ea b8 5e bc 6e 7b 95 3b be dc 90 3d
       -0.0023667302 -0.013593892 0.004561833 0.07073353
0000e0 28 dc d9 3d a0 ce b0 bd a8 0c 5b bb bc 34 cf 3d
       0.106376946 -0.086331606 -0.0033424292 0.1011748
0000f0 52 dc 52 bb c9 4d b4 bd 9b e4 35 bd f6 d9 6b bd
       -0.0032174778 -0.08803899 -0.04440747 -0.05758091
000100 e2 a9 ab bb 95 2a d6 3d 6a 89 c2 3d cb ef 7a bd
       -0.0052387575 0.10457341 0.09498866 -0.06126384
000110 13 0a b0 bd 5b 71 ae bd e9 4f fd bd 88 d6 63 3d
       -0.085956715 -0.085177146 -0.12368757 0.055624515
000120 1f fb df 3d 7f f0 aa bd 61 73 b2 3d 02 57 00 3e
       0.109365694 -0.08346652 0.08713413 0.12533191
000130 13 41 da bd 1e dd ec 3d c1 a0 a4 3d f6 bd 32 3d
       -0.10656943 0.11565612 0.08038474 0.043638192
000140 ab 79 c5 3d cf 7f 7c bd 1e 77 a6 bc 86 3a c2 bc
       0.09642347 -0.061645325 -0.020320471 -0.023709547
000150 af 67 fa bd ea 9c 1a 3d 10 a3 d2 bd 2e 9f 1e 3d
       -0.12226807 0.0377473 -0.10285008 0.038726024
000160 8f d3 11 bd 07 d2 b1 bc 10 66 a1 bd 7d 06 45 bd
       -0.03560215 -0.021706594 -0.07880795 -0.04810189
000170 81 61 1c bd 49 85 0a 3d 22 32 15 3d b8 8f 96 3d
       -0.038178924 0.033818517 0.036424764 0.07351631
000180 f4 df 87 bd eb a6 c8 bd 5b c8 de 3d 27 ab c6 3d
       -0.066345125 -0.09797462 0.108780585 0.097006135
000190 8c c0 f2 3a 21 ab 7a bb 73 e5 a1 bd dc fe 71 bc
       0.0018520518 -0.0038248973 -0.07905092 -0.014770236
0001a0 88 c8 fc 3d 9a 33 11 3d ab ee 72 bd a2 98 5f 3c
       0.12342936 0.0354496 -0.059309643 0.01364723
0001b0 af b0 e2 3d 3a 5e 5b 3d dd f8 b7 3d 4c ed 84 bc
       0.11068856 0.05355666 0.08983014 -0.016226433
0001c0 14 bc a0 3d 7d 1c 18 bc af a9 a0 bc 30 be a6 3d
       0.07848373 -0.009284136 -0.019612161 0.08141744
0001d0 9d 33 99 3c 47 8a bb 3d 34 d1 82 3d 7d cc f8 bc
       0.018701369 0.09157234 0.063875586 -0.030370945
0001e0 67 02 e3 3d 09 55 67 3d 85 41 02 3c 1c 55 e8 bd
       0.110844426 0.05647758 0.007950191 -0.11344358
0001f0 0f 45 24 3d 9c 1d 45 3d 64 8e 94 bd bc cf 36 39
       0.040104922 0.04812394 -0.07253721 0.0001743426

features.8.weight f4 [128]
000000 05 ca 82 3f d9 c0 7f 3f df 8d 80 3f a9 b8 7f 3f
       1.0217901 0.9990364 1.0043296 0.99891144
000010 f4 4a 80 3f 9b be 7f 3f 29 8b 7c 3f e7 ed 81 3f
       1.0022874 0.99900216 0.9864984 1.0150727
000020 ef c3 7d 3f df 8f 81 3f 0e 06 82 3f 61 0a 7e 3f
       0.99127096 1.0122031 1.0158098 0.99234587
000030 bc 8b 80 3f a1 ea 7d 3f 0a 73 7d 3f a1 dc 80 3f
       1.0042644 0.9918614 0.9900366 1.0067331
000040 c5 d5 80 3f f8 43 7d 3f aa 10 80 3f c5 52 80 3f
       1.0065237 0.9893184 1.0005085 1.0025259
000050 f3 e3 7b 3f 97 34 7d 3f 51 c3 81 3f 8c 3f 7f 3f
       0.983947 0.9890837 1.0137731 0.9970634
000060 aa 41 7c 3f 7a f8 80 3f e5 6a 7d 3f d5 28 80 3f
       0.98537695 1.0075829 0.98991233 1.0012461
000070 d4 d6 7f 3f 88 14 7e 3f e3 19 7f 3f ec 27 80 3f
       0.99937177 0.9925008 0.99648875 1.0012183
000080 66 4e 80 3f ec 21 80 3f 11 24 7d 3f 29 97 80 3f
       1.0023925 1.0010352 0.9888316 1.004613
000090 a9 01 81 3f 74 c9 81 3f b5 8e 7d 3f 44 11 82 3f
       1.0078632 1.0139604 0.9904588 1.0161519
0000a0 20 4b 80 3f 09 2e 7e 3f c2 51 7d 3f 39 7e 7c 3f
       1.0022926 0.99288994 0.9895288 0.986301
0000b0 76 15 80 3f 98 f2 7e 3f 0e 77 7f 3f 6b 50 80 3f
       1.0006549 0.9958892 0.9979104 1.0024542
0000c0 ca 9e 80 3f cc 18 7f 3f 1b 22 7e 3f 70 1c 7f 3f
       1.0048459 0.9964721 0.9927079 0.9965277
0000d0 be 2f 80 3f e7 3e 7d 3f ac 98 7d 3f 70 93 7f 3f
       1.001457 0.98924106 0.99061084 0.99834347
0000e0 69 4b 81 3f 26 ae 7e 3f 2a 6c 7f 3f 81 55 7c 3f
       1.0101138 0.9948448 0.9977442 0.9856797
0000f0 4d d9 7f 3f 94 9a 7d 3f 3d af 81 3f 2a 67 7e 3f
       0.9994095 0.9906399 1.0131603 0.99376166
000100 cc 1f 83 3f ff 0a 81 3f 07 c6 7b 3f 58 23 7d 3f
       1.0244079 1.0081481 0.9834904 0.98882055
000110 4c b6 7b 3f 6f 31 81 3f d4 d5 7f 3f 0a e1 7e 3f
       0.9832504 1.0093211 0.9993565 0.9956213
000120 ec 7a 80 3f 30 27 7c 3f 2f 22 7f 3f d7 b8 7c 3f
       1.0037513 0.98497295 0.99661535 0.98719543
000130 0f 66 7d 3f 1a 6d 81 3f 9d c7 7f 3f 3b 8e 80 3f
       0.98983854 1.011142 0.9991396 1.0043405
000140 2c 66 7d 3f bf dd 81 3f 5f 4e 7e 3f 7e 88 80 3f
       0.98984027 1.0145797 0.99338335 1.0041654
000150 57 83 80 3f ee d1 7e 3f f6 46 80 3f db 09 82 3f
       1.0040082 0.9953908 1.0021656 1.0159258
000160 d3 5b 80 3f 46 6b 80 3f 66 13 7f 3f 17 70 7d 3f
       1.0028023 1.0032737 0.99638975 0.9899916
000170 d6 a9 81 3f cf 28 7a 3f d0 c4 7c 3f 6b 9c 81 3f
       1.0129955 0.9771852 0.9873781 1.012586
000180 00 4a 80 3f 9f e1 81 3f a8 da 80 3f 35 2b 81 3f
       1.0022583 1.0146979 1.0066729 1.0091311
000190 91 a2 7f 3f b5 11 80 3f f1 4f 7e 3f a4 38 80 3f
       0.9985743 1.0005404 0.9934073 1.0017285
0001a0 42 7c 7d 3f 71 5f 7d 3f b4 39 7e 3f 62 2d 7e 3f
       0.9901773 0.9897376 0.993068 0.99288
0001b0 4c a4 80 3f 6c 65 7c 3f 7c c4 7e 3f df 47 80 3f
       1.005014 0.9859226 0.9951856 1.0021933
0001c0 fa 1f 80 3f 0e 7f 7d 3f 80 8c 80 3f 5b bc 81 3f
       1.0009758 0.99021995 1.0042877 1.0135607
0001d0 c4 11 80 3f 17 40 81 3f 2d c8 7d 3f 4a cb 80 3f
       1.0005422 1.0097684 0.9913357 1.0062039
0001e0 fa f7 7f 3f 89 4a 80 3f 5e a2 80 3f 95 3b 80 3f
       0.9998776 1.0022746 1.004955 1.0018183
0001f0 e2 28 81 3f 21 f3 81 3f d3 30 81 3f cd 0e 82 3f
       1.0090601 1.0152322 1.0093025 1.0160767

features.8.bias f4 [128]
000000 33 71 cd 3c 11 97 4c 3b cf 05 3a 3c 58 17 0f bb
       0.025078392 0.0031217972 0.011353924 -0.0021833982
000010 85 46 c9 b9 f2 be c0 3a e7 80 a2 bc eb fb 91 3c
       -0.0003839025 0.0014705344 -0.019836856 0.01782032
000020 ba 84 ac bb af 40 d6 3b 67 6e a3 3c db 91 20 bb
       -0.0052648457 0.0065384726 0.019950105 -0.0024501
000030 67 d8 f9 3b f6 e4 03 bb 1c 33 35 39 f0 86 39 3c
       0.007624674 -0.0020125485 0.00017280545 0.0113236755
000040 59 50 35 3c 6d 00 79 bc 66 38 0b ba b9 df ad bb
       0.01106652 -0.015197855 -0.0005310833 -0.005306211
000050 95 28 3c bc 92 b3 8d bb 8f 4b 54 3c 87 c4 5d bb
       -0.011484285 -0.004324385 0.012957468 -0.0033839063
000060 ec 57 43 bc 95 ff 54 3c 63 99 73 bb ca c5 00 3c
       -0.011922818 0.013000389 -0.0037170283 0.007859657
000070 3e 92 80 3c 09 02 5f bc fa 4f a4 bb 8a f5 32 3c
       0.015694734 -0.013611325 -0.0050144168 0.010922799
000080 b3 56 94 bb e1 d4 31 3a d4 4c 13 3c 24 0d 7e 3b
       -0.004526937 0.00067837356 0.008990485 0.0038765157
000090 45 d0 3f 3c d4 3e 0c 3c c3 ff 2c bc 0e e4 a3 3c
       0.01170737 0.008559901 -0.010559025 0.020006206
0000a0 1a 20 85 ba 42 26 b1 bb c2 3e 00 3a be 71 80 bc
       -0.0010156662 -0.005406172 0.0004892164 -0.015679237
0000b0 35 14 72 3a e7 3f e8 ba 28 6f df bb 04 79 6f 39
       0.00092345785 -0.001771924 -0.006818671 0.00022837898
0000c0 69 3c 4d 3c 00 b7 62 bb dc 85 8e bb 5d 1d b1 bb
       0.01252661 -0.003459394 -0.0043494534 -0.0054051117
0000d0 9b ca e1 bb 2f 2a f5 bb 6f 57 de bb 34 11 97 3a
       -0.0068906075 -0.0074818353 -0.0067853252 0.0011525513
0000e0 7b d4 6f 3c e5 30 a9 bb fa a9 51 3c cd 3d 41 bc
       0.014638062 -0.0051632994 0.012796873 -0.01179452
0000f0 06 34 c0 b9 9c 28 5d bc 86 f7 c1 3c c6 5e 19 3b
       -0.00036659854 -0.013498452 0.023677599 0.0023402437
000100 13 2f 9a 3c 20 3a da 3b b2 cd d6 bb 11 53 79 bc
       0.018821275 0.006659761 -0.0065552825 -0.0152175585
000110 d1 87 be bb ee c1 05 3c 66 4d 24 3a bd bb b4 bb
       -0.0058145304 0.008163912 0.0006267637 -0.005515544
000120 5e 00 2e bb a2 a8 46 bc 6b 8a b6 3a 79 0d 42 bc
       -0.0026550512 -0.012125166 0.001392675 -0.011844032
000130 47 8a 08 bc 13 72 51 3c bd 06 d7 3a b8 a2 e7 3b
       -0.008333749 0.012783545 0.0016405206 0.007068958
000140 5b 0a 32 bc c2 3d c7 3c 30 e5 da ba c4 4c b7 3b
       -0.010866727 0.02432144 -0.0016700383 0.005593868
000150 59 74 7f 3a e1 65 6f 3b c6 30 43 3c 3e f4 18 3c
       0.0009744815 0.003652923 0.011913484 0.009335576
000160 25 c9 c2 3b 89 78 e7 3b 10 8d fd ba e4 61 b2 bb
       0.0059443885 0.0070639295 -0.0019344408 -0.0054437984
000170 01 80 bc 3c 9c 8d 91 bc c7 9a 67 bc f7 53 20 3c
       0.023010256 -0.01776772 -0.014136023 0.009785644
000180 68 8f a4 3b b9 de 5f 3b e9 e1 93 3a f6 03 de 3b
       0.005021978 0.0034159853 0.0011282536 0.0067753745
000190 f3 02 87 3b 31 ce a1 3b 8b 5f 1d bc cb 3d 1c 3b
       0.0041202246 0.00493791 -0.009605299 0.0023840542
0001a0 ca ee 17 bb 78 1f ff bb 8d 43 2e bb 40 a8 64 bb
       -0.00231831 -0.007785734 -0.0026590556 -0.0034890324
0001b0 c4 90 67 3c 98 90 0c bc 76 6a cc ba c0 77 38 3c
       0.014133636 -0.008579396 -0.0015595693 0.011259019
0001c0 ce 70 19 ba fd d6 40 bb 10 72 17 3b 74 4d 55 3c
       -0.0005853296 -0.0029425018 0.0023108758 0.013018955
0001d0 b7 2f 17 bb 64 28 46 3c 90 ab 5b bb f6 15 85 3b
       -0.0023069212 0.012094591 -0.0033519007 0.004061456
0001e0 6f 2b e1 bb 62 ff 1b bb 4e 5a fc 3b 17 0f 93 3b
       -0.0068716328 -0.0023803343 0.007701195 0.004487883
0001f0 bf 0a 87 3c 16 77 df 3b 9f 8e 12 3c 4e 27 7b 3c
       0.016484616 0.006819616 0.008945136 0.015329195

features.8.running_mean f4 [128]
000000 f9 b1 5b 3b 1e 2f c4 3e 3a 16 95 3e c5 f2 3c be
       0.0033522828 0.38317198 0.2911852 -0.18451984
000010 8b c9 e4 3e 73 11 83 be f5 ef 53 3e c3 c8 93 bd
       0.44685015 -0.2559925 0.20697005 -0.07216027
000020 c6 45 c3 bd ea 3b 38 be 01 b2 bf bd f1 d7 0d bf
       -0.095347926 -0.17991605 -0.093601234 -0.55407625
000030 b4 ca a4 bd 0d 0f 46 be 4f 05 2d 3e 6b 6b c6 bd
       -0.08046475 -0.19341679 0.16896556 -0.09688457
000040 40 be 80 bc d4 41 fd 3d 65 77 32 3e e1 3d 0c 3d
       -0.015715718 0.12366071 0.17428358 0.0342387
000050 61 c6 9d be 83 29 3a be 25 34 d6 be 8b 65 c6 be
       -0.30815414 -0.18179898 -0.41836658 -0.38749346
000060 8c ea 6c 3e 3a cb 9d bd 75 3a ba bd 6a 32 f7 bd
       0.23136348 -0.07704778 -0.09093181 -0.120701626
000070 92 c1 73 be 96 ad 02 be d3 2c a2 3e e3 d4 d8 3e
       -0.2380431 -0.1276153 0.31674823 0.4234992
000080 d9 9e a7 be bc 4a 6c bd f2 a9 8e 3d 07 6a 2b be
       -0.3273838 -0.05768846 0.06966008 -0.16739665
000090 2d c8 57 be 5b b6 91 3e 63 65 a8 3e 6d ee 45 3d
       -0.21072455 0.2845944 0.32889852 0.048323084
0000a0 a7 b7 41 3e d3 9b 37 be 3c e2 68 3e b9 22 af be
       0.18917714 -0.17930536 0.22742552 -0.3420618
0000b0 04 69 06 3e 4c 69 69 3e 72 b4 cd bd 05 e6 1f 3d
       0.13125998 0.22794074 -0.10044183 0.039037723
0000c0 00 d0 ab 3d 72 96 9c 3e bd ad 7e be 2e ae 8c be
       0.08389282 0.3058353 -0.24870963 -0.2747664
0000d0 26 af 00 be e6 c6 a1 3d f6 c7 de bb d1 19 20 3d
       -0.12566814 0.07899265 -0.0067987395 0.03908712
0000e0 36 f4 11 be 9c 21 21 be f4 a2 f0 3d 7c 68 0d bc
       -0.14253315 -0.15735477 0.11749831 -0.008630868
0000f0 75 a1 5b 3c 3a 5f 8f be 84 57 0b be 5e 54 10 be
       0.013405194 -0.2800234 -0.13607603 -0.14094684
000100 93 0f 68 be 32 0e 2f 3e e9 a2 24 3e a2 0b 1a 3e
       -0.22662191 0.17095259 0.1607777 0.150435
000110 ca 3f 7f 3e 73 c2 39 be c6 dc e3 be 2d c3 13 be
       0.24926677 -0.18140583 -0.44504374 -0.14429922
000120 00 5d 74 3b a8 7f 51 be 56 67 2c 3d 54 b8 51 bc
       0.0037286878 -0.20458853 0.042090736 -0.012800295
000130 a3 55 32 be cc e8 9f be c6 96 22 bd b0 e6 17 3e
       -0.1741548 -0.31232297 -0.03969457 0.14834094
000140 ee 3c ae 3d 8c 8a ad bc 0b 92 f5 3e ea 93 b2 bd
       0.08507715 -0.021184228 0.47962984 -0.087196186
000150 41 db 4f bd e7 3f a1 3d 93 e4 6b bd 8f e9 0c 3e
       -0.050746206 0.078735165 -0.057591032 0.1376097
000160 5c 85 56 bd 3e b9 bc be 74 32 ab bd 28 ba 82 be
       -0.052373275 -0.3686008 -0.083592325 -0.2553265
000170 3b 7e 2d 3e 73 a5 53 bd 54 9a 65 3e a9 34 cc be
       0.16942684 -0.051671457 0.22422153 -0.39883927
000180 48 1a f4 be 5c 7d 7e be b6 40 b5 bc 20 54 92 bd
       -0.476763 -0.24852508 -0.022125583 -0.07144952
000190 3a a8 8b 3e 39 f7 90 3e ba bb 43 be a5 e6 26 3d
       0.27276784 0.28313616 -0.19114581 0.040747304
0001a0 94 f7 06 3e 94 97 84 bd 96 d9 11 be 92 7c 9b be
       0.13180381 -0.06474224 -0.14243159 -0.30368477
0001b0 f8 d3 f4 3d 5a 2e fd 3c 04 5e d3 bc 00 6c 34 be
       0.11954492 0.030905891 -0.025801666 -0.17619324
0001c0 99 21 5d bd 2b 15 85 3d 4b 26 6f 3d ed 02 17 3e
       -0.05398712 0.06498178 0.05838613 0.1474721
0001d0 7a 91 83 be 6f 17 82 bd 52 af a7 3e 6a 1e 15 be
       -0.25696927 -0.06352126 0.32750946 -0.14562383
0001e0 7c 57 c7 3d f7 f4 a4 be 1a 94 80 3e 14 dc 8b be
       0.09733483 -0.32218143 0.25112993 -0.27316344
0001f0 83 19 06 be 6d d1 72 bc a5 c7 36 be b0 a5 af 3e
       -0.1309567 -0.014820439 -0.17849596 0.34306097
