Project Pivot Final New/models/stance_int8.onnx (onnx, 115556 bytes, 38 tensors)

features.0.bias f4 [32]
0.19612731 -0.13990292 -0.019744664 0.0462551 -0.024413822 0.17324726 0.12419192 -0.13842598
0.11878859 -0.030179588 -0.14698578 0.105483726 -0.058339436 -0.16360088 0.02234163 -0.15656388
-0.13130514 -0.07006103 -0.06415648 0.031744856 0.04366576 -0.066061795 -0.06936074 -0.12690735
0.17369127 -0.033479843 0.0651527 0.1403414 0.0829036 0.04747017 -0.0030413894 -0.10686368
00000000: 99d5 483e b642 0fbe 90bf a1bc fd75 3d3d
00000010: 7fff c7bc bb67 313e 5558 fe3d 8abf 0dbe
00000020: 6f47 f33d 2f3b f7bc 7183 16be da07 d83d
00000030: 55f5 6ebd fd86 27be cb05 b73c 4852 20be
00000040: db74 06be 287c 8fbd 7964 83bd e506 023d
00000050: deda 323d 684b 87bd 010d 8ebd 00f4 01be
00000060: 20dc 313e 2922 09bd c76e 853d a8b5 0f3e
00000070: 5dc9 a93d 1570 423d 0c52 47bb 58db dabd

features.1.weight f4 [32]
0.9870437 0.9991707 1.0018356 0.9922801 0.989776 1.0096236 1.008108 0.99521327
0.9924846 0.9840818 0.99240524 0.9941018 0.99773616 0.99621755 1.0025983 1.02021
0.99374056 1.0013541 0.9995223 0.99330175 1.006219 1.0138958 0.98008263 0.9948927
0.9904892 0.9973086 1.0113446 1.0085807 0.9974917 1.0032498 0.9986063 1.029662
00000000: e5ae 7c3f a7c9 7f3f 263c 803f 1206 7e3f
00000010: f661 7d3f 593b 813f af09 813f 4cc6 7e3f
00000020: 7913 7e3f c9ec 7b3f 450e 7e3f 757d 7e3f
00000030: a36b 7f3f 1d08 7f3f 2455 803f 3e96 823f
00000040: c865 7e3f 5f2c 803f b2e0 7f3f 0649 7e3f
00000050: c9cb 803f 56c7 813f b2e6 7a3f 4ab1 7e3f
00000060: b390 7d3f 9e4f 7f3f bd73 813f 2c19 813f
00000070: 9e5b 7f3f 7d6a 803f aaa4 7f3f f7cb 833f

features.1.bias f4 [32]
-0.005958175 0.007894252 0.010740912 -0.0039694416 -0.015326245 0.0086765 0.021896305 -0.008164386
0.0054752394 -0.016345521 0.0065123457 0.008053796 -0.01330544 0.0025572914 0.003176018 0.02267728
-0.0024835772 0.001941952 0.001242145 -0.013766135 0.010883921 -0.0049491962 -0.010265703 -0.0065726964
-0.00872654 -0.012116639 0.008614966 0.020939786 -0.0006313652 -0.0064553763 0.020816715 0.026021233
00000000: cb3c c3bb e556 013c a6fa 2f3c 1712 82bb
00000010: ee1a 7bbc e127 0e3c e15f b33c ebc3 05bc
00000020: a369 b33b 0be7 85bc 8465 d53b 12f4 033c
00000030: 0fff 59bc 3b98 273b bd24 503b b4c5 b93c
00000040: 83c3 22bb 1989 fe3a 78cf a23a 5b8b 61bc
00000050: 7952 323c de2c a2bb 7b31 28bc c65f d7bb
00000060: c3f9 0ebc de84 46bc c925 0d3c ea89 ab3c
00000070: 3482 25ba 9f87 d3bb d187 aa3c 7b2a d53c

features.1.running_mean f4 [32]
0.7539676 0.06301339 0.9560248 -0.86195445 -0.36439323 -0.087843455 0.43497556 0.22005466
0.5426836 0.3857326 -0.40916198 -0.39206192 -0.42807797 -0.29462022 0.00014068885 -0.38738483
-0.37765095 -0.1944412 -0.33317497 -0.25116166 0.29070038 0.42977938 -0.6524118 -0.23412544
0.15619747 -0.50146836 -0.19716264 1.086326 0.09987934 0.3421602 0.46819222 -0.41069195
00000000: 0504 413f 2a0d 813d 0bbe 743f 0ca9 5cbf
00000010: c091 babe 45e7 b3bd 1eb5 de3e 0256 613e
00000020: 50ed 0a3f be7e c53e ae7d d1be 57bc c8be
00000030: 092d dbbe 76d8 96be e085 1339 4e57 c6be
00000040: 775b c1be 981b 47be e995 aabe 4398 80be
00000050: aed6 943e 0b0c dc3e 7604 27bf 94be 6fbe
00000060: 3bf2 1f3e 3b60 00bf 01e5 49be bb0c 8b3f
00000070: 8a8d cc3d 9f2f af3e e4b6 ef3e 3746 d2be

features.1.running_var f4 [32]
0.015919391 0.03712506 0.07889589 0.0161047 0.008778269 0.011677119 0.01948073 0.003909724
0.060277555 0.020829843 0.02441794 0.018271772 0.03873615 0.0050557493 0.022383902 0.014929043
0.0049970453 0.011808539 0.02315947 0.01759922 0.011582612 0.023082448 0.027801044 0.00593695
0.023293274 0.03970666 0.020372167 0.017403927 0.04741564 0.10122724 0.0055128625 0.018725026
00000000: 6269 823c 7210 183d 2b94 a13d 01ee 833c
00000010: bbd2 0f3c 6351 3f3c 0d96 9f3c 241d 803b
00000020: 99e5 763d 59a3 aa3c 2208 c83c afae 953c
00000030: cca9 1e3d b3aa a53b 725e b73c f298 743c
00000040: 41be a33b 9a78 413c eeb8 bd3c 3d2c 903c
00000050: ffc4 3d3c 6717 bd3c 04bf e33c bf8a c23b
00000060: 89d1 be3c 73a3 223d 88e3 a63c ae92 8e3c
00000070: e736 423d 3a50 cf3d 3ea5 b43b 3a65 993c

features.3.bias f4 [64]
-0.05300251 -0.1376072 0.12042061 0.04324049 -0.028048158 0.06595532 -0.15708776 0.016373072
0.09087407 0.08662879 0.08230904 -0.119674265 0.062667854 0.0027827667 -0.029181473 -0.09020625
-0.171654 0.08044501 -0.14472166 -0.061429806 -0.08695274 -0.14506634 -0.13641581 0.038120344
-0.11395167 -0.16465479 -0.12604046 0.05635917 -0.0095963515 -0.08309204 -0.04871011 0.043439925
0.06927375 0.16764851 -0.026980923 0.04190869 0.09801834 0.09906885 0.082619004 -0.07510687
0.051497653 -0.05867686 -0.16489637 -0.17802042 0.0050035864 -0.13710782 0.096345246 -0.052070938
0.12078633 0.17414065 0.16221507 -0.035712592 0.17157887 -0.17967625 -0.10123731 -0.059796654
0.04479261 0.032257237 -0.08848933 0.096209444 -0.006329956 0.14355502 -0.12035329 -0.014079799
00000000: 2919 59bd e7e8 0cbe 159f f63d f11c 313d
00000010: 40c5 e5bc 9513 873d 9ddb 20be d220 863c
00000020: 2f1c ba3d 6f6a b13d a491 a83d c817 f5bd
00000030: 0158 803d 145f 363b fc0d efbc 0ebe b8bd
00000040: 11c6 2fbe 5ac0 a43d ea31 14be d29d 7bbd
00000050: 4714 b2bd 458c 14be 96b0 0bbe 1424 1c3d
00000060: 7e5f e9bd 449b 28be c010 01be dfd8 663d
00000070: 043a 1dbc 292c aabd 4184 47bd 10ee 313d
00000080: 65df 8d3d 0dac 2b3e 1907 ddbc 72a8 2b3d
00000090: d7bd c83d 9ce4 ca3d 2734 a93d a1d1 99bd
000000a0: 34ef 523d 2657 70bd 98da 28be fc4a 36be
000000b0: 20f5 a33b fe65 0cbe a850 c53d 5648 55bd
000000c0: d35e f73d ed51 323e b51b 263e 5e47 12bd
000000d0: 5fb2 2f3e 0dfd 37be 8255 cfbd 56ed 74bd
000000e0: 7578 373d 2a20 043d e539 b5bd 7509 c53d
000000f0: 856b cfbb 1600 133e c97b f6bd f5ae 66bc

features.4.weight f4 [64]
1.0033015 0.99469244 1.0052117 0.9871275 0.985911 1.0034816 0.9989776 0.9948782
0.9940302 0.9969742 0.99733454 1.0201181 1.0087799 1.0172707 0.9852516 0.9990704
0.99066883 1.0120991 1.0016562 1.0101408 1.0101814 0.9984698 0.99424994 0.9985569
0.9989865 0.98922753 0.99187213 1.0026805 0.9885543 1.0099478 0.98938996 1.0025545
1.0210407 1.003547 1.0050521 1.0076324 0.9943492 0.98597604 0.9961477 0.99366283
0.9860224 1.0060778 1.006821 1.0014194 1.0138952 1.0026302 0.99966383 1.00701
1.0221468 0.9977429 0.9952816 1.0019283 0.99414116 1.0084233 0.9824247 0.9974068
0.98946553 0.99951524 0.9902871 0.98083586 1.0056046 0.99503213 1.0295956 1.0043463
00000000: 2f6c 803f 2aa4 7e3f c7aa 803f 63b4 7c3f
00000010: aa64 7c3f 1672 803f ffbc 7f3f 56b0 7e3f
00000020: c378 7e3f b339 7f3f 5151 7f3f 3b93 823f
00000030: b31f 813f ed35 823f 7339 7c3f 14c3 7f3f
00000040: 799c 7d3f 778c 813f 4536 803f 4b4c 813f
00000050: a04d 813f b89b 7f3f 2a87 7e3f 6da1 7f3f
00000060: 94bd 7f3f 043e 7d3f 55eb 7d3f d657 803f
00000070: e511 7d3f f845 813f a948 7d3f b553 803f
00000080: 76b1 823f 3a74 803f 8ca5 803f 19fa 803f
00000090: ab8d 7e3f ed68 7c3f 8903 7f3f b060 7e3f
000000a0: f76b 7c3f 28c7 803f 83df 803f 832e 803f
000000b0: 51c7 813f 3056 803f f8e9 7f3f b4e5 803f
000000c0: b5d5 823f 146c 7f3f c6ca 7e3f 303f 803f
000000d0: 0980 7e3f 0414 813f 2f80 7b3f 0d56 7f3f
000000e0: 9d4d 7d3f 3be0 7f3f 7583 7d3f 0f18 7b3f
000000f0: a7b7 803f 6dba 7e3f cac9 833f 6b8e 803f

features.4.bias f4 [64]
0.0051270854 -0.0053313645 0.005780634 -0.0060616075 -0.008874594 -0.005135996 -0.002485927 0.00023981942
-0.01424707 -0.0023743117 -0.016829628 0.018599026 0.0063884426 0.012264364 -0.014706092 0.009933853
-0.015396401 0.008132637 0.007157483 -8.891117e-05 0.010084884 -0.007221024 -0.0046551423 0.002839797
0.0010999035 -0.011324023 -0.0040292502 0.0025883452 -0.0004355703 0.0116611505 -0.0039676907 0.019215412
0.024251422 0.005079891 0.009591983 0.014608539 -0.012768552 -0.014509715 -0.002415446 -0.007219874
-0.012480446 0.011150618 0.006689446 0.0034886599 0.02287042 0.009481707 0.0010366288 0.0032989774
0.020767394 0.015067901 -0.0026568382 0.0035973715 0.000339819 0.014452146 -0.008351662 0.0043266485
-0.010246537 -0.0076337624 -0.008554921 -0.0155831585 -0.0030200498 0.006947607 0.034737196 0.0037081474
00000000: 1c01 a83b bab2 aebb 796b bd3b 73a0 c6bb
00000010: bf66 11bc db4b a8bb efea 22bb 0978 7b39
00000020: 8b6c 69bc 579a 1bbb 4ade 89bc fc5c 983c
00000030: 2456 d13b 79f0 483c d2f1 70bc 99c1 223c
00000040: 3041 7cbc c03e 053c 5289 ea3b d275 bab8
00000050: 123b 253c 579e ecbb 2a8a 98bb e31b 3a3b
00000060: a32a 903a 6588 39bc cd07 84bb 3aa1 293b
00000070: 425d e4b9 690e 3f3c 6703 82bb a469 9d3c
00000080: ebaa c63c 3775 a63b b127 1d3c a758 6f3c
00000090: 3033 51bc 28ba 6dbc 764c 1ebb b194 ecbb
000000a0: c97a 4cbc 15b1 363c 2433 db3b 00a2 643b
000000b0: bf5a bb3c 2959 1b3c 7edf 873a a833 583b
000000c0: 6220 aa3c 5cdf 763c 591e 2ebb e1c1 6b3b
000000d0: bc29 b239 b2c8 6c3c 69d5 08bc 8fc6 8d3b
000000e0: 17e1 27bc a424 fabb f029 0cbc 8150 7fbc
000000f0: 07ec 45bb c0a8 e33b 9748 0e3d 6404 733b

features.4.running_mean f4 [64]
-0.46399957 -0.43931684 0.17743866 0.15727884 -0.15709113 -0.2393115 -0.2755346 -0.2206418
0.19157143 0.1981383 0.041459877 -0.06801558 0.12729827 -0.00809618 0.23993127 -0.1452105
0.09765255 0.05280431 -0.46450222 0.004301237 0.020393053 -0.4746448 -0.22301373 0.16678584
-0.22510278 -0.33439106 -0.48171666 -0.05382107 -0.2640129 -0.03400018 -0.0012397321 0.14251162
0.24082458 0.48706886 -0.15629888 -0.24501775 0.2475406 0.08077601 0.25469792 0.32442254
-0.11192131 0.013402543 -0.11475824 -0.40854612 0.285936 -0.18416953 0.186427 -0.14682762
0.07275621 0.30845594 0.44253334 -0.35559708 0.44473213 0.024401233 -0.028979024 0.17823459
-0.32500333 -0.040219747 -0.24381095 0.33311248 -0.6997062 0.099226035 -0.21609281 -0.07594788
00000000: 5a91 edbe 23ee e0be 7bb2 353e b40d 213e
00000010: 7fdc 20be 130e 75be df12 8dbe edef 61be
00000020: 4d2b 443e c4e4 4a3e d5d1 293d c14b 8bbd
00000030: 7a5a 023e d7a5 04bc 8bb0 753e 10b2 14be
00000040: 0ffe c73d 5549 583d 3cd3 edbe 64f1 8c3b
00000050: 550f a73c a504 f3be b65d 64be e8c9 2a3e
00000060: 5881 66be 4e35 abbe 91a3 f6be 7b73 5cbd
00000070: b32c 87be c643 0bbd 827e a2ba 91ee 113e
00000080: b89a 763e 1761 f93e d00c 20be efe5 7abe
00000090: 487b 7d3e e56d a53d c467 823e b61a a63e
000000a0: 0037 e5bd 5796 5b3c 5e06 ebbd f52c d1be
000000b0: 3466 923e f096 3cbe b8e6 3e3e fb59 16be
000000c0: 3501 953d f0ed 9d3e bb93 e23e d210 b6be
000000d0: eeb3 e33e 18e5 c73c 6b65 edbc 2183 363e
000000e0: d666 a6be 76bd 24bd 94a9 79be b88d aa3e
000000f0: f21f 33bf 0537 cb3d 6f47 5dbe 908a 9bbd

features.4.running_var f4 [64]
0.1710601 0.11444881 0.062256224 0.07287843 0.11571335 0.19318749 0.123588614 0.16174099
0.057606295 0.10307764 0.14443645 0.1283159 0.07364369 0.08004846 0.122892454 0.099993065
0.08207931 0.065005235 0.253216 0.080351666 0.09154769 0.07671614 0.064936005 0.15755719
0.08058942 0.063061945 0.10388268 0.21846887 0.0922026 0.097875744 0.041859213 0.048452415
0.08067615 0.0929117 0.078608334 0.096057795 0.14504446 0.117193386 0.12741415 0.13033083
0.27959707 0.09923796 0.040341113 0.10223595 0.2215665 0.1353635 0.21774144 0.07146599
0.15042624 0.18755375 0.110670045 0.12779252 0.11178663 0.09324354 0.074665636 0.09736565
0.13551688 0.23927106 0.15508197 0.07367178 0.38811103 0.090733565 0.07428541 0.08243375
00000000: 612a 2f3e 2364 ea3d 6200 7f3d 4941 953d
00000010: 1ffb ec3d f1d2 453e 071c fd3d 6e9f 253e
00000020: 94f4 6b3d 5f1a d33d 26e7 133e 3e65 033e
00000030: 81d2 963d 72f0 a33d 0aaf fb3d 2ac9 cc3d
00000040: 3319 a83d 7721 853d 87a5 813e 6a8f a43d
00000050: 5b7d bb3d 5a1d 9d3d 2bfd 843d ac56 213e
00000060: 110c a53d 9f26 813d 71c0 d43d 4eb6 5f3e
00000070: b7d4 bc3d 1473 c83d 9174 2b3d 0a76 463d
00000080: 8a39 a53d 7d48 be3d 68fd a03d f3b9 c43d
00000090: 8986 143e 1603 f03d db78 023e 7275 053e
000000a0: 5927 8f3e 463d cb3d b93c 253d 1561 d13d
000000b0: 54e2 623e bb9c 0a3e 9df7 5e3e c35c 923d
000000c0: 5609 1a3e 170e 403e faa6 e23d 0bdc 023e
000000d0: 63f0 e43d 78f6 be3d 4cea 983d a467 c73d
000000e0: f0c4 0a3e 7903 753e cfcd 1e3e 3be1 963d
000000f0: 7db6 c63e 85d2 b93d f322 983d 07d3 a83d

features.7.bias f4 [128]
0.01373057 -0.11607768 -0.02827279 0.02727166 -0.08492693 -0.09869201 -0.11256544 0.0027670492
0.11039943 -0.062203266 -0.1079616 0.0020312525 -0.11269294 -0.06599468 0.0999494 0.067004226
0.023308182 -0.011053363 0.094940774 0.09602176 -0.08022348 -0.1124795 -0.049757004 -0.050055783
-0.10786453 0.015190387 0.06890432 0.07832468 0.057969157 0.07979659 -0.1120048 0.10366783
0.0930395 -0.10910349 -0.025447523 -0.06464538 0.07210841 0.07616857 0.10137153 0.0036809708
0.060397536 -0.04596797 0.036892034 -0.11352711 -0.06067681 0.03949803 0.091805995 -0.111703575
-0.078857824 -0.01860459 0.10766075 -0.05487952 0.07675417 0.09657647 0.04517937 0.0750253
0.109946325 -0.008367768 0.12010142 0.073798425 -0.056012392 0.069083855 0.031855844 0.00069241534
0.09861172 -0.107534535 -0.11232044 0.115855776 0.021579066 0.016360333 -0.04296111 0.061852414
-0.04137743 0.027019653 -0.05397015 -0.084084935 -0.020209618 -0.0515637 0.105213195 -0.1129378
0.115252376 -0.118645824 0.054457698 0.11625313 0.025041807 -0.11976277 -0.03125293 -0.037827514
-0.11625252 -0.021481385 -0.018011265 -0.10183955 -0.04382185 -0.06514185 -0.04000151 0.07944003
0.08038418 0.10255718 0.033978082 -0.014848816 0.046224557 -0.040170588 0.061653405 -0.023955772
-0.037681952 0.11150194 0.10621413 -0.017483074 0.054137122 0.10095532 0.09566385 0.08694468
-0.1057951 0.066711545 0.008273973 0.039764646 -0.08045645 -0.06844633 -0.080716215 0.11790383
0.023487233 -0.074006446 -0.10224879 -0.018871551 0.08261533 0.081260234 0.004265437 -0.06172428
00000000: 2ff6 603c 22ba edbd 579c e7bc d168 df3c
00000010: 2cee adbd 091f cabd b688 e6bd 6257 353b
00000020: 1919 e23d dac8 7ebd f91a ddbd c31e 053b
00000030: 8ecb e6bd 3828 87bd 45b2 cc3d 8339 893d
00000040: cdf0 be3c 2a19 35bc 4f70 c23d 0ea7 c43d
00000050: 354c a4bd a75b e6bd 00ce 4bbd 4b07 4dbd
00000060: 14e8 dcbd 1ae1 783c b51d 8d3d b168 a03d
00000070: 1171 6d3d 656c a33d c662 e5bd cd4f d43d
00000080: 7e8b be3d a771 dfbd 5377 d0bc cc64 84bd
00000090: 93ad 933d 44fe 9b3d e09b cf3d 713c 713b
000000a0: 6863 773d e948 3cbd 1a1c 173d e780 e8bd
000000b0: 3f88 78bd b0c8 213d c804 bc3d d8c4 e4bd
000000c0: 3680 a1bd a768 98bc 3d7d dc3d 59c9 60bd
000000d0: 4a31 9d3d e2c9 c53d 010e 393d dda6 993d
000000e0: 8a2b e13d f618 09bc bcf7 f53d a123 973d
000000f0: 406d 65bd d67b 8d3d 467b 023d 3583 353a
00000100: f1f4 c93d 113b dcbd 4208 e6bd cb45 ed3d
00000110: 95c6 b03c 1b06 863c fdf7 2fbd f558 7d3d
00000120: 617b 29bd 5258 dd3c ce0f 5dbd b934 acbd
00000130: a48e a5bc 7534 53bd 047a d73d ef4b e7bd
00000140: 7009 ec3d 95fc f2bd 090f 5f3d 1f16 ee3d
00000150: 7a24 cd3c 2f46 f5bd 1303 00bd 06f1 1abd
00000160: cd15 eebd bbf9 afbc 5c8c 93bc 4191 d0bd
00000170: 8a7e 33bd 1769 85bd a0d8 23bd 74b1 a23d
00000180: 76a0 a43d 8009 d23d 9a2c 0b3d 7348 73bc
00000190: f655 3d3d ea89 24bd 4888 7c3d e53e c4bc
000001a0: 6458 1abd 215b e43d cb86 d93d aa38 8fbc
000001b0: e3be 5d3d aac1 ce3d 69eb c33d 0d10 b23d
000001c0: 1aab d8bd 10a0 883d 8f8f 073c 41e0 223d
000001d0: 5ac6 a4bd 972d 8cbd 8b4e a5bd 9077 f13d
000001e0: 4c68 c03c b190 97bd d067 d1bd 8398 9abc
000001f0: 3a32 a93d c46b a63d 14c5 8b3b 99d2 7cbd

features.8.weight f4 [128]
0.99650264 1.0000952 0.99739176 0.98613966 0.9932656 0.9978683 0.9882592 0.9982187
0.9965422 0.9911526 0.9938369 0.9977425 0.99810654 1.0187825 1.0012846 0.9973967
0.9974593 1.0105122 1.0044141 1.0191233 0.9933147 1.00589 0.99144423 0.9945423
0.9829283 1.0021752 1.0120442 0.99577636 1.0268332 0.99451345 1.0086446 1.003716
1.0120873 0.9927178 0.99775964 0.99436456 1.0049081 0.9992091 0.99298877 1.0042698
0.9865809 1.0070584 0.9916836 1.0059897 1.0026361 1.0018297 0.9852303 0.9911332
0.99344707 1.0111372 0.99214154 1.0114137 0.99625534 1.0045102 1.0012102 0.99352187
0.98894143 1.0104635 0.98456573 0.9905216 1.0020975 1.0106338 0.9996057 0.9973568
1.0076784 1.0055188 0.9935389 1.0168552 1.0102758 1.0041735 1.0006154 1.0064348
1.0078604 0.9924709 0.9896084 1.0001583 0.984561 0.9980269 1.0013505 1.0105588
0.9836272 1.017278 1.0158402 0.9925126 0.99906075 1.0080059 1.003418 1.0058588
1.0058386 1.0000229 0.9993628 0.99031186 0.9929148 0.98631537 0.9974145 0.9982365
0.9877326 1.0013642 1.0140063 0.9977477 0.9924815 0.9887359 0.9989067 1.0109448
0.9989709 0.98984474 0.9851616 0.99999064 1.0119066 0.99170697 1.0046304 1.0064092
1.0118047 1.0063549 0.98637795 1.0139343 1.0125418 1.0011356 1.0129749 1.0039697
0.9991995 0.9978302 0.9956846 1.0007915 1.0047185 1.0082868 1.0126642 1.0096709
00000000: cc1a 7f3f 1f03 803f 1155 7f3f a673 7c3f
00000010: a846 7e3f 4c74 7f3f 8efe 7c3f 438b 7f3f
00000020: 641d 7f3f 2dbc 7d3f 186c 7e3f 0d6c 7f3f
00000030: e983 7f3f 7767 823f 182a 803f 6455 7f3f
00000040: 7e59 7f3f 7758 813f a490 803f a272 823f
00000050: df49 7e3f 01c1 803f 4acf 7d3f 539a 7e3f
00000060: 30a1 7b3f 4747 803f aa8a 813f 33eb 7e3f
00000070: 456f 833f 6f98 7e3f 441b 813f c479 803f
00000080: 148c 813f c122 7e3f 2d6d 7f3f ad8e 7e3f
00000090: d4a0 803f 2bcc 7f3f 8334 7e3f ea8b 803f
000000a0: 9190 7c3f 4ae7 803f fade 7d3f 45c4 803f
000000b0: 6156 803f f53b 803f 0e38 7c3f e8ba 7d3f
000000c0: 8c52 7e3f f26c 813f fdfc 7d3f 0176 813f
000000d0: 970a 7f3f ca93 803f a827 803f 7357 7e3f
000000e0: 442b 7d3f de56 813f 800c 7c3f d392 7d3f
000000f0: bb44 803f 735c 813f 29e6 7f3f c652 7f3f
00000100: 9bfb 803f d7b4 803f 9158 7e3f 5028 823f
00000110: b850 813f c288 803f 2a14 803f dbd2 803f
00000120: 9201 813f 9312 7e3f fa56 7d3f 3005 803f
00000130: 310c 7c3f b17e 7f3f 412c 803f fe59 813f
00000140: fece 7b3f 2a36 823f 0d07 823f 4e15 7e3f
00000150: 72c2 7f3f 5606 813f 0070 803f fbbf 803f
00000160: 52bf 803f c000 803f 3ed6 7f3f 1485 7d3f
00000170: aa2f 7e3f 2a7f 7c3f 8f56 7f3f 6d8c 7f3f
00000180: 0bdc 7c3f b42c 803f f5ca 813f 656c 7f3f
00000190: 4513 7e3f cc1d 7d3f 59b8 7f3f a466 813f
000001a0: 8fbc 7f3f 7766 7d3f 8d33 7c3f 63ff 7f3f
000001b0: 2886 813f 82e0 7d3f bb97 803f 04d2 803f
000001c0: d182 813f 3dd0 803f 4483 7c3f 99c8 813f
000001d0: f89a 813f 3625 803f 29a9 813f 1482 803f
000001e0: 8acb 7f3f cd71 7f3f 30e5 7e3f f019 803f
000001f0: 9e9a 803f 8b0f 813f fb9e 813f e53c 813f

features.8.bias f4 [128]
-0.001285351 -0.006741158 0.008505691 -0.008590834 -0.0006791698 -0.0069962214 -0.013022625 -0.003790212
-0.0030188109 -0.01734546 -0.0063961926 -0.0045437426 -0.0037062045 0.03001521 -0.007848018 -0.00041073648
0.005763738 -0.0007902438 -0.00014439237 0.028157549 -0.0020302725 0.0017604113 -0.008279582 0.00074798317
-0.009061116 0.011333175 0.008349233 -0.004623857 0.026313512 -0.010305728 0.016236601 0.0032247244
0.014496026 -0.004840752 -0.0065547735 -0.0022295755 0.0041654278 0.010403526 -0.0094458405 -0.00043387065
-0.007204061 0.009841659 -0.010910176 0.0072230296 0.010250573 -0.0055126757 -0.0038666658 -0.010122195
-0.0071187997 0.010737699 -0.012234351 0.0018794069 -0.0009298137 0.014282493 0.0037072024 -0.012168458
-0.008500828 0.012379196 0.003906937 -0.0045023807 0.0019157584 0.0062992414 -0.0016842688 0.0016066063
0.010917039 0.017552514 -0.011199048 0.0121338265 0.013118021 0.0048194686 -0.0034909244 0.015556775
0.00087503553 -0.0077970554 -0.0072161336 -0.0028034628 -0.019237882 -0.0061359587 -0.0054219603 0.0062361304
-0.009625698 0.006446133 0.012218524 -0.0010127178 0.0015629452 0.005092821 0.0023581302 0.012102786
0.003623014 -0.00061065087 -0.00489699 -0.014482545 0.0008928048 -0.018913392 -0.0013630517 -0.0064933677
-0.016531441 -0.009699454 0.018560888 -0.0056920075 -0.00289475 -0.009443258 0.006002873 0.0077359653
-0.0063539688 -0.004433105 -0.007288629 -0.006025979 0.0024816974 -0.008144781 0.004431062 0.0035632502
0.008705893 0.01558838 -0.009428987 0.005071097 0.009274679 -0.0012669627 0.012098573 0.0006165309
-0.0004715112 -0.00026330582 -0.00044622683 0.0055296356 0.0046552606 0.004060096 0.017291838 -0.0008640842
00000000: 3979 a8ba efe4 dcbb 745b 0b3c 92c0 0cbc
00000010: 500a 32ba 8f40 e5bb d95c 55bc 3565 78bb
00000020: 3ed7 45bb 1118 8ebc 2797 d1bb ade3 94bb
00000030: cbe3 72bb 75e2 f53c f994 00bc 1e58 d7b9
00000040: bddd bc3b 5d28 4fba 0868 17b9 a9aa e63c
00000050: 520e 05bb 9abd e63a 15a7 07bc 4d14 443a
00000060: 1375 14bc c8ae 393c 39cb 083c b983 97bb
00000070: 6f8f d73c 5bd9 28bc 9f02 853c e655 533b
00000080: bd80 6d3c 2c9f 9ebb 6dc9 d6bb 121e 12bb
00000090: 247e 883b 8d73 2a3c bac2 1abc 2279 e3b9
000000a0: 0b10 ecbb e93e 213c 98c0 32bc 2aaf ec3b
000000b0: 05f2 273c ada3 b4bb e367 7dbb 90d7 25bc
000000c0: d244 e9bb 2ded 2f3c 9672 48bc 6e56 f63a
000000d0: bebe 73ba 1e01 6a3c 89f4 723b 365e 47bc
000000e0: 0f47 0bbc 1cd2 4a3c c305 803b b588 93bb
000000f0: 2f1a fb3a de69 ce3b afc2 dcba c394 d23a
00000100: 61dd 323c 4aca 8f3c 367c 37bc f5cc 463c
00000110: f8ec 563c a2ec 9d3b fec7 64bb d8e1 7e3c
00000120: a462 653a 717e ffbb 5175 ecbb 4dba 37bb
00000130: c398 9dbc 2710 c9bb b3aa b1bb 7458 cc3b
00000140: 1bb5 1dbc 153a d33b 3430 483c 2cbd 84ba
00000150: bddb cc3a aee1 a63b dc8a 1a3b c44a 463c
00000160: 1770 6d3b 1614 20ba ee76 a0bb 3248 6dbc
00000170: 1e0b 6a3a 42f0 9abc 6da8 b2ba 51c6 d4bb
00000180: f26c 87bc 75ea 1ebc 010d 983c 0584 babb
00000190: d9b5 3dbb e5b7 1abc c0b3 c43b fb7d fd3b
000001a0: f434 d0bb 9443 91bb 74d5 eebb 9375 c5bb
000001b0: f9a3 223b b071 05bc 7132 913b 6b85 693b
000001c0: 29a3 0e3c 6866 7f3c 0a7c 1abc 722b a63b
000001d0: d3f4 173c 3710 a6ba 1839 463c b09e 213a
000001e0: 2935 f7b9 4f0c 8ab9 8df3 e9b9 f231 b53b
000001f0: 288b 983b 8e0a 853b 9da7 8d3c b683 62ba

features.8.running_mean f4 [128]
-0.28811732 0.057789218 -0.21385345 -0.14259863 0.23512022 -0.13655767 -0.33036035 -0.120633304
0.022363462 -0.029044366 -0.053960897 -0.06349104 -0.05885835 -0.009489019 0.41775706 0.22787534
0.02983411 0.18421277 -0.049972236 0.10614885 0.117462166 -0.38569215 -0.02454759 0.40698323
0.12049885 0.21842231 -0.11398816 -0.22886032 -0.061819073 0.09923153 -0.00064120104 0.08386018
-0.22867864 -0.18069468 0.23425634 -0.07863388 0.45318803 0.10621211 -0.049872093 0.11989796
0.29720035 -0.12016215 -0.5926194 -0.050098024 -0.18875083 0.13678679 -0.26239884 0.18309398
0.024801392 0.032507516 0.123633936 0.34332186 -0.3252165 -0.010998134 -0.011264089 0.5145782
0.21397331 -0.27967268 0.5581822 0.1105669 -0.13542598 -0.3672798 -0.013318782 0.076808475
-0.18595667 0.06039988 -0.55354977 -0.12761644 -0.085033655 0.24331105 0.26109973 -0.127454
-0.13012367 0.035142265 -0.22094154 -0.096028686 -0.14585736 -0.29080987 -0.089550704 0.028431002
0.18298747 -0.32791704 -0.03460726 0.122717 0.067724004 -0.037601486 -0.3264199 -0.3221298
0.36615908 -0.04861951 0.35467875 -0.1901926 -0.034390125 -0.15081029 0.022895535 0.52172846
0.2429746 0.3062913 0.34577796 0.27478653 -0.22445713 0.04229118 0.16464794 -0.3410457
-0.29120493 0.118582465 -0.15042906 -0.26296172 0.018552877 0.13943754 0.08028518 0.22638215
-0.04354937 -0.017230239 -0.12786916 -0.17867038 -0.17486858 -0.13266496 0.06855439 0.35491887
-0.029915629 -0.053407043 -0.4492094 0.32288945 0.51707065 -0.059481487 -0.2236628 -0.18295465
00000000: 1d84 93be 63b4 6c3d 66fc 5abe 6005 12be
00000010: 5bc3 703e c6d5 0bbe fe24 a9be 980e f7bd
00000020: 9433 b73c 73ee edbc 1a06 5dbd 9707 82bd
00000030: 7415 71bd d577 1bbc 41e4 d53e 2758 693e
00000040: aa66 f43c 46a2 3c3e b0af 4cbd 9164 d93d
00000050: 0190 f03d 7179 c5be 0718 c9bc 1b60 d03e
00000060: 1ac8 f63d 19aa 5f3e a072 e9bd 5c5a 6abe
00000070: ff35 7dbd e739 cb3d 4616 28ba e3be ab3d
00000080: bc2a 6abe 0708 39be e5e0 6f3e cd0a a1bd
00000090: 4308 e83e bc85 d93d ae46 4cbd 108d f53d
000000a0: a52a 983e 9317 f6bd e8b5 17bf 9633 4dbd
000000b0: e647 41be d611 0c3e 2459 86be fd7c 3b3e
000000c0: 4a2c cb3c 9a26 053d ca33 fd3d e2c7 af3e
000000d0: c782 a6be 8431 34bc 038d 38bc 66bb 033f
000000e0: d21b 5b3e 4231 8fbe 07e5 0e3f e670 e23d
000000f0: 1cad 0abe 190c bcbe 0537 5abc c34d 9d3d
00000100: 6d6b 3ebe dd65 773d 70b5 0dbf e2ad 02be
00000110: 2026 aebd 8826 793e ddae 853e 4d83 02be
00000120: 243f 05be 56f1 0f3d 803e 62be b0aa c4bd
00000130: a25b 15be 08e5 94be 5c66 b7bd 22e8 e83c
00000140: 1161 3b3e bee4 a7be 58c0 0dbd 0d53 fb3d
00000150: e2b2 8a3d 0404 1abd 8220 a7be 32ee a4be
00000160: 3479 bb3e 4025 47bd 7498 b53e d9c1 42be
00000170: a9dc 0cbd 036e 1abe 6b8f bb3c ff8f 053f
00000180: 55ce 783e 37d2 9c3e cf09 b13e d2b0 8c3e
00000190: 17d8 65be 8439 2d3d 7899 283e 8b9d aebe
000001a0: d018 95be 5ddb f23d 130a 1abe eba2 86be
000001b0: 34fc 973c b7c8 0e3e 8e6c a43d b9d0 673e
000001c0: d360 32bd 6e26 8dbc 22f0 02be 5ef5 36be
000001d0: c010 33be 53d9 07be 3e66 8c3d edb7 b53e
000001e0: 9f11 f5bc 58c1 5abd c6fe e5be c451 a53e
000001f0: be5e 043f dca2 73bd dc07 65be 7758 3bbe

features.8.running_var f4 [128]
0.125892 0.18942869 0.31874058 0.1288304 0.34376252 0.10280472 0.17552318 0.12221893
0.086966716 0.14138846 0.102812596 0.0836753 0.13799812 0.24127199 0.2769287 0.20820601
0.2353307 0.14681591 0.31683987 0.1978163 0.11410648 0.28497437 0.2084863 0.24930185
0.17520908 0.2132115 0.11097038 0.18849793 0.24360053 0.15733773 0.12226475 0.21169919
0.26779863 0.15509667 0.1746043 0.15995616 0.18090747 0.14131284 0.11904105 0.18853757
0.14400227 0.1521778 0.19808058 0.14409849 0.17782946 0.11298365 0.22946638 0.06753481
0.22620392 0.2821146 0.114861906 0.24508616 0.22463223 0.110542096 0.12664925 0.30013305
0.17045213 0.14179845 0.32815126 0.1303327 0.20690621 0.17802815 0.23263693 0.12645273
0.20007382 0.19714227 0.14398865 0.13525787 0.2687672 0.21633306 0.1954498 0.1611707
0.19917646 0.12007754 0.17878383 0.17165567 0.10965544 0.13541225 0.12523688 0.20577395
0.17549337 0.22831656 0.22193663 0.15607348 0.13801947 0.13478328 0.1546272 0.22428524
0.2743668 0.20707026 0.42880425 0.16093828 0.12024659 0.08419698 0.20422159 0.2476113
0.14276156 0.2274648 0.09445809 0.12801382 0.3703168 0.1806212 0.12056018 0.15354973
0.22164863 0.31948802 0.14898437 0.12511228 0.11673519 0.20423467 0.15049005 0.170611
0.17873667 0.18404892 0.14692578 0.18103373 0.18046173 0.22624075 0.18218563 0.4195541
0.12960793 0.22738741 0.13679433 0.22322841 0.122871056 0.21527423 0.21919231 0.17063999
00000000: d5e9 003e 98f9 413e f731 a33e 1eec 033e
00000010: a401 b03e 488b d23d 59bc 333e eb4d fa3d
00000020: 9b1b b23d 23c8 103e 698f d23d f55d ab3d
00000030: 614f 0d3e 0110 773e 99c9 8d3e f533 553e
00000040: 88fa 703e e956 163e d638 a23e 5b90 4a3e
00000050: a8b0 e93d 29e8 913e 6f7d 553e fc48 7f3e
00000060: 026a 333e 1e54 5a3e 7044 e33d 9a05 413e
00000070: 6b72 793e 241d 213e f165 fa3d acc7 583e
00000080: e71c 893e a9d1 1e3e 78cb 323e 8ccb 233e
00000090: cf3f 393e 50b4 103e cbcb f33d fe0f 413e
000000a0: 5575 133e 7fd4 1b3e a3d5 4a3e 8e8e 133e
000000b0: ed18 363e f963 e73d 3cf9 6a3e b14f 8a3d
000000c0: 00a2 673e 5371 903e b83c eb3d def7 7a3e
000000d0: fe05 663e e563 e23d 57b0 013e 0aab 993e
000000e0: 018b 2e3e 9d33 113e 7103 a83e ef75 053e
000000f0: 39df 533e 034d 363e 6038 6e3e d37c 013e
00000100: 27e0 4c3e aadf 493e c371 133e 0a81 0a3e
00000110: db9b 893e 6a86 5d3e fe23 483e ef09 253e
00000120: eaf4 4b3e 37eb f53d 1c13 373e 81c6 2f3e
00000130: 0893 e03d 82a9 0a3e 193e 003e 68b6 523e
00000140: 89b4 333e d1cb 693e 5b43 633e bad1 1f3e
00000150: fa54 0d3e a104 0a3e 9856 1e3e 08ab 653e
00000160: ce79 8c3e 3a0a 543e 3b8c db3e 01cd 243e
00000170: d843 f63d 776f ac3d 771f 513e d18d 7d3e
00000180: 1630 123e 88ec 683e 3e73 c13d 0e16 033e
00000190: 2a9a bd3e c4f4 383e 41e8 f63d 243c 1d3e
000001a0: dcf7 623e ef93 a33e 5c8f 183e 6f1d 003e
000001b0: dc12 ef3d e522 513e 101a 1a3e a6b4 2e3e
000001c0: bf06 373e 5277 3c3e b673 163e e860 393e
000001d0: f6ca 383e a8ab 673e df8e 3a3e cccf d63e
000001e0: f1b7 043e 3fd8 683e d013 0c3e fd95 643e
000001f0: d2a3 fb3d d970 5c3e f373 603e 40bc 2e3e

features.11.bias f4 [256]
0.082662486 -0.061194453 -0.077913515 0.08235734 -0.05414316 0.05657878 -0.019623416 0.04277699
0.047576364 0.080544166 0.016736854 0.04288283 0.074196465 -0.06834199 0.07232783 0.04702834
-0.06888983 -0.088328645 0.026913818 -0.021008058 -0.071716234 0.07143213 -0.057584684 -0.014075608
0.0038399277 0.06200882 0.05301783 -0.014357861 0.024235342 0.05665442 -0.054699056 -0.021885322
0.069361016 -0.064383596 0.020223154 0.023420753 0.03675867 -0.017016763 0.015277361 -0.08142752
-0.04889547 0.072796166 0.05870868 -0.086407356 -0.066846766 0.069028236 0.0004168075 0.027127195
-0.047429327 0.08767603 -0.0071108695 -0.030515997 0.042398684 0.027131876 -0.021162605 -0.024614077
-0.017235136 -0.038037542 -0.013910189 0.023544455 0.037089918 0.06298714 0.037800066 -0.001868096
0.07997298 -0.04794646 -0.07235828 0.03668092 0.066364355 -0.072269864 -0.025565993 -0.005342291
-0.06810213 -0.0047752294 0.033385806 -0.077811435 -0.015751975 -0.0387386 0.05824896 0.021879794
0.086459756 0.06577351 -0.018393531 -0.07953286 0.05217966 0.013725039 0.054900628 -0.012828154
-0.044516545 -0.039726127 -0.084835246 0.038889196 -0.058050152 -0.017184349 -0.036909424 0.07009074
-0.07068617 0.061050326 -0.047192972 -0.044030998 -0.05197748 0.054670222 0.06790806 0.05452194
0.034372468 -0.00063547684 0.05847817 -0.034118947 0.054252345 -0.05781767 0.020116253 0.07839889
-0.07650292 0.058989104 -0.047775522 0.06766073 0.08149067 -0.056797918 -0.06714489 0.0029664997
0.0056674373 0.085942514 0.081661545 0.062078528 -0.05330489 -0.013339595 -0.04020981 -0.030830747
0.05340959 -0.03648719 0.08741992 0.036713727 0.085977964 0.006774426 -0.010923069 0.05281959
-0.042196706 -0.06949537 -0.0381694 -0.05838117 -0.026978035 0.07580291 0.006359836 -0.038587715
0.05140752 0.02676669 0.057548784 0.07660383 0.048001587 0.049139883 -0.061126385 0.0087294895
0.025456225 0.06499785 -0.06961891 -0.06892828 0.034777176 -0.055051908 -0.016991522 -0.015986335
-0.020654134 -0.06530287 -0.035265718 0.013940398 -0.088204764 -0.042304467 -0.0005980841 -0.01798592
-0.015136024 0.086127825 -0.024746463 -0.021470593 -0.05772845 -0.07906227 0.057077885 -0.014280983
-0.019076407 -0.049098898 -0.066234946 -0.08389173 -0.0033990233 0.040501412 -0.042151704 -0.007568507
0.07926401 -0.018391468 0.0012128967 -0.06955345 -0.03217267 -0.050076507 -0.07569911 0.050414357
0.019526968 0.008168322 0.07075865 -0.026446503 0.06616176 -0.063832894 0.07530928 0.016351419
-0.05278827 0.054154843 -0.025614815 -0.04913508 -0.062190622 -0.024097143 0.003376677 0.02015096
0.0036945879 0.06933556 0.08699857 -0.06804719 0.070680514 -0.0039990484 -0.019651059 -0.034069497
-0.04058265 -0.024595372 -0.018951572 -0.08784015 -0.062826864 -0.017552348 0.07374189 0.08130482
-0.022654565 0.07872061 0.076760545 -0.029505938 -0.049429793 0.08681669 -0.07105276 -0.07340961
-0.010692509 0.00892581 0.002384978 0.068322405 0.052787162 0.069912426 0.056787096 0.063917816
0.08266063 -0.07075821 0.0742121 -0.07263579 -0.07023549 -0.032080077 -0.05808652 -0.01128257
0.060287252 -0.08426387 0.08790104 -0.039341833 0.070781454 -0.03650606 0.05156852 -0.052719943
00000000: f34a a93d 09a7 7abd 1f91 9fbd f7aa a83d
00000010: 38c5 5dbd 27bf 673d 49c1 a0bc ed36 2f3d
00000020: 6fdf 423d 57f4 a43d ba1b 893c e8a5 2f3d
00000030: 51f4 973d e3f6 8bbd 9d20 943d caa0 403d
00000040: 1c16 8dbd a6e5 b4bd 5e7a dc3c 1719 acbc
00000050: f6df 92bd 024b 923d ebdd 6bbd 619d 66bc
00000060: 4ca7 7b3b f6fc 7d3d 3929 593d 3c3d 6bbc
00000070: 3289 c63c 770e 683d 1e0c 60bd d948 b3bc
00000080: 260d 8e3d 8cdb 83bd 07ab a53c e1dc bf3c
00000090: 4290 163d bd66 8bbc e54d 7a3c 79c3 a6bd
000000a0: 9e46 48bd 2816 953d 8378 703d 57f6 b0bd
000000b0: f5e6 88bd ad5e 8d3d f586 da39 da39 de3c
000000c0: 4145 42bd 7e8f b33d 4c02 e9bb affc f9bc
000000d0: 3eaa 2d3d ab43 de3c 335d adbc 76a3 c9bc
000000e0: b330 8dbc 41cd 1bbd 90e7 63bc 4de0 c03c
000000f0: 99eb 173d 67ff 803d 3ed4 1a3d e6da f4ba
00000100: e0c8 a33d 8263 44bd 9430 94bd bb3e 163d
00000110: 09ea 873d 3902 94bd c66f d1bc 630e afbb
00000120: 2179 8bbd 8779 9cbb 8ebf 083d 9a5b 9fbd
00000130: 490a 81bc 5eac 1ebd 7696 6e3d 413d b33c
00000140: d011 b13d 43b4 863d 08ae 96bc 20e2 a2bd
00000150: 57ba 553d fcde 603c 7bdf 603d 2d2d 52bc
00000160: fb56 36bd ddb7 22bd 1abe adbd 474a 1f3d
00000170: ffc5 6dbd 31c6 8cbc 562e 17bd bc8b 8f3d
00000180: e9c3 90bd e80f 7a3d 6b4d 41bd d959 34bd
00000190: 57e6 54bd e2ed 5f3d 6213 8b3d 6652 5f3d
000001a0: 25ca 0c3d 2196 26ba ce86 6f3d 4fc0 0bbd
000001b0: b537 5e3d 39d2 6cbd d7ca a43c 998f a03d
000001c0: 90ad 9cbd 8f9e 713d 44b0 43bd b591 8a3d
000001d0: 95e4 a63d efa4 68bd 4383 89bd 9b69 423b
000001e0: e9b5 b93b a102 b03d 2b3e a73d 0e46 7e3d
000001f0: 3a56 5abd 518e 5abc 0bb3 24bd c390 fcbc
00000200: 04c4 5a3d 9773 15bd 3709 b33d 2261 163d
00000210: 3715 b03d 01fc dd3b acf6 32bc 5b59 583d
00000220: 74d6 2cbd 9753 8ebd 8457 1cbd 1821 6fbd
00000230: 0a01 ddbc 8e3e 9b3d 2c66 d03b 270e 1ebd
00000240: b190 523d d145 db3c 46b8 6b3d 78e2 9c3d
00000250: 509d 443d e746 493d a95f 7abd 2206 0f3c
00000260: 9389 d03c 981d 853d 5c94 8ebd 452a 8dbd
00000270: 8372 0e3d 1c7e 61bd ce31 8bbc c6f5 82bc
00000280: dc32 a9bc 83bd 85bd c972 10bd 4466 643c
00000290: b3a4 b4bd 7347 2dbd bfc8 1cba 3557 93bc
000002a0: 16fd 77bc c963 b03d 18b9 cabc 19e3 afbc
000002b0: ab74 6cbd 66eb a1bd 80ca 693d c9fa 69bc
000002c0: 2046 9cbc ed1b 49bd 30a6 87bd 6dcf abbd
000002d0: 26c2 5ebb cfe4 253d 44a7 2cbd 3d01 f8bb
000002e0: 2b55 a23d b4a9 96bc 0ffa 9e3a 0a72 8ebd
000002f0: 7dc7 03bd 061d 4dbd 2308 9bbd 497f 4e3d
00000300: 05f7 9f3c 6dd4 053c e9e9 903d 56a6 d8bc
00000310: d17f 873d d2ba 82bd c03b 9a3d 69f3 853c
00000320: 8338 58bd 78d1 5d3d 29d6 d1bc de41 49bd
00000330: 98bb 7ebd 5f67 c5bc 3d4b 5d3b a013 a53c
00000340: e620 723b cdff 8d3d 4e2c b23d 535c 8bbd
00000350: f2c0 903d 730a 83bb 42fb a0bc 758c 0bbd
00000360: fe39 26bd 3c7c c9bc 5440 9bbc 89e5 b3bd
00000370: 5fab 80bd f1c9 8fbc fd05 973d 2483 a63d
00000380: 1196 b9bc 4538 a13d a234 9d3d 70b6 f1bc
00000390: e576 4abd f3cc b13d 1c84 91bd c757 96bd
000003a0: a22f 2fbc 903d 123c 4b4d 1c3b 9eec 8b3d
000003b0: 5a37 583d 3f2e 8f3d 9699 683d 58e7 823d
000003c0: fa49 a93d aee9 90bd 83fc 973d 13c2 94bd
000003d0: a0d7 8fbd 6666 03bd 21ec 6dbd 87da 38bc
000003e0: c4ef 763d 8992 acbd 7605 b43d e724 21bd
000003f0: def5 903d 6187 15bd 8339 533d def0 57bd

features.12.weight f4 [256]
1.0078717 1.0043424 0.99557567 0.9870625 1.0097611 1.0141538 0.9870635 0.9849237
1.0170715 0.99887884 1.0023401 0.99523354 0.99223614 1.0110518 1.0089391 1.0152868
0.9937536 0.99800503 0.9811879 0.99370766 1.0124983 0.9921223 1.0060519 1.012108
0.99260104 0.9951656 1.0051503 1.0021213 1.0003697 1.0116552 1.0107865 0.98309124
1.0001941 1.0030541 0.99613726 0.99718183 1.0083992 0.99292785 0.9968247 0.9955723
0.9988851 0.9914401 0.9896159 0.98755014 0.99533516 1.003712 0.9931674 0.98228246
0.9987018 0.99856997 0.999626 0.9993093 1.0024964 1.0095251 0.9946531 1.0129038
0.9937572 1.0094781 1.0212563 0.98995054 0.9933421 0.99084353 1.0067344 1.0056316
1.0015814 0.9848993 0.98859847 1.0083381 1.0072324 0.9875889 0.9880226 1.0020667
0.99368393 0.99788684 1.002379 1.0040348 0.98427707 1.0031748 0.98979163 1.0124234
1.0116066 0.99669504 1.0038648 1.0021567 0.99534667 1.0104744 0.98698676 1.0045848
1.0113508 1.0118445 0.9930068 0.9831349 1.0043118 0.99214697 0.9931144 0.98700017
0.9985046 0.9946197 0.9889517 0.99805397 0.99070495 0.9907401 1.0060905 1.012015
1.0048563 1.0026598 1.0092382 1.003108 1.0019795 1.0096761 1.0012311 0.99529177
0.9938973 0.9885892 0.9984005 0.9986106 0.989562 1.0003815 0.9946603 0.9978705
0.9934286 1.0104986 1.0115532 0.99399436 1.0019684 0.9907325 1.0005156 1.0111469
1.0080768 0.984245 1.0033362 0.9967238 1.0071436 1.0133406 1.0000403 1.0026613
0.99879307 0.9903474 0.99510425 0.9936326 0.9882341 1.0139016 1.0005264 1.0207704
1.0076619 1.0003718 1.011475 1.0019994 0.99883413 0.9998825 0.99645126 1.0014976
0.996975 1.0067583 0.99106836 1.0033692 0.99206954 1.0237508 1.0111915 0.9991243
0.9971851 1.0086846 0.996637 0.97633487 0.99964386 0.9861888 0.9871016 0.9902082
1.0004408 0.9901865 0.99035835 1.0138276 0.9948311 1.0013354 0.99541324 1.0009043
0.9908085 1.0060734 0.9923273 0.9980048 0.98770916 0.99440247 1.0103543 0.99178594
0.9979807 0.99705774 0.9942653 1.0026495 0.98766935 1.0024052 0.99920905 1.0026275
0.9960987 1.007062 1.0041069 1.0102491 1.007759 1.0002624 1.0016402 0.985091
0.9967184 1.0009547 0.98844844 0.98719716 1.000969 1.0145392 1.0194393 0.995113
1.0081272 0.98069793 1.0052543 1.003325 0.9920455 0.9859517 1.0137489 1.0004869
0.9962182 0.99591404 0.9988287 1.0291619 1.0047762 0.9976315 1.002173 0.9959139
1.0022962 1.007999 0.9959774 0.9925605 1.0037369 1.017034 0.9995739 0.9936329
1.0128661 1.001873 1.015739 0.9928102 1.0061176 1.0072057 1.0027612 0.9918801
0.9959462 1.0180146 0.9996399 1.0160053 0.9863907 1.0002651 0.9971443 1.0142521
1.0028135 1.0008808 0.9850026 0.9993141 1.0054694 0.99018383 0.9955185 1.0183378
00000000: f101 813f 4b8e 803f 0cde 7e3f 21b0 7c3f
00000010: da3f 813f cbcf 813f 32b0 7c3f f623 7c3f
00000020: 662f 823f 86b6 7f3f ae4c 803f a0c7 7e3f
00000030: 3003 7e3f 256a 813f eb24 813f ebf4 813f
00000040: a366 7e3f 427d 7f3f 212f 7b3f a063 7e3f
00000050: 8b99 813f bafb 7d3f 4fc6 803f c18c 813f
00000060: 1a1b 7e3f 2cc3 7e3f c4a8 803f 8345 803f
00000070: 1d0c 803f eb7d 813f 7461 813f deab 7b3f
00000080: 5c06 803f 1464 803f da02 7f3f 4f47 7f3f
00000090: 3a13 813f 8530 7e3f e72f 7f3f d4dd 7e3f
000000a0: efb6 7f3f 05cf 7d3f 7857 7d3f 16d0 7c3f
000000b0: 49ce 7e3f a379 803f 3840 7e3f dd76 7b3f
000000c0: ecaa 7f3f 48a2 7f3f 7de7 7f3f bcd2 7f3f
000000d0: cd51 803f 1e38 813f 96a1 7e3f d5a6 813f
000000e0: df66 7e3f 9436 813f 87b8 823f 666d 7d3f
000000f0: ab4b 7e3f eca7 7d3f acdc 803f 89b8 803f
00000100: d233 803f 5c22 7c3f ca14 7d3f 3911 813f
00000110: feec 803f a0d2 7c3f 0def 7c3f b943 803f
00000120: 1262 7e3f 8375 7f3f f44d 803f 3684 803f
00000130: 95f9 7b3f 0868 803f fc62 7d3f 1797 813f
00000140: 537c 813f 6827 7f3f a47e 803f ac46 803f
00000150: 0acf 7e3f 3a57 813f 2aab 7c3f 3c96 803f
00000160: f173 813f 1f84 813f b235 7e3f bbae 7b3f
00000170: 4a8d 803f 58fd 7d3f bf3c 7e3f 0bac 7c3f
00000180: ff9d 7f3f 669f 7e3f f02b 7d3f 7780 7f3f
00000190: d79e 7d3f 25a1 7d3f 93c7 803f b589 813f
000001a0: 229f 803f 2857 803f b82e 813f d865 803f
000001b0: dd40 803f 113d 813f 5728 803f 71cb 7e3f
000001c0: 0e70 7e3f 2f14 7d3f 2d97 7f3f f2a4 7f3f
000001d0: ef53 7d3f 800c 803f 0fa2 7e3f 7174 7f3f
000001e0: 5651 7e3f 0558 813f 937a 813f 6a76 7e3f
000001f0: 8040 803f a5a0 7d3f e510 803f 436d 813f
00000200: a908 813f 7bf7 7b3f 526d 803f 4a29 7f3f
00000210: 15ea 803f 25b5 813f 5201 803f 3557 803f
00000220: e7b0 7f3f 6887 7d3f 27bf 7e3f b55e 7e3f
00000230: e9fc 7c3f 87c7 813f 4011 803f 9ba8 823f
00000240: 11fb 803f 2f0c 803f 0378 813f 8441 803f
00000250: 98b3 7f3f 4df8 7f3f 6e17 7f3f 1331 803f
00000260: c139 7f3f 75dd 803f a8b6 7d3f 676e 803f
00000270: 45f8 7d3f 440a 833f b96e 813f 9cc6 7f3f
00000280: 8647 7f3f 941c 813f 9a23 7f3f 15f1 793f
00000290: a9e8 7f3f df76 7c3f b1b2 7c3f 497e 7d3f
000002a0: 720e 803f dd7c 7d3f 2088 7d3f 1ac5 813f
000002b0: 40ad 7e3f c22b 803f 67d3 7e3f a21d 803f
000002c0: a0a5 7d3f 03c7 803f 2909 7e3f 3e7d 7f3f
000002d0: 82da 7c3f 2991 7e3f 4a53 813f afe5 7d3f
000002e0: aa7b 7f3f 2d3f 7f3f 2c88 7e3f d256 803f
000002f0: e6d7 7c3f d04e 803f 2acc 7f3f 1956 803f
00000300: 5300 7f3f 68e7 803f 9386 803f d84f 813f
00000310: 3ffe 803f 9908 803f bf35 803f ec2e 7c3f
00000320: f028 7f3f 491f 803f f50a 7d3f f4b8 7c3f
00000330: c11f 803f 6cdc 813f fd7c 823f babf 7e3f
00000340: 500a 813f 050f 7b3f 2cac 803f f46c 803f
00000350: b2f6 7d3f 5567 7c3f 86c2 813f f40f 803f
00000360: 2808 7f3f 39f4 7e3f 3db3 7f3f 94bb 833f
00000370: 829c 803f c764 7f3f 3447 803f 37f4 7e3f
00000380: 3e4b 803f 1c06 813f 60f8 7e3f 7218 7e3f
00000390: 737a 803f 2c2e 823f 13e4 7f3f ba5e 7e3f
000003a0: 99a5 813f 603d 803f bc03 823f cf28 7e3f
000003b0: 76c8 803f 1eec 803f 7b5a 803f dbeb 7d3f
000003c0: 55f6 7e3f 4d4e 823f 67e8 7f3f 760c 823f
000003d0: 1a84 7c3f b008 803f d944 7f3f 03d3 813f
000003e0: 315c 803f dd1c 803f 2129 7c3f 0dd3 7f3f
000003f0: 39b3 803f b07c 7d3f 4dda 7e3f e558 823f

features.12.bias f4 [256]
0.001935139 0.005235957 -0.014841469 -0.005720188 0.008363761 0.0058159097 -0.013537591 -0.008708795
0.012951654 0.021361157 0.0011282209 -0.007995961 -0.0020659945 0.009263191 -0.006333365 0.013343836
-0.017401094 -0.0052534845 -0.01202292 -0.002722685 0.025215946 -0.00956459 -0.00059554895 0.0075753215
0.0028727506 -0.0024865994 -0.001326259 0.0080685755 -0.0012875716 0.009584072 0.012794987 -0.010987246
0.0019087108 -0.0024977697 -0.0064677475 0.021325698 0.0100410655 -0.0060444362 -0.007676011 -0.010436433
-0.004292472 -0.019449137 -0.004617992 -0.007818884 0.0026812786 0.01241246 -0.019338345 -0.01655882
0.0066185766 -0.010913444 0.004026304 0.005247242 -0.0015869272 0.013420259 -0.0071976404 0.021173652
-0.003923212 0.011940579 0.02230636 -0.0127821835 -0.0039960323 -0.013338024 0.008470494 0.0055859676
-0.0049383184 -0.0060781045 -0.011208271 0.005169442 0.010203617 -0.010083647 -0.008094894 -0.0070357253
-0.0023084062 -0.0017893038 0.006372378 0.0048708855 -0.007832434 0.009671598 -0.0014195185 0.00973767
0.024295526 -0.0037507596 0.0007647495 0.015352742 0.0022968533 0.008383678 -0.011819967 -0.0038241716
0.009801289 0.012557376 0.004774494 -0.012711846 0.009786492 -0.0045018513 -0.0038081985 -0.007075251
-0.003989545 -0.010350608 -0.0099034775 6.640572e-05 -0.011709571 -0.007098574 0.012047224 0.011288685
0.0006596266 -0.0037613108 0.012814821 0.008879402 -0.00057308865 0.014151622 -0.00041330498 -0.00011414685
-0.009939449 -0.0070283483 -0.003327946 -0.005153149 0.00065106887 0.0006400149 -0.007733416 0.008149978
0.0019803676 0.019231437 0.02364979 -0.0039987317 0.0045828475 -0.0036007029 0.003409458 0.0064029456
-0.0037742394 -0.012388956 0.003699362 -0.0018707364 0.0062935986 0.011075062 0.004373008 -0.009353589
-0.007032976 -0.0071670352 -0.0012317792 -0.0048358645 -0.011255993 0.020347523 0.008075717 0.025111146
-0.0074525224 0.007325123 0.011292038 -0.0072772773 0.0013345929 -0.0031799013 0.004020301 -0.009912224
0.002050002 0.009664431 -0.011773396 0.004870681 -0.008083295 0.021299977 0.005071938 -0.0024287226
-0.0043356894 0.00046211272 -0.011997659 -0.0152395535 -0.00049275777 -0.003513639 -0.015593961 -0.007991777
0.010149947 -0.00261076 -0.010582684 0.011605793 -0.002905268 0.004130445 0.005082629 -0.0029369295
-0.0099682575 -0.00064600306 -0.0020578436 0.0029520704 -0.0034374993 0.0024961364 0.0008137979 0.0022797328
0.0045252386 0.002767092 -0.0046382383 -0.004239595 -0.0018139852 0.005048289 -0.004511497 0.0039619543
0.004446825 0.0055456553 0.008244474 0.011744581 0.008870843 -0.007441809 0.0007738565 -0.012994338
0.0052992874 0.012192951 -0.008185671 -0.010811356 0.0012225127 0.007509671 0.0057103755 -0.0072518415
0.006362571 -0.0019172151 -0.003150454 0.0038631556 -0.0052914605 -0.0062639825 0.017662555 0.009693989
0.0016731918 -0.00017897881 -0.0019176361 0.026850777 -0.004517372 0.006749801 0.001238165 -0.0033731635
0.004935885 0.0017840462 -0.0033553338 -0.0129659595 -1.7518883e-05 0.019972859 0.0013605156 -0.0056881392
0.01729311 -0.003902578 0.0124682225 -0.011083319 -0.0042808647 0.010855457 0.004967566 -0.009449809
-0.006652987 0.011827871 0.0022946536 0.014294924 -0.014734679 0.00607416 -0.0024828622 0.014260209
0.0031291647 0.0063570426 -0.015122759 0.0006477966 0.002632196 -0.0019317426 -0.010206103 0.0059213466
00000000: 7da4 fd3a 6492 ab3b a229 73bc 6a70 bbbb
00000010: 2808 093c 6393 be3b c6cc 5dbc 55af 0ebc
00000020: 2d33 543c 98fd ae3c d0e0 933a 7e01 03bc
00000030: a365 07bb a4c4 173c 1e88 cfbb 1ba0 5a3c
00000040: bd8c 8ebc 6c25 acbb c8fb 44bc 136f 32bb
00000050: ac91 ce3c ccb4 1cbc 9d1e 1cba 673a f83b
00000060: c244 3c3b 37f6 22bb ded5 adba 0f32 043c
00000070: bcc3 a8ba 8306 1d3c 11a2 513c da03 34bc
00000080: b52d fa3a 9fb1 23bb 66ef d3bb 3bb3 ae3c
00000090: 4883 243c 6810 c6bb 0c87 fbbb 93fd 2abc
000000a0: dda7 8cbb cc53 9fbc 8652 97bb c71a 00bc
000000b0: 64b8 2f3b a15d 4b3c 736b 9ebc 5da6 87bc
000000c0: a5e0 d83b 4dce 32bc 16ef 833b 0ef1 ab3b
000000d0: 7100 d0ba a5e0 5b3c 2fda ebbb 5e74 ad3c
000000e0: 4a8e 80bb 6ba2 433c d4bb b63c 5d6c 51bc
000000f0: 26f1 82bb ba87 5abc d4c7 0a3c 7e0a b73b
00000100: 9ed1 a1bb d62a c7bb e5a2 37bc 6c64 a93b
00000110: 122d 273c e235 25bc 72a0 04bc f18b e6bb
00000120: a148 17bb 1387 eaba 62cf d03b f39b 9f3b
00000130: 9c53 00bc 9f75 1e3c 230f baba c08a 1f3c
00000140: 6907 c73c 4ecf 75bb 7879 483a 118a 7b3c
00000150: ce86 163b b25b 093c 89a8 41bc f49e 7abb
00000160: 9695 203c 74bd 4d3c 5c73 9c3b 5945 50bc
00000170: 8657 203c 4484 93bb f892 79bb 82d7 e7bb
00000180: bbba 82bb 9995 29bc 3242 22bc 4d43 8b38
00000190: 80d9 3fbc 289b e8bb b861 453c 2df4 383c
000001a0: cbea 2c3a 5380 76bb 41f5 513c e97a 113c
000001b0: 543b 16ba 34dc 673c dbb0 d8b9 2062 efb8
000001c0: 12d9 22bc 0f4e e6bb ab19 5abb bfdb a8bb
000001d0: 7eac 2a3a acc6 273a 9868 fdbb 7c87 053c
000001e0: 0ec9 013b 3f8b 9d3c 34bd c13c cb07 83bb
000001f0: b62b 963b c5f9 6bbb 3771 5f3b cdcf d13b
00000200: 3b59 77bb 0cfb 4abc ff70 723b 7f33 f5ba
00000210: 883a ce3b 2d74 353c 734b 8f3b cc3f 19bc
00000220: e174 e6bb 73d9 eabb a773 a1ba 2c76 9ebb
00000230: 0e6b 38bc d9af a63c 0350 043c e4b5 cd3c
00000240: 4a34 f4bb 9607 f03b 3d02 393c 3a76 eebb
00000250: 82ed ae3a e465 50bb bbbc 833b e166 22bc
00000260: 5459 063b 9057 1e3c 34e5 40bc 3c9a 9f3b
00000270: cc6f 04bc 4a7d ae3c 8032 a63b 342b 1fbb
00000280: 6612 8ebb b847 f239 d491 44bc 52af 79bc
00000290: 6a2c 01ba 1545 66bb d07d 7fbc f1ef 02bc
000002a0: f74b 263c 4919 2bbb fe62 2dbc 3926 3e3c
000002b0: 4f66 3ebb af58 873b 2f8c a63b 8079 40bb
000002c0: e751 23bc 8858 29ba e3dc 06bb 8677 413b
000002d0: ab47 61bb 3896 233b 0d55 553a 9267 153b
000002e0: 7448 943b 1a58 353b 5dfc 97bb 4dec 8abb
000002f0: 3ec3 edba 1e6c a53b 2ed5 93bb 48d3 813b
00000300: acb6 913b 54b8 b53b d513 073c 586c 403c
00000310: 0357 113c 6bda f3bb a1dc 4a3a 34e6 54bc
00000320: a5a5 ad3b f1c4 473c 311d 06bc 1d22 31bc
00000330: b83c a03a b013 f63b 1a1e bb3b dba0 edbb
00000340: 1d7d d03b 104b fbba d977 4ebb ff2c 7d3b
00000350: fd63 adbb 1842 cdbb 10b1 903c 89d3 1e3c
00000360: 004f db3a 42ac 3bb9 3159 fbba 29f6 db3c
00000370: 7706 94bb 6f2d dd3b ec49 a23a 4b10 5dbb
00000380: 34bd a13b a8d6 e93a 29e5 5bbb 2d6f 54bc
00000390: 84f5 92b7 1f9e a33c 5453 b23a 9263 babb
000003a0: 48aa 8d3c 65c2 7fbb 8447 4c3c cf96 35bc
000003b0: 7f46 8cbb 16db 313c f7c6 a23b 5fd3 1abc
000003c0: 4d01 dabb b0c9 413c e661 163b 4235 6a3c
000003d0: b969 71bc bf09 c73b 84b7 22bb a7a3 693c
000003e0: ac12 4d3b bd4e d03b 73c5 77bc e5d0 293a
000003f0: ec80 2c3b 8732 fdba 8037 27bc db07 c23b
