Project Pivot Final New/models/stance.onnx (onnx, 360240 bytes, 38 tensors)

features.0.weight f4 [32, 28]
-0.17217252 -0.017872779 -0.0999465 0.00024101548 0.024030963 0.11466906 0.10575228 -0.16756351
-0.14580014 0.087009154 0.09228626 0.10574423 -0.111835234 -0.18109044 -0.19258164 -0.088457584
-0.12613662 0.123991095 -0.036283113 0.060523883 0.15918858 0.0034794935 0.022750333 -0.03013946
0.030780302 0.108727254 0.0885227 -0.17726584 -0.07777553 0.050561357 -0.13007645 0.110792644
0.17793466 0.14377023 0.10831066 0.096531406 -0.09689913 -0.19690774 0.0069642295 0.06013854
-0.10074863 0.039407063 -0.1391128 -0.018149698 0.06669666 -0.12583856 0.16078548 -0.0009822658
-0.0669357 -0.050362337 -0.12193964 0.13802196 -0.15237144 0.13309607 -0.043844305 0.08853163
-0.14855671 0.0038950029 -0.01761483 0.03697466 -0.16263114 0.06663416 -0.17467056 -0.13081169
-0.05011404 -0.1482483 -0.04818342 0.13770904 0.016021378 -0.06955749 0.13815545 0.11638269
-0.08696504 -0.1833887 -0.02907699 0.028854549 -0.085543744 0.13781907 0.085027315 0.16544047
-0.122730464 0.10983284 -0.016503977 0.13128507 -0.13141297 0.15730597 0.06830207 0.12797937
0.10761211 -0.031163985 0.09965987 0.120722555 0.03196708 -0.04464502 0.03411139 0.1525982
-0.16884412 -0.02767407 0.059051607 -0.11776288 -0.18684858 0.13823256 0.18030316 -0.09404211
-0.037511226 -0.054302305 -0.08462928 0.013318504 0.098398924 -0.12275635 0.08096723 0.091903985
-0.14558116 0.04292699 -0.13734396 -0.065225385 0.070645675 0.028785586 -0.16256675 -0.15627834
0.089835875 0.17728153 -0.04323336 0.05042134 -0.19185238 -0.042292707 -0.0031200496 -0.024628777
-0.074226275 -0.028456196 -0.008778062 0.118385 0.11937476 0.002047088 -0.14498647 -0.010812892
-0.052126523 -0.18697356 0.04730581 -0.115738146 -0.15220816 0.18832064 -0.10896709 -0.17153071
0.18001762 0.15494022 0.12589154 0.15224934 -0.027583936 -0.15297925 -0.17937186 -0.035291605
0.09315995 -0.0533767 0.032924704 0.12980014 -0.14197814 0.06845141 -0.15005234 -0.013546058
-0.078583606 0.026973965 0.04907028 -0.10387637 -0.085334055 -0.07008535 0.015025902 -0.17066133
-0.0656835 -0.14449097 -0.020406088 0.10948755 0.06680135 0.08881867 0.050659288 -0.1491407
-0.012372856 0.05694053 0.16201973 0.17283762 -0.093350664 0.070713915 -0.09991286 -0.058256574
-0.106205136 -0.10145607 0.16571566 0.060049053 0.16770323 -0.14607535 0.005504492 0.098994344
0.08399335 0.18492603 0.13317698 0.001370498 0.0072861183 0.19365081 0.16208678 -0.0026215878
-0.019034456 0.10776965 0.003422882 -0.17740782 0.03133645 -0.111762464 -0.06258852 0.04083974
0.010788863 0.114047095 0.09334155 -0.11197649 0.014588002 -0.14125519 -0.12275195 0.112120785
0.18841031 -0.09752345 0.15208274 0.1687225 -0.08420854 0.16548786 0.027087266 -0.01448865
-0.18088584 0.13114966 0.10807723 0.17610107 0.1124316 -0.110342495 0.08968858 0.071826585
0.08021563 -0.1590444 -0.10107172 -0.059206657 -0.18028009 0.103829734 -0.115296684 0.17852294
-0.1596974 0.11011877 -0.10452974 0.18714333 0.049953923 -0.051053245 -0.14814048 0.15886283
0.11175538 0.040328726 0.13200454 0.10226174 -0.176673 0.09563349 -0.06106557 0.07509945
00000000: fe4d 30be ef69 92bc c0b0 ccbd 1ab9 7c39
00000010: 95dc c43c 9dd7 ea3d a794 d83d c595 2bbe
00000020: a24c 15be db31 b23d 9400 bd3d 6e90 d83d
00000030: df09 e5bd c66f 39be 1f34 45be 4029 b5bd
00000040: f529 01be 0bef fd3d 9a9d 14bd e4e7 773d
00000050: 5502 233e 3708 643b e85e ba3c 07e7 f6bc
00000060: f926 fc3c 65ac de3d 644b b53d 2d85 35be
00000070: c748 9fbd 6d19 4f3d c332 05be 41e7 e23d
00000080: 8134 363e 8138 133e fbd1 dd3d 42b2 c53d
00000090: 0d73 c6bd 2fa2 49be 3134 e43b d453 763d
000000a0: 4c55 cebd 4d69 213d 9673 0ebe adae 94bc
000000b0: 4298 883d d3db 00be f3a4 243e 5fbf 80ba
000000c0: 9615 89bd bd48 4ebd 7dbb f9bd a155 0d3e
000000d0: 4207 1cbe 564a 083e 1696 33bd 1250 b53d
000000e0: 401f 18be 4e43 7f3b fa4c 90bc be72 173d
000000f0: c788 26be 7e77 883d d7dc 32be 80f3 05be
00000100: 6144 4dbd 67ce 17be fa5b 45bd 9903 0d3e
00000110: 443f 833c 2874 8ebd 9f78 0d3e 0c5a ee3d
00000120: ba1a b2bd 3fca 3bbe de32 eebc 6060 ec3c
00000130: 8f31 afbd 7120 0d3e cd22 ae3d 3a69 293e
00000140: 1c5a fbbd 0af0 e03d 5933 87bc 986f 063e
00000150: 1f91 06be d114 213e f5e1 8b3d 060d 033e
00000160: bd63 dc3d 9d4b ffbc 791a cc3d 633d f73d
00000170: eaef 023d b2dd 36bd 63b8 0b3d b442 1c3e
00000180: 79e5 2cbe bbb4 e2bc 19e0 713d aa2d f1bd
00000190: 3c55 3fbe d68c 0d3e 64a1 383e 2699 c0bd
000001a0: 5fa5 19bd 186c 5ebd 1e52 adbd db35 5a3c
000001b0: 6085 c93d ae67 fbbd 26d2 a53d 2838 bc3d
000001c0: 3a13 15be 36d4 2f3d e5a3 0cbe e394 85bd
000001d0: aeae 903d c0cf eb3c e677 26be 6e07 20be
000001e0: dffb b73d 4a89 353e 7715 31bd 9b86 4e3d
000001f0: f374 44be 1e3b 2dbd bf79 4cbb 4ac2 c9bc
00000200: f203 98bd f81c e9bc dcd1 0fbc d673 f23d
00000210: c17a f43d 7028 063b 5577 14be 8e28 31bc
00000220: 9f82 55bd ff75 3fbe bdc3 413d 1f08 edbd
00000230: 75dc 1bbe 20d7 403e 232a dfbd bfa5 2fbe
00000240: 8a56 383e a6a8 1e3e b6e9 003e 40e7 1b3e
00000250: b5f7 e1bc 98a6 1cbe 42ad 37be ee8d 10bd
00000260: a5ca be3d 87a1 5abd 0edc 063d 54ea 043e
00000270: b862 11be 4130 8c3d 52a7 19be 49f0 5dbc
00000280: 71f0 a0bd 81f8 dc3c ebfd 483d 22bd d4bd
00000290: 9fc3 aebd e888 8fbd 332f 763c d8c1 2ebe
000002a0: 1285 86bd 71f5 13be ab2a a7bc 023b e03d
000002b0: 25cf 883d 90e6 b53d 1d80 4f3d 57b8 18be
000002c0: 85b7 4abc 793a 693d 80e8 253e 58fc 303e
000002d0: a22e bfbd 75d2 903d 1d9f ccbd 729e 6ebd
000002e0: 1482 d9bd 33c8 cfbd 5eb1 293e fff5 753d
000002f0: 65ba 2b3e c794 15be 075f b43b 8cbd ca3d
00000300: b504 ac3d 405d 3d3e 8c5f 083e 48a2 b33a
00000310: 64c0 ee3b 664c 463e 14fa 253e f2ce 2bbb
00000320: 26ee 9bbc 56b6 dc3d 6e52 603b 65aa 35be
00000330: a65a 003d b8e3 e4bd 692e 80bd 9247 273d
00000340: c5c3 303c 8691 e93d db29 bf3d ee53 e5bd
00000350: 8402 6f3c 33a5 10be 6065 fbbd 959f e53d
00000360: a2ee 403e 60ba c7bd 94bb 1b3e 97c5 2c3e
00000370: 8775 acbd a675 293e 1de6 dd3c cd61 6dbc
00000380: 233a 39be 194c 063e 9857 dd3d d753 343e
00000390: 8a42 e63d 3ffb e1bd a5ae b73d d119 933d
000003a0: 1848 a43d 89dc 22be b1fe cebd ae82 72bd
000003b0: 589b 38be afa4 d43d ab20 ecbd b8ce 363e
000003c0: b787 23be f385 e13d b013 d6bd 80a2 3f3e
000003d0: 7c9c 4c3d 351d 51bd 23b2 17be f0ac 223e
000003e0: 01e0 e43d bc2f 253d 332c 073e 9a6e d13d
000003f0: c4e9 34be 7edb c33d e41f 7abd becd 993d

features.0.bias f4 [32]
0.19612731 -0.13990292 -0.019744664 0.0462551 -0.024413822 0.17324726 0.12419192 -0.13842598
0.11878859 -0.030179588 -0.14698578 0.105483726 -0.058339436 -0.16360088 0.02234163 -0.15656388
-0.13130514 -0.07006103 -0.06415648 0.031744856 0.04366576 -0.066061795 -0.06936074 -0.12690735
0.17369127 -0.033479843 0.0651527 0.1403414 0.0829036 0.04747017 -0.0030413894 -0.10686368
00000000: 99d5 483e b642 0fbe 90bf a1bc fd75 3d3d
00000010: 7fff c7bc bb67 313e 5558 fe3d 8abf 0dbe
00000020: 6f47 f33d 2f3b f7bc 7183 16be da07 d83d
00000030: 55f5 6ebd fd86 27be cb05 b73c 4852 20be
00000040: db74 06be 287c 8fbd 7964 83bd e506 023d
00000050: deda 323d 684b 87bd 010d 8ebd 00f4 01be
00000060: 20dc 313e 2922 09bd c76e 853d a8b5 0f3e
00000070: 5dc9 a93d 1570 423d 0c52 47bb 58db dabd

features.1.weight f4 [32]
0.9870437 0.9991707 1.0018356 0.9922801 0.989776 1.0096236 1.008108 0.99521327
0.9924846 0.9840818 0.99240524 0.9941018 0.99773616 0.99621755 1.0025983 1.02021
0.99374056 1.0013541 0.9995223 0.99330175 1.006219 1.0138958 0.98008263 0.9948927
0.9904892 0.9973086 1.0113446 1.0085807 0.9974917 1.0032498 0.9986063 1.029662
00000000: e5ae 7c3f a7c9 7f3f 263c 803f 1206 7e3f
00000010: f661 7d3f 593b 813f af09 813f 4cc6 7e3f
00000020: 7913 7e3f c9ec 7b3f 450e 7e3f 757d 7e3f
00000030: a36b 7f3f 1d08 7f3f 2455 803f 3e96 823f
00000040: c865 7e3f 5f2c 803f b2e0 7f3f 0649 7e3f
00000050: c9cb 803f 56c7 813f b2e6 7a3f 4ab1 7e3f
00000060: b390 7d3f 9e4f 7f3f bd73 813f 2c19 813f
00000070: 9e5b 7f3f 7d6a 803f aaa4 7f3f f7cb 833f

features.1.bias f4 [32]
-0.005958175 0.007894252 0.010740912 -0.0039694416 -0.015326245 0.0086765 0.021896305 -0.008164386
0.0054752394 -0.016345521 0.0065123457 0.008053796 -0.01330544 0.0025572914 0.003176018 0.02267728
-0.0024835772 0.001941952 0.001242145 -0.013766135 0.010883921 -0.0049491962 -0.010265703 -0.0065726964
-0.00872654 -0.012116639 0.008614966 0.020939786 -0.0006313652 -0.0064553763 0.020816715 0.026021233
00000000: cb3c c3bb e556 013c a6fa 2f3c 1712 82bb
00000010: ee1a 7bbc e127 0e3c e15f b33c ebc3 05bc
00000020: a369 b33b 0be7 85bc 8465 d53b 12f4 033c
00000030: 0fff 59bc 3b98 273b bd24 503b b4c5 b93c
00000040: 83c3 22bb 1989 fe3a 78cf a23a 5b8b 61bc
00000050: 7952 323c de2c a2bb 7b31 28bc c65f d7bb
00000060: c3f9 0ebc de84 46bc c925 0d3c ea89 ab3c
00000070: 3482 25ba 9f87 d3bb d187 aa3c 7b2a d53c

features.1.running_mean f4 [32]
0.7539676 0.06301339 0.9560248 -0.86195445 -0.36439323 -0.087843455 0.43497556 0.22005466
0.5426836 0.3857326 -0.40916198 -0.39206192 -0.42807797 -0.29462022 0.00014068885 -0.38738483
-0.37765095 -0.1944412 -0.33317497 -0.25116166 0.29070038 0.42977938 -0.6524118 -0.23412544
0.15619747 -0.50146836 -0.19716264 1.086326 0.09987934 0.3421602 0.46819222 -0.41069195
00000000: 0504 413f 2a0d 813d 0bbe 743f 0ca9 5cbf
00000010: c091 babe 45e7 b3bd 1eb5 de3e 0256 613e
00000020: 50ed 0a3f be7e c53e ae7d d1be 57bc c8be
00000030: 092d dbbe 76d8 96be e085 1339 4e57 c6be
00000040: 775b c1be 981b 47be e995 aabe 4398 80be
00000050: aed6 943e 0b0c dc3e 7604 27bf 94be 6fbe
00000060: 3bf2 1f3e 3b60 00bf 01e5 49be bb0c 8b3f
00000070: 8a8d cc3d 9f2f af3e e4b6 ef3e 3746 d2be

features.1.running_var f4 [32]
0.015919391 0.03712506 0.07889589 0.0161047 0.008778269 0.011677119 0.01948073 0.003909724
0.060277555 0.020829843 0.02441794 0.018271772 0.03873615 0.0050557493 0.022383902 0.014929043
0.0049970453 0.011808539 0.02315947 0.01759922 0.011582612 0.023082448 0.027801044 0.00593695
0.023293274 0.03970666 0.020372167 0.017403927 0.04741564 0.10122724 0.0055128625 0.018725026
00000000: 6269 823c 7210 183d 2b94 a13d 01ee 833c
00000010: bbd2 0f3c 6351 3f3c 0d96 9f3c 241d 803b
00000020: 99e5 763d 59a3 aa3c 2208 c83c afae 953c
00000030: cca9 1e3d b3aa a53b 725e b73c f298 743c
00000040: 41be a33b 9a78 413c eeb8 bd3c 3d2c 903c
00000050: ffc4 3d3c 6717 bd3c 04bf e33c bf8a c23b
00000060: 89d1 be3c 73a3 223d 88e3 a63c ae92 8e3c
00000070: e736 423d 3a50 cf3d 3ea5 b43b 3a65 993c

features.3.weight f4 [64, 32]
0.13439725 0.06047483 0.05611704 -0.06334833 -0.11370982 -0.051190715 -0.06580469 -0.15083688
-0.1198203 -0.19658607 -0.093030006 -0.036067706 -0.15751784 -0.13680153 -0.13335896 0.14743428
0.17728008 -0.061236687 0.04930373 -0.08805161 0.079560734 0.04008481 0.15424073 0.122148894
-0.1142631 -0.15036152 -0.1056272 0.046425983 0.16459627 -0.14041673 -0.16218935 -0.18081807
0.0751359 0.09742205 -0.13304874 0.15323919 0.048834298 -0.15921861 -0.1318818 -0.12082694
-0.15865105 0.03844624 0.054982178 0.026931114 -0.030468946 -0.15462121 -0.079099365 0.08268046
0.11051545 -0.13148187 -0.12557802 -0.023363177 -0.06642322 -0.14719409 -0.16069192 -0.11426126
0.124748856 -0.08287367 -0.029048728 -0.009545972 -0.00024617842 0.15584499 -0.12794647 0.14325489
-0.015243796 -0.0481174 -0.12503533 -0.120432705 0.14815426 -0.15032448 0.013394761 -0.025307335
0.061390065 0.10159615 -0.1469173 -0.048448924 0.10541218 0.09362702 -0.0737798 -0.023565723
-0.00034408842 -0.018043512 -0.008994397 0.10098971 0.17821303 -0.029653374 0.038000274 -0.10937014
0.09320147 0.036902748 -0.16232221 0.10654599 0.01501723 0.11163108 0.00051431207 0.032683305
0.14569727 0.09749361 -0.13356152 -0.17173432 0.013356675 0.17601125 0.088420704 0.12377664
-0.17605223 -0.13348241 0.105043344 0.106833234 -0.057490047 -0.13339 0.1557326 -0.03647268
-0.12566161 -0.0426266 -0.16974935 0.117459826 -0.13816078 -0.013690129 0.15327403 0.050465222
0.15013428 0.15079367 -0.11596551 0.0752559 0.04809182 -0.041311868 -0.09445987 0.15116717
0.12820658 0.066633545 0.045166705 -0.064469635 -0.06972018 0.03263115 0.1153311 -0.14743851
-0.125715 0.10628648 -0.019484213 -0.076647535 -0.05581122 0.126139 -0.1609408 0.1424288
-0.15448144 -0.17035854 -0.18932085 -0.09975345 -0.13589022 -0.04866799 -0.14260481 0.10771747
0.1364771 0.120969474 0.09599793 -0.0421337 -0.04143757 0.016748749 0.022499695 0.08909507
0.099344246 -0.18333413 -0.12425355 -0.18509835 0.03513651 -0.15873939 -0.03190124 0.034834825
-0.12488229 -0.15366867 0.13402352 -0.10067559 0.0605374 -0.10172983 -0.0073178094 0.19590625
0.10335851 0.017434448 -0.06482951 0.07850384 -0.15210804 -0.0532765 0.072601914 -0.07226728
0.1343625 -0.057367615 -0.024136184 0.08645368 -0.1194621 -0.051802963 -0.12508018 -0.033701878
-0.023831928 0.07204454 -0.043745596 0.008012764 -0.069139265 -0.11988639 0.15218121 -0.035438888
-0.17726023 -0.098853916 0.03206521 0.00012827256 -0.0929498 -0.08872635 0.13459678 -0.016156392
-0.057914335 0.031896558 0.17527656 -0.041797377 0.03385944 0.038888194 0.036403686 0.16958216
-0.16558318 -0.13857532 -0.052891847 -0.19003794 0.06178427 -0.028715672 0.14886592 0.011395196
-0.06720175 -0.07422191 -0.046230484 -0.08500012 -0.038806118 0.18810183 -0.18202576 0.16691373
0.074548095 -0.10980218 -0.043343574 -0.025414309 -0.014530257 -0.0049627987 -0.1226796 0.09032967
-0.014072467 0.04179608 -0.12869436 0.022428872 -0.06736885 -0.028769832 0.0033959327 -0.0098213395
0.021142423 -0.069783956 0.077374294 -0.1841322 -0.010264124 0.08234734 -0.068852276 -0.032179344
00000000: 6f9f 093e 75b4 773d fbda 653d c5bc 81bd
00000010: b2e0 e8bd 5bad 51bd 9cc4 86bd fc74 1abe
00000020: 5864 f5bd dc4d 49be 8486 bebd bbbb 13bd
00000030: 5b4c 21be b315 0cbe 408f 08be 03f9 163e
00000040: e988 353e 52d3 7abd b5f2 493d 6754 b4bd
00000050: bdf0 a23d f82f 243d 48f1 1d3e 3329 fa3d
00000060: c602 eabd 5ff8 19be 1353 d8bd 2c29 3e3d
00000070: ed8b 283e 67c9 0fbe f714 26be 5f28 39be
00000080: dae0 993d 3685 c73d ee3d 08be bcea 1c3e
00000090: 7906 483d 340a 23be 060c 07be 1d74 f7bd
000000a0: 6c75 22be ce79 1d3d fe34 613d a49e dc3c
000000b0: 039a f9bc 0655 1ebe d9fe a1bd 5f54 a93d
000000c0: ed55 e23d 2fa3 06be 8697 00be 2264 bfbc
000000d0: e608 88bd 0cba 16be 6c8c 24be cf01 eabd
000000e0: 547c ff3d acb9 a9bd 99f7 edbc b566 1cbc
000000f0: 8211 81b9 d495 1f3e 6604 03be 69b1 123e
00000100: 1dc1 79bc c016 45bd 4309 00be 6ca5 f6bd
00000110: c0b5 173e a9ee 19be b375 5b3c 5451 cfbc
00000120: 2674 7b3d a411 d03d 7d71 16be 6172 46bd
00000130: 57e2 d73d 86bf bf3d dd19 97bd e70c c1bc
00000140: c466 b4b9 fdcf 93bc 3c5d 13bc b1d3 ce3d
00000150: 7a7d 363e a2eb f2bc 2da6 1b3d 74fd dfbd
00000160: 6ae0 be3d 5627 173d cb37 26be c934 da3d
00000170: d40a 763c d69e e43d e6d2 063a eede 053d
00000180: aa31 153e bbaa c73d 5ac4 08be 1fdb 2fbe
00000190: f5d5 5a3c 4b3c 343e ea15 b53d 9b7e fd3d
000001a0: 0947 34be 9daf 08be f720 d73d 62cb da3d
000001b0: af7a 6bbd 6397 08be 5e78 1f3e 6064 15bd
000001c0: 70ad 00be 3b99 2ebd c6d2 2dbe c78e f03d
000001d0: 057a 0dbe 904c 60bc def3 1c3e 9fb4 4e3d
000001e0: cdbc 193e a869 1a3e 537f edbd c41f 9a3d
000001f0: eefb 443d a236 29bd 2d74 c1bd 91cb 1a3e
00000200: 9648 033e 2b77 883d b900 393d a808 84bd
00000210: 74c9 8ebd 3ea8 053d b632 ec3d 1ffa 16be
00000220: 6fbb 00be baac d93d 5b9d 9fbc 62f9 9cbd
00000230: 4e9a 64bd 952a 013e aacd 24be dbd8 113e
00000240: 6230 1ebe 7872 2ebe 53dd 41be 894b ccbd
00000250: ce26 0bbe 1658 47bd ff06 12be fa9a dc3d
00000260: a7c0 0b3e d8be f73d 909a c43d 6394 2cbd
00000270: 71ba 29bd ac34 893c 4851 b83c 7a77 b63d
00000280: ff74 cb3d f1bb 3bbe a578 febd 6c8a 3dbe
00000290: 4deb 0f3d 948c 22be e0aa 02bd f6ae 0e3d
000002a0: 49c2 ffbd 525b 1dbe 763d 093e 012f cebd
000002b0: 11f6 773d bb57 d0bd 3cca efbb a69b 483e
000002c0: a0ad d33d b0d2 8e3c 56c5 84bd 9fc6 a03d
000002d0: 36c2 1bbe 7638 5abd 50b0 943d de00 94bd
000002e0: 5396 093e 4efa 6abd 3fb9 c5bc a10e b13d
000002f0: 8ca8 f4bd 582f 54bd 0515 00be fb0a 0abd
00000300: 2d3b c3bc 168c 933d 952e 33bd f847 033c
00000310: e398 8dbd ff86 f5bd 64d5 1b3e 5e28 11bd
00000320: b583 35be ec73 cabd cf56 033d e780 0639
00000330: 775c bebd 29b6 b5bd bdd3 093e 695a 84bc
00000340: 9537 6dbd f7a5 023d b37b 333e ba33 2bbd
00000350: 32b0 0a3d 3a49 1f3d 081c 153d f2a6 2d3e
00000360: a38e 29be b0e6 0dbe 1fa5 58bd 4e99 42be
00000370: 8111 7d3d 213d ebbc 4f70 183e ebb2 3a3c
00000380: 12a1 89bd a801 98bd 2d5c 3dbd 8b14 aebd
00000390: 2af3 1ebd c49d 403e f664 3abe 6feb 2a3e
000003a0: acac 983d f7df e0bd 0889 31bd ab31 d0bc
000003b0: 5110 6ebc f99e a2bb 713f fbbd c3fe b83d
000003c0: 3490 66bc 5e32 2b3d 74c8 03be c1bc b73c
000003d0: aef8 89bd b6ae ebbc 4c8e 5e3b afe9 20bc
000003e0: e032 ad3c e4ea 8ebd 6a76 9e3d 278d 3cbe
000003f0: db2a 28bc b9a5 a83d 6c02 8dbd 7dce 03bd

features.3.bias f4 [64]
-0.05300251 -0.1376072 0.12042061 0.04324049 -0.028048158 0.06595532 -0.15708776 0.016373072
0.09087407 0.08662879 0.08230904 -0.119674265 0.062667854 0.0027827667 -0.029181473 -0.09020625
-0.171654 0.08044501 -0.14472166 -0.061429806 -0.08695274 -0.14506634 -0.13641581 0.038120344
-0.11395167 -0.16465479 -0.12604046 0.05635917 -0.0095963515 -0.08309204 -0.04871011 0.043439925
0.06927375 0.16764851 -0.026980923 0.04190869 0.09801834 0.09906885 0.082619004 -0.07510687
0.051497653 -0.05867686 -0.16489637 -0.17802042 0.0050035864 -0.13710782 0.096345246 -0.052070938
0.12078633 0.17414065 0.16221507 -0.035712592 0.17157887 -0.17967625 -0.10123731 -0.059796654
0.04479261 0.032257237 -0.08848933 0.096209444 -0.006329956 0.14355502 -0.12035329 -0.014079799
00000000: 2919 59bd e7e8 0cbe 159f f63d f11c 313d
00000010: 40c5 e5bc 9513 873d 9ddb 20be d220 863c
00000020: 2f1c ba3d 6f6a b13d a491 a83d c817 f5bd
00000030: 0158 803d 145f 363b fc0d efbc 0ebe b8bd
00000040: 11c6 2fbe 5ac0 a43d ea31 14be d29d 7bbd
00000050: 4714 b2bd 458c 14be 96b0 0bbe 1424 1c3d
00000060: 7e5f e9bd 449b 28be c010 01be dfd8 663d
00000070: 043a 1dbc 292c aabd 4184 47bd 10ee 313d
00000080: 65df 8d3d 0dac 2b3e 1907 ddbc 72a8 2b3d
00000090: d7bd c83d 9ce4 ca3d 2734 a93d a1d1 99bd
000000a0: 34ef 523d 2657 70bd 98da 28be fc4a 36be
000000b0: 20f5 a33b fe65 0cbe a850 c53d 5648 55bd
000000c0: d35e f73d ed51 323e b51b 263e 5e47 12bd
000000d0: 5fb2 2f3e 0dfd 37be 8255 cfbd 56ed 74bd
000000e0: 7578 373d 2a20 043d e539 b5bd 7509 c53d
000000f0: 856b cfbb 1600 133e c97b f6bd f5ae 66bc

features.4.weight f4 [64]
1.0033015 0.99469244 1.0052117 0.9871275 0.985911 1.0034816 0.9989776 0.9948782
0.9940302 0.9969742 0.99733454 1.0201181 1.0087799 1.0172707 0.9852516 0.9990704
0.99066883 1.0120991 1.0016562 1.0101408 1.0101814 0.9984698 0.99424994 0.9985569
0.9989865 0.98922753 0.99187213 1.0026805 0.9885543 1.0099478 0.98938996 1.0025545
1.0210407 1.003547 1.0050521 1.0076324 0.9943492 0.98597604 0.9961477 0.99366283
0.9860224 1.0060778 1.006821 1.0014194 1.0138952 1.0026302 0.99966383 1.00701
1.0221468 0.9977429 0.9952816 1.0019283 0.99414116 1.0084233 0.9824247 0.9974068
0.98946553 0.99951524 0.9902871 0.98083586 1.0056046 0.99503213 1.0295956 1.0043463
00000000: 2f6c 803f 2aa4 7e3f c7aa 803f 63b4 7c3f
00000010: aa64 7c3f 1672 803f ffbc 7f3f 56b0 7e3f
00000020: c378 7e3f b339 7f3f 5151 7f3f 3b93 823f
00000030: b31f 813f ed35 823f 7339 7c3f 14c3 7f3f
00000040: 799c 7d3f 778c 813f 4536 803f 4b4c 813f
00000050: a04d 813f b89b 7f3f 2a87 7e3f 6da1 7f3f
00000060: 94bd 7f3f 043e 7d3f 55eb 7d3f d657 803f
00000070: e511 7d3f f845 813f a948 7d3f b553 803f
00000080: 76b1 823f 3a74 803f 8ca5 803f 19fa 803f
00000090: ab8d 7e3f ed68 7c3f 8903 7f3f b060 7e3f
000000a0: f76b 7c3f 28c7 803f 83df 803f 832e 803f
000000b0: 51c7 813f 3056 803f f8e9 7f3f b4e5 803f
000000c0: b5d5 823f 146c 7f3f c6ca 7e3f 303f 803f
000000d0: 0980 7e3f 0414 813f 2f80 7b3f 0d56 7f3f
000000e0: 9d4d 7d3f 3be0 7f3f 7583 7d3f 0f18 7b3f
000000f0: a7b7 803f 6dba 7e3f cac9 833f 6b8e 803f

features.4.bias f4 [64]
0.0051270854 -0.0053313645 0.005780634 -0.0060616075 -0.008874594 -0.005135996 -0.002485927 0.00023981942
-0.01424707 -0.0023743117 -0.016829628 0.018599026 0.0063884426 0.012264364 -0.014706092 0.009933853
-0.015396401 0.008132637 0.007157483 -8.891117e-05 0.010084884 -0.007221024 -0.0046551423 0.002839797
0.0010999035 -0.011324023 -0.0040292502 0.0025883452 -0.0004355703 0.0116611505 -0.0039676907 0.019215412
0.024251422 0.005079891 0.009591983 0.014608539 -0.012768552 -0.014509715 -0.002415446 -0.007219874
-0.012480446 0.011150618 0.006689446 0.0034886599 0.02287042 0.009481707 0.0010366288 0.0032989774
0.020767394 0.015067901 -0.0026568382 0.0035973715 0.000339819 0.014452146 -0.008351662 0.0043266485
-0.010246537 -0.0076337624 -0.008554921 -0.0155831585 -0.0030200498 0.006947607 0.034737196 0.0037081474
00000000: 1c01 a83b bab2 aebb 796b bd3b 73a0 c6bb
00000010: bf66 11bc db4b a8bb efea 22bb 0978 7b39
00000020: 8b6c 69bc 579a 1bbb 4ade 89bc fc5c 983c
00000030: 2456 d13b 79f0 483c d2f1 70bc 99c1 223c
00000040: 3041 7cbc c03e 053c 5289 ea3b d275 bab8
00000050: 123b 253c 579e ecbb 2a8a 98bb e31b 3a3b
00000060: a32a 903a 6588 39bc cd07 84bb 3aa1 293b
00000070: 425d e4b9 690e 3f3c 6703 82bb a469 9d3c
00000080: ebaa c63c 3775 a63b b127 1d3c a758 6f3c
00000090: 3033 51bc 28ba 6dbc 764c 1ebb b194 ecbb
000000a0: c97a 4cbc 15b1 363c 2433 db3b 00a2 643b
000000b0: bf5a bb3c 2959 1b3c 7edf 873a a833 583b
000000c0: 6220 aa3c 5cdf 763c 591e 2ebb e1c1 6b3b
000000d0: bc29 b239 b2c8 6c3c 69d5 08bc 8fc6 8d3b
000000e0: 17e1 27bc a424 fabb f029 0cbc 8150 7fbc
000000f0: 07ec 45bb c0a8 e33b 9748 0e3d 6404 733b

features.4.running_mean f4 [64]
-0.46399957 -0.43931684 0.17743866 0.15727884 -0.15709113 -0.2393115 -0.2755346 -0.2206418
0.19157143 0.1981383 0.041459877 -0.06801558 0.12729827 -0.00809618 0.23993127 -0.1452105
0.09765255 0.05280431 -0.46450222 0.004301237 0.020393053 -0.4746448 -0.22301373 0.16678584
-0.22510278 -0.33439106 -0.48171666 -0.05382107 -0.2640129 -0.03400018 -0.0012397321 0.14251162
0.24082458 0.48706886 -0.15629888 -0.24501775 0.2475406 0.08077601 0.25469792 0.32442254
-0.11192131 0.013402543 -0.11475824 -0.40854612 0.285936 -0.18416953 0.186427 -0.14682762
0.07275621 0.30845594 0.44253334 -0.35559708 0.44473213 0.024401233 -0.028979024 0.17823459
-0.32500333 -0.040219747 -0.24381095 0.33311248 -0.6997062 0.099226035 -0.21609281 -0.07594788
00000000: 5a91 edbe 23ee e0be 7bb2 353e b40d 213e
00000010: 7fdc 20be 130e 75be df12 8dbe edef 61be
00000020: 4d2b 443e c4e4 4a3e d5d1 293d c14b 8bbd
00000030: 7a5a 023e d7a5 04bc 8bb0 753e 10b2 14be
00000040: 0ffe c73d 5549 583d 3cd3 edbe 64f1 8c3b
00000050: 550f a73c a504 f3be b65d 64be e8c9 2a3e
00000060: 5881 66be 4e35 abbe 91a3 f6be 7b73 5cbd
00000070: b32c 87be c643 0bbd 827e a2ba 91ee 113e
00000080: b89a 763e 1761 f93e d00c 20be efe5 7abe
00000090: 487b 7d3e e56d a53d c467 823e b61a a63e
000000a0: 0037 e5bd 5796 5b3c 5e06 ebbd f52c d1be
000000b0: 3466 923e f096 3cbe b8e6 3e3e fb59 16be
000000c0: 3501 953d f0ed 9d3e bb93 e23e d210 b6be
000000d0: eeb3 e33e 18e5 c73c 6b65 edbc 2183 363e
000000e0: d666 a6be 76bd 24bd 94a9 79be b88d aa3e
000000f0: f21f 33bf 0537 cb3d 6f47 5dbe 908a 9bbd

features.4.running_var f4 [64]
0.1710601 0.11444881 0.062256224 0.07287843 0.11571335 0.19318749 0.123588614 0.16174099
0.057606295 0.10307764 0.14443645 0.1283159 0.07364369 0.08004846 0.122892454 0.099993065
0.08207931 0.065005235 0.253216 0.080351666 0.09154769 0.07671614 0.064936005 0.15755719
0.08058942 0.063061945 0.10388268 0.21846887 0.0922026 0.097875744 0.041859213 0.048452415
0.08067615 0.0929117 0.078608334 0.096057795 0.14504446 0.117193386 0.12741415 0.13033083
0.27959707 0.09923796 0.040341113 0.10223595 0.2215665 0.1353635 0.21774144 0.07146599
0.15042624 0.18755375 0.110670045 0.12779252 0.11178663 0.09324354 0.074665636 0.09736565
0.13551688 0.23927106 0.15508197 0.07367178 0.38811103 0.090733565 0.07428541 0.08243375
00000000: 612a 2f3e 2364 ea3d 6200 7f3d 4941 953d
00000010: 1ffb ec3d f1d2 453e 071c fd3d 6e9f 253e
00000020: 94f4 6b3d 5f1a d33d 26e7 133e 3e65 033e
00000030: 81d2 963d 72f0 a33d 0aaf fb3d 2ac9 cc3d
00000040: 3319 a83d 7721 853d 87a5 813e 6a8f a43d
00000050: 5b7d bb3d 5a1d 9d3d 2bfd 843d ac56 213e
00000060: 110c a53d 9f26 813d 71c0 d43d 4eb6 5f3e
00000070: b7d4 bc3d 1473 c83d 9174 2b3d 0a76 463d
00000080: 8a39 a53d 7d48 be3d 68fd a03d f3b9 c43d
00000090: 8986 143e 1603 f03d db78 023e 7275 053e
000000a0: 5927 8f3e 463d cb3d b93c 253d 1561 d13d
000000b0: 54e2 623e bb9c 0a3e 9df7 5e3e c35c 923d
000000c0: 5609 1a3e 170e 403e faa6 e23d 0bdc 023e
000000d0: 63f0 e43d 78f6 be3d 4cea 983d a467 c73d
000000e0: f0c4 0a3e 7903 753e cfcd 1e3e 3be1 963d
000000f0: 7db6 c63e 85d2 b93d f322 983d 07d3 a83d

features.7.weight f4 [128, 64]
-0.12806854 -0.03980401 -0.041361474 0.021047883 -0.03763595 -0.12118604 -0.059807885 0.084050566
0.040348023 0.010377762 -0.0691562 -0.06885941 -0.06308639 -0.065666676 0.039905995 -0.07299058
-0.088800065 -0.049297504 -0.0063224332 0.099026084 -0.022249404 -0.076650925 -0.005697409 0.06647552
0.11000054 0.10411761 -0.051721904 -0.042158786 0.09062814 -0.033409145 0.0654345 -0.09419262
0.018748246 -0.03790216 -0.015726538 -0.04912664 0.0957627 0.08891968 -0.10258248 -0.045150872
0.0054019326 -0.103468195 -0.015939705 0.031233162 -0.015410065 0.057244755 -0.11116448 -0.04740581
-0.10829187 -0.021756843 0.10267595 0.01025621 -0.030837003 0.10778141 0.02392554 -0.07481033
0.036772825 -0.07516124 0.12518214 0.0071442905 -0.042886168 -0.047774576 -0.091120586 0.085489854
0.022764307 0.028398558 -0.015521321 0.08305725 0.008634391 0.055299226 -0.064385995 -0.112562165
-0.098029256 0.11477378 -0.04966192 0.039909188 0.12555398 0.044942833 0.08129154 -0.07021959
0.08387082 0.08733617 -0.06534069 -0.108161576 0.07368564 -0.04036012 0.11318239 -0.05909148
0.012387495 -0.11218937 -0.06399311 0.009795648 -0.02883719 -0.07704346 0.035533126 0.08928276
0.004097238 -0.012333893 -0.019859575 -0.035473444 0.08198213 0.089866586 0.014118628 -0.032105893
-0.056239385 0.036348306 -0.017421464 0.048001993 0.031308204 0.10003102 -0.07490177 -0.00331402
0.08425128 -0.017822325 0.06055345 -0.08792763 -0.082228035 0.09088385 -0.079548284 0.03951174
0.06826311 -0.03811295 0.111604296 0.032403022 0.024943538 -0.064280346 -0.054633383 0.002211566
0.13220584 0.00470184 -0.12485868 -0.086344525 -0.025071628 -0.14067909 -0.05450632 -0.09470612
-0.12547548 0.051037136 0.010212885 0.04374013 -0.027611822 -0.08218095 0.04359828 0.055519115
-0.10328273 -0.03029222 -0.06276143 -0.018620102 0.049534418 -0.062271744 0.027039602 0.13229245
0.06690604 0.108390026 -0.07565799 -0.11203867 0.00041518558 -0.10088996 -0.008415931 -0.02561696
-0.008104117 0.0005370342 -0.08240602 0.07093732 0.025683673 -0.07815197 0.11439639 0.07192513
0.045186456 0.058845304 -0.06807317 0.10781941 0.10661426 -0.113263234 -0.0736081 -0.036069416
0.06994909 0.041108374 0.08144286 -0.100358784 -0.12056177 -0.06636379 -0.054379858 -0.059971765
0.0033259662 0.07723083 -0.06584792 0.06969087 -0.10853983 0.12960444 0.041897234 0.09164472
-0.03171397 0.10159691 0.07569362 -0.06768369 0.049278244 -0.012804946 -0.03352693 0.06349916
0.103678286 0.024484584 0.10060164 -0.066628255 -0.07339244 0.084570885 0.00426222 -0.035184376
0.08885854 -0.032294355 0.05912418 0.023908198 -0.027358824 -0.062722124 0.091958694 -0.079601064
-0.10665124 0.072179794 -0.091516756 -0.084131345 -0.030211104 -0.09939051 0.007907082 0.036771137
-0.1075222 0.12133513 -0.062485978 -0.04878938 -0.11730962 0.08053052 0.02905955 -0.06211846
0.008554752 -0.054893676 -0.040124353 -0.025880033 -0.025963422 -0.034991764 0.11177111 -0.07557137
0.047847826 -0.02245728 -0.08294277 0.118824124 -0.11382438 0.06981926 -0.04561408 -0.032956455
-0.10738595 0.07834885 0.07341776 0.011971591 -0.057631195 0.03164979 -0.04140003 -0.103635326
00000000: 6624 03be 8809 23bd a66a 29bd 9c6c ac3c
00000010: 2728 1abd 6330 f8bd 1df9 74bd b422 ac3d
00000020: f843 253d 7d07 2a3c c4a1 8dbd 2a06 8dbd
00000030: 7033 81bd 407c 86bd 7874 233d 167c 95bd
00000040: cfdc b5bd 2eec 49bd 6a2c cfbb 30ce ca3d
00000050: 6244 b6bc 29fb 9cbd 55b1 babb 5124 883d
00000060: f747 e13d 9d3b d53d 59da 53bd b1ae 2cbd
00000070: 3f9b b93d 07d8 08bd 8602 863d 0fe8 c0bd
00000080: ec95 993c 4c3f 1bbd f1d4 80bc 0439 49bd
00000090: 3c1f c43d 851b b63d c316 d2bd 1ff0 38bd
000000a0: b202 b13b 22e7 d3bd fc93 82bc b0dc ff3c
000000b0: 7f7a 7cbc 7a79 6a3d 34aa e3bd 982c 42bd
000000c0: 21c8 ddbd 683b b2bc c547 d23d aa09 283c
000000d0: e29d fcbc 80bc dc3d 7eff c33c 2936 99bd
000000e0: 1a9f 163d 23ee 99bd bf2f 003e a71a ea3b
000000f0: 68a9 2fbd 46af 43bd 6e9d babd 4e15 af3d
00000100: 367c ba3c 18a4 e83c 244d 7ebc eb19 aa3d
00000110: 4377 0d3c 7181 623d cedc 83bd fe86 e6bd
00000120: 90c3 c8bd 840e eb3d 4c6a 4bbd d177 233d
00000130: 3991 003e fa15 383d 2e7c a63d 4acf 8fbd
00000140: 77c4 ab3d 4edd b23d 57d1 85bd d183 ddbd
00000150: 7fe8 963d a750 25bd 2bcc e73d e809 72bd
00000160: ebf4 4a3c 8ac3 e5bd d20e 83bd ed7d 203c
00000170: f83b ecbc f6c8 9dbd 2f8b 113d e1d9 b63d
00000180: 2042 863b 1914 4abc 8cb0 a2bc 9a4c 11bd
00000190: 3fe6 a73d f90b b83d d151 673c 7881 03bd
000001a0: 455b 66bd f6e1 143d 75b7 8ebc bd9d 443d
000001b0: 083d 003d 10dd cc3d 1966 99bd 0830 59bb
000001c0: ef8b ac3d 2000 92bc e506 783d 6713 b4bd
000001d0: 2c67 a8bd 5021 ba3d 36ea a2bd 10d7 213d
000001e0: 88cd 8b3d 531c 1cbd cb90 e43d 08b9 043d
000001f0: 6456 cc3c 6aa5 83bd 41c7 5fbd ecef 103b
00000200: f860 073e e511 9a3b e8b5 ffbd 66d5 b0bd
00000210: 0463 cdbc 2e0e 10be 0542 5fbd 48f5 c1bd
00000220: a57c 00be 510c 513d f253 273c da28 333d
00000230: 3032 e2bc 7c4e a8bd 1c94 323d 0368 633d
00000240: e585 d3bd 6427 f8bc 1189 80bd 2f89 98bc
00000250: 9ae4 4a3d a810 7fbd 2882 dd3c ac77 073e
00000260: 0906 893d 97fb dd3d 94f2 9abd 8874 e5bd
00000270: 44ad d939 659f cebd f9e2 09bc a9da d1bc
00000280: 21c7 04bc c1c7 0c3a 7dc4 a8bd 9647 913d
00000290: 9166 d23c 240e a0bd a848 ea3d 7c4d 933d
000002a0: 6f15 393d c607 713d f269 8bbd 6cd0 dc3d
000002b0: 9458 da3d 8ef6 e7bd d8bf 96bd 86bd 13bd
000002c0: 7841 8f3d 4161 283d 84cb a63d e888 cdbd
000002d0: 17e9 f6bd bde9 87bd 6abd 5ebd f4a4 75bd
000002e0: 74f8 593b 332b 9e3d 46db 86bd 16ba 8e3d
000002f0: 214a debd 07b7 043e 6f9c 2b3d 3ab0 bb3d
00000300: 82e6 01bd 0a12 d03d 4205 9b3d bf9d 8abd
00000310: fcd7 493d d6cb 51bc 8953 09bd d90b 823d
00000320: 4855 d43d e593 c83c 3c08 ce3d 6574 88bd
00000330: c74e 96bd 8033 ad3d 18aa 8b3b 7e1d 10bd
00000340: 77fb b53d 1647 04bd 322c 723d 20db c33c
00000350: 9d1f e0bc 7574 80bd d754 bc3d e205 a3bd
00000360: f76b dabd 00d3 933d 236d bbbd 0e4d acbd
00000370: 477d f7bc 408d cbbd b58c 013c 559d 163d
00000380: 9934 dcbd 8d7e f83d 4cf1 7fbd 5fd7 47bd
00000390: 0740 f0bd 2fed a43d 4b0e ee3c ed6f 7ebd
000003a0: 3b29 0c3c 31d8 60bd 6f59 24bd 5d02 d4bc
000003b0: 3eb1 d4bc 8653 0fbd 40e8 e43d 2ac5 9abd
000003c0: 15fc 433d 54f8 b7bc e6dd a9bd 105a f33d
000003d0: c21c e9bd 66fd 8e3d d4d5 3abd 59fd 06bd
000003e0: 2aed dbbd 5d75 a03d 0d5c 963d 7e24 443c
000003f0: b00e 6cbd 36a3 013d 1493 29bd c23e d4bd

features.7.bias f4 [128]
0.01373057 -0.11607768 -0.02827279 0.02727166 -0.08492693 -0.09869201 -0.11256544 0.0027670492
0.11039943 -0.062203266 -0.1079616 0.0020312525 -0.11269294 -0.06599468 0.0999494 0.067004226
0.023308182 -0.011053363 0.094940774 0.09602176 -0.08022348 -0.1124795 -0.049757004 -0.050055783
-0.10786453 0.015190387 0.06890432 0.07832468 0.057969157 0.07979659 -0.1120048 0.10366783
0.0930395 -0.10910349 -0.025447523 -0.06464538 0.07210841 0.07616857 0.10137153 0.0036809708
0.060397536 -0.04596797 0.036892034 -0.11352711 -0.06067681 0.03949803 0.091805995 -0.111703575
-0.078857824 -0.01860459 0.10766075 -0.05487952 0.07675417 0.09657647 0.04517937 0.0750253
0.109946325 -0.008367768 0.12010142 0.073798425 -0.056012392 0.069083855 0.031855844 0.00069241534
0.09861172 -0.107534535 -0.11232044 0.115855776 0.021579066 0.016360333 -0.04296111 0.061852414
-0.04137743 0.027019653 -0.05397015 -0.084084935 -0.020209618 -0.0515637 0.105213195 -0.1129378
0.115252376 -0.118645824 0.054457698 0.11625313 0.025041807 -0.11976277 -0.03125293 -0.037827514
-0.11625252 -0.021481385 -0.018011265 -0.10183955 -0.04382185 -0.06514185 -0.04000151 0.07944003
0.08038418 0.10255718 0.033978082 -0.014848816 0.046224557 -0.040170588 0.061653405 -0.023955772
-0.037681952 0.11150194 0.10621413 -0.017483074 0.054137122 0.10095532 0.09566385 0.08694468
-0.1057951 0.066711545 0.008273973 0.039764646 -0.08045645 -0.06844633 -0.080716215 0.11790383
0.023487233 -0.074006446 -0.10224879 -0.018871551 0.08261533 0.081260234 0.004265437 -0.06172428
00000000: 2ff6 603c 22ba edbd 579c e7bc d168 df3c
00000010: 2cee adbd 091f cabd b688 e6bd 6257 353b
00000020: 1919 e23d dac8 7ebd f91a ddbd c31e 053b
00000030: 8ecb e6bd 3828 87bd 45b2 cc3d 8339 893d
00000040: cdf0 be3c 2a19 35bc 4f70 c23d 0ea7 c43d
00000050: 354c a4bd a75b e6bd 00ce 4bbd 4b07 4dbd
00000060: 14e8 dcbd 1ae1 783c b51d 8d3d b168 a03d
00000070: 1171 6d3d 656c a33d c662 e5bd cd4f d43d
00000080: 7e8b be3d a771 dfbd 5377 d0bc cc64 84bd
00000090: 93ad 933d 44fe 9b3d e09b cf3d 713c 713b
000000a0: 6863 773d e948 3cbd 1a1c 173d e780 e8bd
000000b0: 3f88 78bd b0c8 213d c804 bc3d d8c4 e4bd
000000c0: 3680 a1bd a768 98bc 3d7d dc3d 59c9 60bd
000000d0: 4a31 9d3d e2c9 c53d 010e 393d dda6 993d
000000e0: 8a2b e13d f618 09bc bcf7 f53d a123 973d
000000f0: 406d 65bd d67b 8d3d 467b 023d 3583 353a
00000100: f1f4 c93d 113b dcbd 4208 e6bd cb45 ed3d
00000110: 95c6 b03c 1b06 863c fdf7 2fbd f558 7d3d
00000120: 617b 29bd 5258 dd3c ce0f 5dbd b934 acbd
00000130: a48e a5bc 7534 53bd 047a d73d ef4b e7bd
00000140: 7009 ec3d 95fc f2bd 090f 5f3d 1f16 ee3d
00000150: 7a24 cd3c 2f46 f5bd 1303 00bd 06f1 1abd
00000160: cd15 eebd bbf9 afbc 5c8c 93bc 4191 d0bd
00000170: 8a7e 33bd 1769 85bd a0d8 23bd 74b1 a23d
00000180: 76a0 a43d 8009 d23d 9a2c 0b3d 7348 73bc
00000190: f655 3d3d ea89 24bd 4888 7c3d e53e c4bc
000001a0: 6458 1abd 215b e43d cb86 d93d aa38 8fbc
000001b0: e3be 5d3d aac1 ce3d 69eb c33d 0d10 b23d
000001c0: 1aab d8bd 10a0 883d 8f8f 073c 41e0 223d
000001d0: 5ac6 a4bd 972d 8cbd 8b4e a5bd 9077 f13d
000001e0: 4c68 c03c b190 97bd d067 d1bd 8398 9abc
000001f0: 3a32 a93d c46b a63d 14c5 8b3b 99d2 7cbd

features.8.weight f4 [128]
0.99650264 1.0000952 0.99739176 0.98613966 0.9932656 0.9978683 0.9882592 0.9982187
0.9965422 0.9911526 0.9938369 0.9977425 0.99810654 1.0187825 1.0012846 0.9973967
0.9974593 1.0105122 1.0044141 1.0191233 0.9933147 1.00589 0.99144423 0.9945423
0.9829283 1.0021752 1.0120442 0.99577636 1.0268332 0.99451345 1.0086446 1.003716
1.0120873 0.9927178 0.99775964 0.99436456 1.0049081 0.9992091 0.99298877 1.0042698
0.9865809 1.0070584 0.9916836 1.0059897 1.0026361 1.0018297 0.9852303 0.9911332
0.99344707 1.0111372 0.99214154 1.0114137 0.99625534 1.0045102 1.0012102 0.99352187
0.98894143 1.0104635 0.98456573 0.9905216 1.0020975 1.0106338 0.9996057 0.9973568
1.0076784 1.0055188 0.9935389 1.0168552 1.0102758 1.0041735 1.0006154 1.0064348
1.0078604 0.9924709 0.9896084 1.0001583 0.984561 0.9980269 1.0013505 1.0105588
0.9836272 1.017278 1.0158402 0.9925126 0.99906075 1.0080059 1.003418 1.0058588
1.0058386 1.0000229 0.9993628 0.99031186 0.9929148 0.98631537 0.9974145 0.9982365
0.9877326 1.0013642 1.0140063 0.9977477 0.9924815 0.9887359 0.9989067 1.0109448
0.9989709 0.98984474 0.9851616 0.99999064 1.0119066 0.99170697 1.0046304 1.0064092
1.0118047 1.0063549 0.98637795 1.0139343 1.0125418 1.0011356 1.0129749 1.0039697
0.9991995 0.9978302 0.9956846 1.0007915 1.0047185 1.0082868 1.0126642 1.0096709
00000000: cc1a 7f3f 1f03 803f 1155 7f3f a673 7c3f
00000010: a846 7e3f 4c74 7f3f 8efe 7c3f 438b 7f3f
00000020: 641d 7f3f 2dbc 7d3f 186c 7e3f 0d6c 7f3f
00000030: e983 7f3f 7767 823f 182a 803f 6455 7f3f
00000040: 7e59 7f3f 7758 813f a490 803f a272 823f
00000050: df49 7e3f 01c1 803f 4acf 7d3f 539a 7e3f
00000060: 30a1 7b3f 4747 803f aa8a 813f 33eb 7e3f
00000070: 456f 833f 6f98 7e3f 441b 813f c479 803f
00000080: 148c 813f c122 7e3f 2d6d 7f3f ad8e 7e3f
00000090: d4a0 803f 2bcc 7f3f 8334 7e3f ea8b 803f
000000a0: 9190 7c3f 4ae7 803f fade 7d3f 45c4 803f
000000b0: 6156 803f f53b 803f 0e38 7c3f e8ba 7d3f
000000c0: 8c52 7e3f f26c 813f fdfc 7d3f 0176 813f
000000d0: 970a 7f3f ca93 803f a827 803f 7357 7e3f
000000e0: 442b 7d3f de56 813f 800c 7c3f d392 7d3f
000000f0: bb44 803f 735c 813f 29e6 7f3f c652 7f3f
00000100: 9bfb 803f d7b4 803f 9158 7e3f 5028 823f
00000110: b850 813f c288 803f 2a14 803f dbd2 803f
00000120: 9201 813f 9312 7e3f fa56 7d3f 3005 803f
00000130: 310c 7c3f b17e 7f3f 412c 803f fe59 813f
00000140: fece 7b3f 2a36 823f 0d07 823f 4e15 7e3f
00000150: 72c2 7f3f 5606 813f 0070 803f fbbf 803f
00000160: 52bf 803f c000 803f 3ed6 7f3f 1485 7d3f
00000170: aa2f 7e3f 2a7f 7c3f 8f56 7f3f 6d8c 7f3f
00000180: 0bdc 7c3f b42c 803f f5ca 813f 656c 7f3f
00000190: 4513 7e3f cc1d 7d3f 59b8 7f3f a466 813f
000001a0: 8fbc 7f3f 7766 7d3f 8d33 7c3f 63ff 7f3f
000001b0: 2886 813f 82e0 7d3f bb97 803f 04d2 803f
000001c0: d182 813f 3dd0 803f 4483 7c3f 99c8 813f
000001d0: f89a 813f 3625 803f 29a9 813f 1482 803f
000001e0: 8acb 7f3f cd71 7f3f 30e5 7e3f f019 803f
000001f0: 9e9a 803f 8b0f 813f fb9e 813f e53c 813f

features.8.bias f4 [128]
-0.001285351 -0.006741158 0.008505691 -0.008590834 -0.0006791698 -0.0069962214 -0.013022625 -0.003790212
-0.0030188109 -0.01734546 -0.0063961926 -0.0045437426 -0.0037062045 0.03001521 -0.007848018 -0.00041073648
0.005763738 -0.0007902438 -0.00014439237 0.028157549 -0.0020302725 0.0017604113 -0.008279582 0.00074798317
-0.009061116 0.011333175 0.008349233 -0.004623857 0.026313512 -0.010305728 0.016236601 0.0032247244
0.014496026 -0.004840752 -0.0065547735 -0.0022295755 0.0041654278 0.010403526 -0.0094458405 -0.00043387065
-0.007204061 0.009841659 -0.010910176 0.0072230296 0.010250573 -0.0055126757 -0.0038666658 -0.010122195
-0.0071187997 0.010737699 -0.012234351 0.0018794069 -0.0009298137 0.014282493 0.0037072024 -0.012168458
-0.008500828 0.012379196 0.003906937 -0.0045023807 0.0019157584 0.0062992414 -0.0016842688 0.0016066063
0.010917039 0.017552514 -0.011199048 0.0121338265 0.013118021 0.0048194686 -0.0034909244 0.015556775
0.00087503553 -0.0077970554 -0.0072161336 -0.0028034628 -0.019237882 -0.0061359587 -0.0054219603 0.0062361304
-0.009625698 0.006446133 0.012218524 -0.0010127178 0.0015629452 0.005092821 0.0023581302 0.012102786
0.003623014 -0.00061065087 -0.00489699 -0.014482545 0.0008928048 -0.018913392 -0.0013630517 -0.0064933677
-0.016531441 -0.009699454 0.018560888 -0.0056920075 -0.00289475 -0.009443258 0.006002873 0.0077359653
-0.0063539688 -0.004433105 -0.007288629 -0.006025979 0.0024816974 -0.008144781 0.004431062 0.0035632502
0.008705893 0.01558838 -0.009428987 0.005071097 0.009274679 -0.0012669627 0.012098573 0.0006165309
-0.0004715112 -0.00026330582 -0.00044622683 0.0055296356 0.0046552606 0.004060096 0.017291838 -0.0008640842
00000000: 3979 a8ba efe4 dcbb 745b 0b3c 92c0 0cbc
00000010: 500a 32ba 8f40 e5bb d95c 55bc 3565 78bb
00000020: 3ed7 45bb 1118 8ebc 2797 d1bb ade3 94bb
00000030: cbe3 72bb 75e2 f53c f994 00bc 1e58 d7b9
00000040: bddd bc3b 5d28 4fba 0868 17b9 a9aa e63c
00000050: 520e 05bb 9abd e63a 15a7 07bc 4d14 443a
00000060: 1375 14bc c8ae 393c 39cb 083c b983 97bb
00000070: 6f8f d73c 5bd9 28bc 9f02 853c e655 533b
00000080: bd80 6d3c 2c9f 9ebb 6dc9 d6bb 121e 12bb
00000090: 247e 883b 8d73 2a3c bac2 1abc 2279 e3b9
000000a0: 0b10 ecbb e93e 213c 98c0 32bc 2aaf ec3b
000000b0: 05f2 273c ada3 b4bb e367 7dbb 90d7 25bc
000000c0: d244 e9bb 2ded 2f3c 9672 48bc 6e56 f63a
000000d0: bebe 73ba 1e01 6a3c 89f4 723b 365e 47bc
000000e0: 0f47 0bbc 1cd2 4a3c c305 803b b588 93bb
000000f0: 2f1a fb3a de69 ce3b afc2 dcba c394 d23a
00000100: 61dd 323c 4aca 8f3c 367c 37bc f5cc 463c
00000110: f8ec 563c a2ec 9d3b fec7 64bb d8e1 7e3c
00000120: a462 653a 717e ffbb 5175 ecbb 4dba 37bb
00000130: c398 9dbc 2710 c9bb b3aa b1bb 7458 cc3b
00000140: 1bb5 1dbc 153a d33b 3430 483c 2cbd 84ba
00000150: bddb cc3a aee1 a63b dc8a 1a3b c44a 463c
00000160: 1770 6d3b 1614 20ba ee76 a0bb 3248 6dbc
00000170: 1e0b 6a3a 42f0 9abc 6da8 b2ba 51c6 d4bb
00000180: f26c 87bc 75ea 1ebc 010d 983c 0584 babb
00000190: d9b5 3dbb e5b7 1abc c0b3 c43b fb7d fd3b
000001a0: f434 d0bb 9443 91bb 74d5 eebb 9375 c5bb
000001b0: f9a3 223b b071 05bc 7132 913b 6b85 693b
000001c0: 29a3 0e3c 6866 7f3c 0a7c 1abc 722b a63b
000001d0: d3f4 173c 3710 a6ba 1839 463c b09e 213a
000001e0: 2935 f7b9 4f0c 8ab9 8df3 e9b9 f231 b53b
000001f0: 288b 983b 8e0a 853b 9da7 8d3c b683 62ba

features.8.running_mean f4 [128]
-0.28811732 0.057789218 -0.21385345 -0.14259863 0.23512022 -0.13655767 -0.33036035 -0.120633304
0.022363462 -0.029044366 -0.053960897 -0.06349104 -0.05885835 -0.009489019 0.41775706 0.22787534
0.02983411 0.18421277 -0.049972236 0.10614885 0.117462166 -0.38569215 -0.02454759 0.40698323
0.12049885 0.21842231 -0.11398816 -0.22886032 -0.061819073 0.09923153 -0.00064120104 0.08386018
-0.22867864 -0.18069468 0.23425634 -0.07863388 0.45318803 0.10621211 -0.049872093 0.11989796
0.29720035 -0.12016215 -0.5926194 -0.050098024 -0.18875083 0.13678679 -0.26239884 0.18309398
0.024801392 0.032507516 0.123633936 0.34332186 -0.3252165 -0.010998134 -0.011264089 0.5145782
0.21397331 -0.27967268 0.5581822 0.1105669 -0.13542598 -0.3672798 -0.013318782 0.076808475
-0.18595667 0.06039988 -0.55354977 -0.12761644 -0.085033655 0.24331105 0.26109973 -0.127454
-0.13012367 0.035142265 -0.22094154 -0.096028686 -0.14585736 -0.29080987 -0.089550704 0.028431002
0.18298747 -0.32791704 -0.03460726 0.122717 0.067724004 -0.037601486 -0.3264199 -0.3221298
0.36615908 -0.04861951 0.35467875 -0.1901926 -0.034390125 -0.15081029 0.022895535 0.52172846
0.2429746 0.3062913 0.34577796 0.27478653 -0.22445713 0.04229118 0.16464794 -0.3410457
-0.29120493 0.118582465 -0.15042906 -0.26296172 0.018552877 0.13943754 0.08028518 0.22638215
-0.04354937 -0.017230239 -0.12786916 -0.17867038 -0.17486858 -0.13266496 0.06855439 0.35491887
-0.029915629 -0.053407043 -0.4492094 0.32288945 0.51707065 -0.059481487 -0.2236628 -0.18295465
00000000: 1d84 93be 63b4 6c3d 66fc 5abe 6005 12be
00000010: 5bc3 703e c6d5 0bbe fe24 a9be 980e f7bd
00000020: 9433 b73c 73ee edbc 1a06 5dbd 9707 82bd
00000030: 7415 71bd d577 1bbc 41e4 d53e 2758 693e
00000040: aa66 f43c 46a2 3c3e b0af 4cbd 9164 d93d
00000050: 0190 f03d 7179 c5be 0718 c9bc 1b60 d03e
00000060: 1ac8 f63d 19aa 5f3e a072 e9bd 5c5a 6abe
00000070: ff35 7dbd e739 cb3d 4616 28ba e3be ab3d
00000080: bc2a 6abe 0708 39be e5e0 6f3e cd0a a1bd
00000090: 4308 e83e bc85 d93d ae46 4cbd 108d f53d
000000a0: a52a 983e 9317 f6bd e8b5 17bf 9633 4dbd
000000b0: e647 41be d611 0c3e 2459 86be fd7c 3b3e
000000c0: 4a2c cb3c 9a26 053d ca33 fd3d e2c7 af3e
000000d0: c782 a6be 8431 34bc 038d 38bc 66bb 033f
000000e0: d21b 5b3e 4231 8fbe 07e5 0e3f e670 e23d
000000f0: 1cad 0abe 190c bcbe 0537 5abc c34d 9d3d
00000100: 6d6b 3ebe dd65 773d 70b5 0dbf e2ad 02be
00000110: 2026 aebd 8826 793e ddae 853e 4d83 02be
00000120: 243f 05be 56f1 0f3d 803e 62be b0aa c4bd
00000130: a25b 15be 08e5 94be 5c66 b7bd 22e8 e83c
00000140: 1161 3b3e bee4 a7be 58c0 0dbd 0d53 fb3d
00000150: e2b2 8a3d 0404 1abd 8220 a7be 32ee a4be
00000160: 3479 bb3e 4025 47bd 7498 b53e d9c1 42be
00000170: a9dc 0cbd 036e 1abe 6b8f bb3c ff8f 053f
00000180: 55ce 783e 37d2 9c3e cf09 b13e d2b0 8c3e
00000190: 17d8 65be 8439 2d3d 7899 283e 8b9d aebe
000001a0: d018 95be 5ddb f23d 130a 1abe eba2 86be
000001b0: 34fc 973c b7c8 0e3e 8e6c a43d b9d0 673e
000001c0: d360 32bd 6e26 8dbc 22f0 02be 5ef5 36be
000001d0: c010 33be 53d9 07be 3e66 8c3d edb7 b53e
000001e0: 9f11 f5bc 58c1 5abd c6fe e5be c451 a53e
000001f0: be5e 043f dca2 73bd dc07 65be 7758 3bbe

features.8.running_var f4 [128]
0.125892 0.18942869 0.31874058 0.1288304 0.34376252 0.10280472 0.17552318 0.12221893
0.086966716 0.14138846 0.102812596 0.0836753 0.13799812 0.24127199 0.2769287 0.20820601
0.2353307 0.14681591 0.31683987 0.1978163 0.11410648 0.28497437 0.2084863 0.24930185
0.17520908 0.2132115 0.11097038 0.18849793 0.24360053 0.15733773 0.12226475 0.21169919
0.26779863 0.15509667 0.1746043 0.15995616 0.18090747 0.14131284 0.11904105 0.18853757
0.14400227 0.1521778 0.19808058 0.14409849 0.17782946 0.11298365 0.22946638 0.06753481
0.22620392 0.2821146 0.114861906 0.24508616 0.22463223 0.110542096 0.12664925 0.30013305
0.17045213 0.14179845 0.32815126 0.1303327 0.20690621 0.17802815 0.23263693 0.12645273
0.20007382 0.19714227 0.14398865 0.13525787 0.2687672 0.21633306 0.1954498 0.1611707
0.19917646 0.12007754 0.17878383 0.17165567 0.10965544 0.13541225 0.12523688 0.20577395
0.17549337 0.22831656 0.22193663 0.15607348 0.13801947 0.13478328 0.1546272 0.22428524
0.2743668 0.20707026 0.42880425 0.16093828 0.12024659 0.08419698 0.20422159 0.2476113
0.14276156 0.2274648 0.09445809 0.12801382 0.3703168 0.1806212 0.12056018 0.15354973
0.22164863 0.31948802 0.14898437 0.12511228 0.11673519 0.20423467 0.15049005 0.170611
0.17873667 0.18404892 0.14692578 0.18103373 0.18046173 0.22624075 0.18218563 0.4195541
0.12960793 0.22738741 0.13679433 0.22322841 0.122871056 0.21527423 0.21919231 0.17063999
00000000: d5e9 003e 98f9 413e f731 a33e 1eec 033e
00000010: a401 b03e 488b d23d 59bc 333e eb4d fa3d
00000020: 9b1b b23d 23c8 103e 698f d23d f55d ab3d
00000030: 614f 0d3e 0110 773e 99c9 8d3e f533 553e
00000040: 88fa 703e e956 163e d638 a23e 5b90 4a3e
00000050: a8b0 e93d 29e8 913e 6f7d 553e fc48 7f3e
00000060: 026a 333e 1e54 5a3e 7044 e33d 9a05 413e
00000070: 6b72 793e 241d 213e f165 fa3d acc7 583e
00000080: e71c 893e a9d1 1e3e 78cb 323e 8ccb 233e
00000090: cf3f 393e 50b4 103e cbcb f33d fe0f 413e
000000a0: 5575 133e 7fd4 1b3e a3d5 4a3e 8e8e 133e
000000b0: ed18 363e f963 e73d 3cf9 6a3e b14f 8a3d
000000c0: 00a2 673e 5371 903e b83c eb3d def7 7a3e
000000d0: fe05 663e e563 e23d 57b0 013e 0aab 993e
000000e0: 018b 2e3e 9d33 113e 7103 a83e ef75 053e
000000f0: 39df 533e 034d 363e 6038 6e3e d37c 013e
00000100: 27e0 4c3e aadf 493e c371 133e 0a81 0a3e
00000110: db9b 893e 6a86 5d3e fe23 483e ef09 253e
00000120: eaf4 4b3e 37eb f53d 1c13 373e 81c6 2f3e
00000130: 0893 e03d 82a9 0a3e 193e 003e 68b6 523e
00000140: 89b4 333e d1cb 693e 5b43 633e bad1 1f3e
00000150: fa54 0d3e a104 0a3e 9856 1e3e 08ab 653e
00000160: ce79 8c3e 3a0a 543e 3b8c db3e 01cd 243e
00000170: d843 f63d 776f ac3d 771f 513e d18d 7d3e
00000180: 1630 123e 88ec 683e 3e73 c13d 0e16 033e
00000190: 2a9a bd3e c4f4 383e 41e8 f63d 243c 1d3e
000001a0: dcf7 623e ef93 a33e 5c8f 183e 6f1d 003e
000001b0: dc12 ef3d e522 513e 101a 1a3e a6b4 2e3e
000001c0: bf06 373e 5277 3c3e b673 163e e860 393e
000001d0: f6ca 383e a8ab 673e df8e 3a3e cccf d63e
000001e0: f1b7 043e 3fd8 683e d013 0c3e fd95 643e
000001f0: d2a3 fb3d d970 5c3e f373 603e 40bc 2e3e
